checkpoints_LabelEncode/best.pth (torch, 85227 bytes, 25 tensors)

dnn.0.weight f4 [64, 12]
00000000: 347a 8e3e ad41 22bd 8377 fab9 81fd 3dbe
00000010: 7fb0 ef3d 7bf4 a33c 4e9b 323e 8107 023e
00000020: f3be 26be 963e f33d 200c 093e 38c5 243e
00000030: 37dd 803c d029 4d3e 5989 443e 35f5 87be
00000040: c00e 183e e053 3abd 96fd bbbd 001a 453e
00000050: cd1a 89be b4bb 52bd 0d35 753e 166b 4a3e
00000060: 9c25 473e a080 98bd 0008 00be 3f05 37be
00000070: 18de 64bd 6950 bcbd 92fc 913c 82ca f13e
00000080: 9160 eabd 3c6a 873e 654f 9c3e 2dd6 393e
00000090: bc48 bcbc 4b94 023e 0150 cb3d 9e77 f83d
000000a0: e45a bdbd 305f c03d 9483 65be 70c6 95bd
000000b0: 7f22 a63e ed13 40be e4ae ee3d d630 a43c
000000c0: a971 873e 9f50 503e 8750 5b3e ce1d 36be
000000d0: cb18 20bd 4d5c 903e 0224 e7bd 7151 19be
000000e0: 6081 3dbe cd58 b43d 3602 993d 2b1c cb3d
000000f0: d4f7 e43d 15ff 103e c5c6 07be 2934 9a3d
00000100: 6f28 a6be af44 933d 89ee 253e bfb4 f2bd
00000110: 35f5 09bd bb14 a6bd b76a 313e d084 f4bc
00000120: c705 b33d d168 2dbc a5e9 9b3c b9cd 573d
00000130: f1d2 2b3f 6be1 763e d9b4 263e b01e 083d
00000140: 3874 da3d 05ee 34be 600a 7a3e 5730 05bd
00000150: 3f6c 78be 87d0 f5bc 6335 503e d292 46bd
00000160: a933 7a3e c29b 67bd 0026 e43d 8c49 bb3e
00000170: 3547 eebd 2f7f 083e e1bd a53e bc5a 27be
00000180: 9413 42be cab6 54bd cd4e 2cbc 41ea 19be
00000190: 16b0 41be d4a3 8dbe 307c d33c 99b2 63bd
000001a0: 7399 b03c d460 d5bd 5689 47be 89b9 04bd
000001b0: 4392 85be 5bd0 81be d978 7b3e 773f fd3a
000001c0: aca6 623e ff80 fb3d bb11 6d3e a142 37be
000001d0: 5a47 0cbd 2db2 d4bc 338a 1ebe fe64 643e
000001e0: 035a 86be f0b2 74be 1c52 923d 6256 fbbd
000001f0: 8cb2 893d 16de 76be 71b4 c83c ab88 39be
00000200: 70f6 ae3d 3989 513e 8c8b 6ebe 7f7c 603e
00000210: 733a e2bd 3999 2c3d f09a 21bd 4671 1c3e
00000220: d7c5 bbbd aa65 80bd 901e 7c3e e6a0 d53b
00000230: 3c4e 13be a42c 2cbd dd55 a9be ba72 693e
00000240: 70a6 8e3d aea6 e7bd 89bd 42be c422 4cbe
00000250: fbdd 65be bc04 723e 09f2 6a3e e708 9cbd
00000260: 798d 75be 2a19 45be a546 a03d 6cfc 903e
00000270: 4269 64be c4e7 babd 74cc 5dbc 75a6 913d
00000280: b75a 2abe 5722 da3d 6873 783e 712e 81bd
00000290: b976 2c3d 08fc 03be ff38 713e ef7b 893e
000002a0: cc3f 4cbd 6c0c 8cbe 24b0 8f3e 1f25 23be
000002b0: 7305 413e 3166 31be 3512 cebd 0eb7 c53d
000002c0: bec4 3b3d b90f 703e fd7e b0bc 1f41 d1bd
000002d0: 6eb6 38be 8a5c 11be 5719 65be 5f9f 4a3e
000002e0: f423 04be 6b9c fe3c 0946 d5bd da16 34bd
000002f0: 0799 c8be 9a8a 87be 048b 073e 1bdb 813e
00000300: 7ab3 fbbd be16 2dbe d27c 0a3e 80f5 95bd
00000310: 3bb9 69be 28cf 203e 1733 44be e3b2 673e
00000320: 78ea d4bd 2c7c 9c3e 4418 93be d1d6 4d3c
00000330: 7e01 0bbe 5350 ed3d 5399 cdbd 88ff 2e3e
00000340: 33e9 3cbe 98c8 7fbc b42f 883e 4e0a 7e3e
00000350: 0fd2 153e 542e 8e3e b865 083e adaa 91be
00000360: 7494 6c3d 8bc9 0dbe c1ae 3abe 1d88 6abe
00000370: 94e2 72bd a2bc a33d 9c9c 1d3d 9fe4 a83e
00000380: 55ff 6a3d 66c5 9dbd 5d42 7d3e ccd7 2abe
00000390: 278c 3abd bbd4 eb3c f16b 153d a80e 42be
000003a0: 873a 5ebe 40ea 00bd 6cb3 673e 560b 8e3d
000003b0: 5316 893b eb5f 7abe c29b 553e c0f6 19be
000003c0: 5d60 5d3e 5f44 3ebe 68dd 6c3e f8b8 583c
000003d0: 6cd7 f6bd 5291 4e3e 8ad5 39bc 2644 833e
000003e0: 2938 0f3e 306e 45be 0c52 d5bd 5450 a5bd
000003f0: 3aa7 cdbd d058 74be a96f 61be 97c1 cb3d
0.2782761 -0.039613415 -0.0004777276 -0.18553735 0.11703586 0.020014038 0.17442057 0.12698175
-0.16283779 0.11877172 0.13383532 0.16090858 0.015730483 0.20035481 0.19193019 -0.26554266
0.14849377 -0.045490146 -0.09179227 0.192482 -0.2677826 -0.05144854 0.23946019 0.19767413
0.1944794 -0.07446408 -0.12503052 -0.17873095 -0.055875868 -0.091950245 0.01782063 0.47224814
-0.114442 0.26448238 0.30529323 0.18148108 -0.022983901 0.12751882 0.09927369 0.1213219
-0.09245852 0.093931556 -0.22413474 -0.073132396 0.32448193 -0.18757601 0.116544515 0.020042818
0.26453903 0.20343255 0.21417437 -0.17784807 -0.039086144 0.2819542 -0.11286165 -0.14972474
-0.18506384 0.08806 0.07471125 0.09917482 0.11180082 0.14159806 -0.13259418 0.0752948
-0.32452723 0.07190835 0.16204275 -0.11850881 -0.033681113 -0.08109423 0.17325865 -0.029848486
0.08741336 -0.010584072 0.019032309 0.052686427 0.67118746 0.24109428 0.16279925 0.03323239
0.10666698 -0.17668922 0.2441802 -0.032516804 -0.24260043 -0.03000666 0.20332865 -0.048479863
0.2443377 -0.056545027 0.111400604 0.3657955 -0.116346754 0.13329767 0.3237143 -0.16343206
-0.18952781 -0.051932134 -0.010516834 -0.15030767 -0.18914828 -0.27664053 0.025816053 -0.055590246
0.021557545 -0.10418859 -0.19485983 -0.032403503 -0.2608815 -0.25354275 0.24557818 0.0019321282
0.22133893 0.122804634 0.23151295 -0.1789651 -0.034247734 -0.025963867 -0.15482406 0.2230415
-0.26240548 -0.23896384 0.07144567 -0.122723356 0.06723508 -0.24108157 0.024500104 -0.18118541
0.08543098 0.20462503 -0.2329542 0.21922491 -0.110463046 0.042138312 -0.0394544 0.15277585
-0.09168594 -0.06269391 0.24621034 0.0065194247 -0.14385313 -0.04203476 -0.3307332 0.22797671
0.06965339 -0.113110885 -0.19017614 -0.19935137 -0.2244796 0.23634619 0.22943892 -0.076188855
-0.23979749 -0.1924788 0.078259744 0.28317583 -0.22305778 -0.09126237 -0.013537515 0.07111827
-0.16636167 0.10651081 0.24262774 -0.06307686 0.04210541 -0.12889111 0.23556899 0.26852366
-0.04986553 -0.27353227 0.28064072 -0.1593213 0.18849735 -0.17324139 -0.100620665 0.096540555
0.045841925 0.23443498 -0.021544928 -0.10217499 -0.18038341 -0.14195457 -0.22372948 0.19787358
-0.1290434 0.031080445 -0.10413749 -0.043967105 -0.3917925 -0.26472932 0.13236624 0.25362477
-0.12290092 -0.16903207 0.13524178 -0.07322216 -0.22824566 0.15704024 -0.19160114 0.22626834
-0.10396284 0.30563486 -0.2872945 0.012563423 -0.13574788 0.11587586 -0.1003901 0.17089665
-0.18448333 -0.01561179 0.26598895 0.24808618 0.14630912 0.2776972 0.13320053 -0.28450528
0.057758763 -0.13846414 -0.18230726 -0.22903486 -0.059298113 0.07994963 0.038479432 0.32986924
0.05737241 -0.077036664 0.24732347 -0.16683882 -0.045543816 0.028787961 0.036479894 -0.18950903
-0.21702014 -0.0314734 0.22627038 0.06935756 0.0041835695 -0.24450652 0.20860198 -0.15035534
0.21618791 -0.18580769 0.23131335 0.013227694 -0.12052807 0.20172623 -0.011342416 0.2563793
0.13986267 -0.19280314 -0.1041604 -0.08071962 -0.100416616 -0.23862004 -0.22015251 0.09949034

dnn.0.bias f4 [64]
00000000: 3ef9 8abd 8b97 58be 314c 12be 741e ff3c
00000010: 2c03 c83b d78e b63d af71 1e3e 801c 2bbe
00000020: 3073 063d fbad 1e3e 14db 3fb9 9dde 13be
00000030: 2424 83be 245f bb3d 3c5a edbd ebab 3abe
00000040: 5ac3 d73d 2b5c 80be 9444 82bd 9192 853e
00000050: 8d72 50be 263b 78be 6eda 82be 26b3 633e
00000060: d71e 443e 672e c33d 590a 91be eea1 36be
00000070: a6e1 493e 13f6 5fbe 4a5a 81be cb9e aabd
00000080: 8ecc 773e 829b 553e 884d 753d 55af f23d
00000090: a332 a73a 0887 653e 7f0f bdbc 7ea7 89be
000000a0: 6c00 6bbe 5fee 4b3d 27cc ae3d 82cd 01be
000000b0: f51f 0dbd e3a0 693e be2e 49bc 97dc 21be
000000c0: 0f7f 3dbe cf0e 87be e12a 283e 5186 a9bc
000000d0: 2d10 ee3c 2fcd cebd d102 d33d b894 9f3d
000000e0: 0167 903e c4e8 3f3d 058a 8bbe 603b 523e
000000f0: 4b1e 103d 17e9 17be 2e06 b7bd 4e6d 6cbd
-0.067858204 -0.21151559 -0.14286877 0.03114245 0.0061038937 0.08913963 0.15473054 -0.1671009
0.032824695 0.15496056 -0.00018296792 -0.14440389 -0.2561351 0.09149006 -0.115894765 -0.18229644
0.10535307 -0.2507032 -0.063607365 0.26088384 -0.20356198 -0.24241313 -0.25557274 0.22236308
0.1915239 0.09530335 -0.28328207 -0.17835209 0.19714984 -0.21871214 -0.25264198 -0.083310686
0.24199125 0.20860103 0.059888393 0.11849848 0.001275618 0.22414792 -0.023078678 -0.268856
-0.2294938 0.049787875 0.08535033 -0.12676051 -0.034454305 0.2281528 -0.012279211 -0.15806805
-0.185055 -0.26378486 0.16422607 -0.02069393 0.029060448 -0.100977294 0.103032716 0.07792038
0.28203586 0.046852842 -0.27253738 0.20530462 0.03518514 -0.1483501 -0.089367256 -0.05772143

dnn.1.weight f4 [64]
00000000: 9d20 723f a40c 7c3f e419 883f 8b88 773f
00000010: 6b26 783f 47d2 7a3f 2df4 7f3f 98a4 7f3f
00000020: 7152 833f 5375 773f 7565 753f b22c 863f
00000030: 6647 743f c3d2 7f3f b8b8 763f 928d 7a3f
00000040: 0cf2 803f 2e90 803f d0b8 783f cf8a 803f
00000050: 2bc2 753f ba3b 883f fd0a 803f ed08 843f
00000060: abf4 7e3f c43f 733f 646a 713f e577 753f
00000070: 4611 813f 034e 823f 8f71 883f f0a1 873f
00000080: 6383 7f3f 4a0d 8c3f a4b1 843f 53da 813f
00000090: 6789 753f 0e63 823f 688d 8b3f 23d1 833f
000000a0: 1d4c 833f 3131 873f 8a23 663f 7eb8 7d3f
000000b0: c8d4 813f 62ef 6d3f 67a0 7c3f 26dd 783f
000000c0: dc2b 743f 16a2 773f 660b 7c3f 9591 7c3f
000000d0: 46fd 763f 2ee3 753f b865 723f 4699 813f
000000e0: 7f84 743f 472c 7e3f a379 803f 43a1 813f
000000f0: e90b 853f d766 7e3f 0c78 7e3f fa05 7b3f
0.94581014 0.9845679 1.0632901 0.96692723 0.9693362 0.9797711 0.9998196 0.99860525
1.0259534 0.966634 0.95857936 1.048239 0.95421445 0.9993097 0.9637561 0.9787227
1.0073867 1.0044 0.97157 1.0042361 0.959994 1.0643227 1.0003353 1.0315224
0.99592084 0.95019174 0.94302964 0.9588607 1.0083396 1.0180057 1.0659655 1.0596294
0.99809855 1.0941556 1.0366712 1.0144752 0.95912784 1.0186479 1.0902529 1.0298198
1.0257603 1.0561887 0.8989798 0.9910964 1.0143061 0.92943394 0.98682255 0.97212446
0.95379424 0.967317 0.9845489 0.9865964 0.96480215 0.96049774 0.9468646 1.01249
0.95514673 0.9928631 1.003712 1.0127338 1.039426 0.9937567 0.99401927 0.98055995

dnn.1.bias f4 [64]
00000000: f8bc 52bc aec0 5cbd 8456 e53d a2fa 08bd
00000010: edfa a0bd 9d11 cbbb 4e5d e9bc f466 ebbc
00000020: bcc9 a6bc 4c4c a4bd 48a0 56bd 76b4 5cbb
00000030: 00c5 cebd 160b b9bc 9db1 98bd ff5f 78bc
00000040: 5414 b63b 430b 363a 00be 38bc 3b8b 91bc
00000050: 05b0 b3bd cf4f 6ebc c99f 30bd b5d6 483d
00000060: da7c a2bd ea5c e0bb 00a9 06be 8d6c de3b
00000070: ed38 5abd f82f afbd 186e 013c d3af fc3d
00000080: e774 c7bc cf6e 043b ca2a 14bb 89f8 ce3c
00000090: 098e 343d 37a0 c1bd ed1a 233d cf95 29bd
000000a0: 3cbe 783c fe0c 213d 9c01 b2bd ebe5 84bd
000000b0: a82b 833b ab27 26bd 4fe1 0ebc f6a6 d2bc
000000c0: 5e59 0cbd 3bea 95bd e1ba 4d3c 3d5a afbd
000000d0: 2c8b 75ba 7c48 3abc aa1d bfbd 35a5 e03c
000000e0: 6190 95bc dd3e b43c c444 e9bb 8569 1bbd
000000f0: 41ce 083c 70dd 873d f85b c6bd 5aca 1d3d
-0.0128624365 -0.05389469 0.11198142 -0.033442147 -0.0786036 -0.006197168 -0.028486874 -0.028735615
-0.020359866 -0.08022365 -0.05239895 -0.00336769 -0.100961685 -0.022588294 -0.07455752 -0.015159606
0.0055566225 0.0006944427 -0.011275768 -0.017766586 -0.087738074 -0.014545395 -0.043121133 0.049032886
-0.0793397 -0.0068470137 -0.13150406 0.0067878426 -0.053276945 -0.08554071 0.007899784 0.12338223
-0.024347736 0.0020207649 -0.0022608512 0.025264995 0.044080768 -0.09454387 0.0398206 -0.041402634
0.015182074 0.03931903 -0.08691713 -0.06489166 0.004003007 -0.040565174 -0.00872071 -0.025714379
-0.034264915 -0.073200665 0.012556762 -0.085621335 -0.00093667465 -0.011369821 -0.0933183 0.027422527
-0.018257322 0.022002632 -0.007118793 -0.03794243 0.008349956 0.06634033 -0.096855104 0.038523056

dnn.1.running_mean f4 [64]
00000000: 69d6 ec3e 79a8 863e adb4 e03e 9019 5c3d
00000010: feba a23e 2669 54bd 62c5 943f 7361 203f
00000020: 1422 23bf ac4b 993e 61db c6be aaaf d9be
00000030: 2804 e7be adf0 2f3e 0b66 033e f0e7 37bf
00000040: 8134 48bd f90b a93d 6f3a 373e 16e7 883e
00000050: d480 dd3d a3b0 6abe 7ed5 f3be 83bd 903e
00000060: 7d76 debe e0d2 39be 3960 65be ec3d 15be
00000070: 4193 9dbd de09 0e3e 0463 063e 04ed aa3d
00000080: 9d25 533f 5c9f d9bd a9b0 31be 0b90 26be
00000090: 60ad 8d3e 3b21 82bd 1f98 46bf 20aa 213f
000000a0: 4b15 35bf fc3c 253f d7cf ffbe 881c 0b3f
000000b0: d3ce 723e 5ba3 aa3e 1185 d2be e941 c63e
000000c0: a829 903e e671 b8be 9b61 823e 1ab3 383e
000000d0: 51d7 823e 024a 9c3d 6202 713e b24e a4bc
000000e0: 1231 db3e 8034 b13d 1d16 66bf 16c2 0a3f
000000f0: cc8c bfbe 8b42 c43e e8d4 a53e bad0 d8bc
0.46257332 0.2630041 0.43887845 0.053735316 0.3178329 -0.05185809 1.1622736 0.62648696
-0.63723874 0.29940546 -0.38839248 -0.42516834 -0.45120358 0.17181654 0.12831895 -0.71838284
-0.048878197 0.08254237 0.17893384 0.26738805 0.10815588 -0.22918944 -0.4762382 0.28269586
-0.43449774 -0.18146849 -0.22399987 -0.14574403 -0.07694102 0.13870952 0.13123709 0.083459884
0.8247927 -0.106260985 -0.17352547 -0.16265886 0.27671337 -0.063539945 -0.7757587 0.63150215
-0.70735615 0.6454618 -0.49963257 0.5434041 0.2371171 0.33327755 -0.41117147 0.3872216
0.2815678 -0.36024398 0.25465092 0.18037072 0.25554898 0.07631303 0.23536065 -0.020057056
0.42810875 0.08652592 -0.8987749 0.542024 -0.37412107 0.38332018 0.32388997 -0.026466716

dnn.1.running_var f4 [64]
00000000: 4fbe 8c3c 79c5 cf3c 78d3 0b3d bdc2 c93c
00000010: 55c0 f33c d59b 9c3c 8ae6 ff3c 5a0e 183d
00000020: 080c 8d3c 0832 353d e0d4 063d 15da b63c
00000030: 5866 003d 5b3d a43c 085c 433d ea25 383d
00000040: 6169 143d edaf 453d 441c 9f3c d8fc 863c
00000050: 20cc 123d 9442 e63c 1cc8 023d b42b 093d
00000060: 3975 f13c 261d a43c d340 193d 2830 0e3d
00000070: e4e0 0a3d ebf4 f53c cd17 a93c b837 0f3d
00000080: 0283 173d 5e89 c73c 7c4c de3c acda ea3c
00000090: a361 b63c 45f2 163d ac4a f53c b542 6c3d
000000a0: ecaa 193d 889a e73c 34b6 e93c 226a cf3c
000000b0: e913 203d 1cfa e43c c73a 513d 4dd0 403d
000000c0: 5129 193d e79d a43c 5bf9 113d b325 313d
000000d0: a9eb d23c 0b21 fe3c 2445 0c3d 801e ce3c
000000e0: c645 803c 3dde 263d dfe0 e93c 56c0 f03c
000000f0: 7f45 a73c 51cc cc3c f3d3 f03c 9042 093d
0.01718059 0.025362717 0.03413722 0.024628991 0.029754797 0.019117275 0.03123786 0.03712306
0.017217651 0.044237167 0.032917857 0.022320786 0.031347603 0.020048788 0.04769519 0.044958033
0.03623331 0.04826348 0.019422658 0.016477987 0.0358392 0.028107919 0.03192912 0.033488944
0.029474841 0.02003343 0.037415337 0.034713894 0.03390588 0.030024013 0.020641232 0.034965247
0.036990173 0.024357494 0.02713608 0.028668724 0.022263354 0.03685214 0.029942833 0.057680804
0.03751652 0.028271928 0.028529264 0.025319163 0.039081488 0.027951293 0.051081445 0.04707365
0.037392918 0.020094825 0.035638195 0.043248843 0.025747137 0.031021615 0.034245625 0.025161028
0.01565827 0.040739287 0.02854961 0.029388588 0.02041888 0.02499977 0.02939794 0.033510745

dnn.3.weight f4 [128, 64]
00000000: c8e3 d9bc f445 7fbd 674a c2bd 54e5 d5bd
00000010: aaa4 e53d 205e 593d 92b4 8b3d 97cc c3bd
00000020: af5f 473d 3b02 f0bd a1a9 9d3c 73de 853d
00000030: fb34 a63d eb2a 05be e280 72bd 35c9 d23d
00000040: 88ac a9bd 7f64 ea3d fa12 b7bd 6086 f2bd
00000050: cec0 d0bd ad57 4f3e b396 e83b 7792 2a3d
00000060: 36b0 683c b037 c0bd 2171 49bc a8cf c1bd
00000070: 64a5 983d 3d8b 7e3d f548 b63b b153 423d
00000080: 0389 a7bd 0dc3 eb3d 8600 bdbc b4fb a3bd
00000090: fa90 1f3e 378f 303d 07ae 5d3d 051f 743d
000000a0: 1b33 a3bd ae7a e63d 53e9 b1bd fc11 5ebc
000000b0: 21c9 c1bd a80d 5b3d 7324 40bb 2ea2 01be
000000c0: 1dcb 8c3c 9881 db3d 77b0 8d3c e5f0 443c
000000d0: 4be4 44bd c558 c53d be91 bdbd bd7b f03d
000000e0: 8fb9 e2bd 1541 33bb bf99 07be 9c02 873d
000000f0: 3d4b 08bd bac5 f63c 0277 133e 5cec 553c
00000100: 06bf a03d 37c5 243d 46e0 98bc 4f92 ff3c
00000110: fdd9 7c3d 21c6 abbd 9cb7 debd 0ede 6cbd
00000120: 8e3f f73d bebf 2d3e 6b2f 053d c1ef abbc
00000130: df3c 7a3c 2ac1 f33d 5b3b 25bd 6f36 f23b
00000140: 06fb cfbd 1917 5c3d 1605 e0bd 7739 c0bd
00000150: 36b7 973c f537 c53d 2466 3a3d 1f9a e93d
00000160: a4c2 e0bd ba7d 3d3c 8f02 673d e7a0 aebb
00000170: 686a 093e f267 7a3c 323e 1d3e 8c32 d8bc
00000180: 9922 883d 4f93 1bbe 8dd4 2bbd 3d22 783d
00000190: 4ca5 d93d 33c4 283d a86b cd3d 6bfc c5bd
000001a0: 9f76 efbd 6e76 983d 1325 2cbe 3454 d4bd
000001b0: 1a5e afbc 02f2 9f3d 7cce 2abd 6186 dabc
000001c0: 792e a4bd e3de 183e cf70 21bd 3d4b aa3c
000001d0: b142 99bd 7923 fb3d d0fd 8dbc 5291 5c3c
000001e0: c5e2 903d b5ee edbd 2c3a 243d d5cd bdbc
000001f0: 27a5 c1bd e4ad cfbc 8a76 ccbc 5f91 ac3d
00000200: 63b8 35bd d83b 213c a597 623d 772f 873d
00000210: ab69 82bc db80 933b 5d15 013e 32d6 043e
00000220: 32e6 4fbd 3393 283e 6065 173d ae79 a1bc
00000230: b9c9 f93d 4304 34bd 00a9 d2bc cb07 a83d
00000240: e7fe e13d 95af 81bd cf02 e13d 561e 863d
00000250: f1e4 98bb 6677 793d a007 32be e945 16be
00000260: df5e fc3d 6a8a 9cbd 1e77 353d 58a8 e33b
00000270: 4efe 7d3d 25d9 ce3c 32c4 883d 4762 a6bb
00000280: 9a07 67bd f0a1 473e 5074 82bd 7b9a 8a3c
00000290: 908c aebd 3b51 163d 036d bc3d 2b07 1e3e
000002a0: 091a 993d b454 a8bd 0a04 f43c bf44 b2bd
000002b0: d792 67bd 4070 01be 8d3f 87bc 0cf5 083e
000002c0: a459 d4bc 1891 cfbd 5c5c c53d 8fe6 e93c
000002d0: c788 ddbd b914 00be 6b3d 2c3c ec82 d9bc
000002e0: 6b28 92bd 7ed4 ef3d b615 e6bc 591b e53d
000002f0: c0c6 c23d ac88 8ebc 4c5f 933b 2117 62bd
00000300: 5882 623c 4fdc e03c 7a50 efbc 9593 e1bc
00000310: a36e d53d f915 1f3d 8bc0 403d 6e3d b53d
00000320: cc12 ec3d 6261 bd3d 4621 f0bd 0433 20bc
00000330: 2f01 68bd 5b14 3c3d 7ac7 433d e61c c63c
00000340: 88cf 06be 9ea5 ad3d fa3f 89bd baeb abbd
00000350: ffec 023d 46c0 ca3d c88e 05be 1b6e 1cbe
00000360: fe50 583d 611c e4bb 7fc0 0b3e 93c3 ffbb
00000370: c1c1 f63b 890b 2d3c 7e8b 09be 4180 1d3e
00000380: a9b7 34bd a4ea 4b3d db17 1d3e 2eb9 2d3d
00000390: 8204 d4bd 3e5b b7bd b949 ec3c c9a8 373e
000003a0: 0763 033e 05b6 20be 7c22 ebbb 5507 ef3d
000003b0: 4026 74bd 7fbc 71bd 4e75 bb3d 9bab c13d
000003c0: 0037 1abd 1b5a 6c3d c1d7 f3bd 14bf 24bb
000003d0: 5874 46be 8e97 92bd c532 3f3d d268 073e
000003e0: 7f68 e13c 86eb 5d3c 17ee 973d 10d7 37bd
000003f0: 64d1 53bd f342 70bd c781 adbc beca 1c3c
-0.026597872 -0.062322572 -0.09486847 -0.104441315 0.11213048 0.05306828 0.068215504 -0.09560507
0.048675235 -0.117191754 0.019245924 0.065365694 0.08115574 -0.13004653 -0.059204943 0.102922834
-0.08284861 0.11444949 -0.08939166 -0.11842036 -0.101930246 0.2024829 0.007098043 0.041643586
0.014202168 -0.093856215 -0.012295038 -0.094634354 0.07453421 0.062144507 0.0055628964 0.047443096
-0.0818043 0.11511812 -0.023071539 -0.08006993 0.15582648 0.04310533 0.054121044 0.059599895
-0.07968732 0.11253868 -0.08687081 -0.0135540925 -0.094621904 0.05347982 -0.00293186 -0.12659523
0.017186696 0.107180774 0.017296059 0.012020324 -0.04806928 0.09636072 -0.09256314 0.11742351
-0.11070549 -0.0027352024 -0.13242243 0.065922946 -0.033274878 0.03012358 0.14400867 0.013056841
0.07848935 0.04022714 -0.01866163 0.031197695 0.061731327 -0.083873995 -0.108748645 -0.057828955
0.12072669 0.16967675 0.032515924 -0.020988347 0.015273302 0.119020775 -0.04033981 0.007391743
-0.10155301 0.053732965 -0.1093847 -0.093859605 0.018519979 0.096298136 0.045507565 0.114063494
-0.10974625 0.01156562 0.056398924 -0.0053292396 0.13419497 0.015283572 0.15355757 -0.02639129
0.06647224 -0.15192913 -0.04195075 0.060579527 0.10627231 0.041202735 0.100302994 -0.096672855
-0.11692547 0.07444464 -0.16811018 -0.10367623 -0.021407176 0.07809831 -0.041700825 -0.026675405
-0.080166765 0.14928775 -0.039414223 0.02078783 -0.074834235 0.12262625 -0.017332941 0.013462381
0.07074503 -0.116177954 0.04009454 -0.023169437 -0.094553284 -0.025351472 -0.024958868 0.08426165
-0.044365298 0.009840928 0.0553204 0.0660085 -0.015919527 0.0045014448 0.12605806 0.12972334
-0.05075664 0.16462402 0.036961913 -0.019711342 0.12196679 -0.043949377 -0.025715351 0.082046114
0.11034947 -0.06332318 0.10986864 0.06548755 -0.004665964 0.060904883 -0.17385721 -0.14675106
0.12322783 -0.07643588 0.044303052 0.0069475584 0.062010102 0.025250027 0.06678046 -0.0050776335
-0.056403734 0.19495368 -0.06369841 0.016919365 -0.08522904 0.03669856 0.0920048 0.15432422
0.07475669 -0.08219281 0.029787082 -0.087045185 -0.05653652 -0.12640476 -0.016509796 0.13374728
-0.02592165 -0.10135096 0.09636757 0.028552322 -0.10817104 -0.12507905 0.01051269 -0.026551686
-0.07136615 0.117104515 -0.028086524 0.11186857 0.09510565 -0.017399155 0.0044974443 -0.05519784
0.013825022 0.027448801 -0.029213179 -0.027536193 0.10421493 0.038839314 0.047058623 0.088496074
0.11527023 0.0924709 -0.117250964 -0.009777788 -0.056641754 0.04591785 0.047797658 0.024183702
-0.13165104 0.084788546 -0.06701656 -0.08394571 0.0319643 0.098999545 -0.13042748 -0.15276377
0.052811615 -0.006961391 0.1364765 -0.0078052967 0.0075304215 0.010561832 -0.13432118 0.15380956
-0.044120464 0.049784318 0.15341131 0.04241293 -0.10352422 -0.0895295 0.028843747 0.1793548
0.12830745 -0.15694435 -0.0071757417 0.1167132 -0.05960679 -0.059017655 0.091532335 0.09456559
-0.03765011 0.05770312 -0.11906386 -0.0025138306 -0.19380319 -0.07157813 0.046679277 0.1322358
0.027515648 0.013544923 0.07418459 -0.044882834 -0.051713362 -0.058657598 -0.021180047 0.009569822

dnn.3.bias f4 [128]
00000000: 6124 733c 9775 5c3d 8360 d1bc 764e 89bd
00000010: 58b3 c73d 6825 9cbd 43ea 9b3c e2e7 07bd
00000020: a15e aabc 57cf 61bd fa26 b5bd a880 47bd
00000030: 09be d63c 1b35 9bbc ddc8 8c3c 7096 dbbd
00000040: 0f4c 80bd ac37 2d3d e112 91bd cdf5 ec3b
00000050: 219a 8fbd 0bc5 843b d542 253d 9182 f23d
00000060: 3d85 803d 85c5 8bbd 3f7a 57bd 16ba 09bd
00000070: 9186 25bd 2b48 b23d 2642 36bc 1831 623c
00000080: 57d7 bf3d 66ae bc3c ec75 a33d 6a15 8d3d
00000090: d2eb 61bd 8651 ecbc 7c6b 603d 328d 803c
000000a0: 3a3f 92bd 61b0 7fbc 2c70 b2bc febb afbb
000000b0: f83b a23d aa4e dc3c 999d 623d 822e b73c
000000c0: 6ba2 d03d 6bc3 ee3d 9d53 d83d 300f d6bd
000000d0: bbbe dcbd 996e 45bd 2d82 ec3d 9e19 1e3d
000000e0: 7a71 a9bd 8e18 603d e1cd cdbd c397 90bc
000000f0: 24f7 2b3c 4280 ddbd 79cf 8dbc 77bf d43c
00000100: 6724 e13b e217 c03d cbdb e43c 9e87 9b3d
00000110: 14b2 b6bc bb6a 52bd 061c 7d3d 0775 60bd
00000120: 7b04 f8bd 8a3b d8bd c245 e3bd 28c9 71bb
00000130: 3bc0 6bbd 4644 853d d848 ca3d b748 93bd
00000140: e8ee fc3c 4419 f9bd 9e41 16bd 35ba d3bd
00000150: 738f adbd b7ed 513d 742d bdbc 5af7 d5bd
00000160: 60d3 843d 1b7a 833d b78d fd3d d198 a03d
00000170: 0d5a 753c b4d6 db3c a4ae d9bd 8431 dd3d
00000180: bfa4 aebd cf96 cdbd 11f1 f8bc 1ff1 f93d
00000190: defd 293d cedf 5a3d 1284 eebd b876 95bd
000001a0: 3103 aabd c2da a13d ed3d 7abc d548 09bd
000001b0: 6f13 c43d f100 46bd 9746 5bbd ab3d d4bd
000001c0: b619 d03c cc45 29bd e89d d33c 8211 94bd
000001d0: 9308 9f3b fb4e d5bd 7ac5 97bd 05b4 6d3b
000001e0: 0ce5 c73d 3fba f83d 85ec 05bd cf78 ed39
000001f0: b5f1 3b3d 6c52 6c3d 02c4 d0bd 72ee 99bd
0.014840216 0.05382308 -0.025558716 -0.06704418 0.09751004 -0.07624322 0.019032603 -0.033180125
-0.020797076 -0.055129375 -0.08845325 -0.04870668 0.026213663 -0.018946221 0.017185623 -0.10722053
-0.06264507 0.04228942 -0.07083679 0.00723145 -0.0701182 0.0040518097 0.04034694 0.1184131
0.06275413 -0.06824783 -0.052606817 -0.03362473 -0.040411536 0.08705171 -0.011124169 0.01380565
0.09367245 0.023032378 0.07981476 0.0688885 -0.055156536 -0.028847467 0.054790005 0.015692327
-0.07140966 -0.015606017 -0.021782003 -0.0053629866 0.079215944 0.026892979 0.055326078 0.022361044
0.10187229 0.11658367 0.10562823 -0.104521155 -0.107785664 -0.048201177 0.115482666 0.03859865
-0.08273597 0.054710917 -0.10049034 -0.01765049 0.010495935 -0.10815479 -0.017310845 0.025970204
0.0068707946 0.09379555 0.027936837 0.07594226 -0.022301711 -0.051371317 0.061794303 -0.054799106
-0.121102296 -0.10558231 -0.110972896 -0.003689358 -0.057556372 0.06507163 0.09877175 -0.07191604
0.030875638 -0.12163022 -0.03668367 -0.103382505 -0.084746264 0.051252093 -0.023092963 -0.10447569
0.06485629 0.06419774 0.123805456 0.078416474 0.014975083 0.026835777 -0.10629013 0.1080046
-0.085275166 -0.1003853 -0.030388387 0.12204193 0.041501872 0.053436093 -0.11646284 -0.072980344
-0.0830139 0.07903053 -0.015273553 -0.033516724 0.09574019 -0.04834074 -0.053534117 -0.10363325
0.025402885 -0.04132633 0.025832132 -0.07229902 0.004853317 -0.10415455 -0.074107125 0.003627063
0.09760484 0.121448986 -0.032696266 0.00045294172 0.045884807 0.05769579 -0.101936355 -0.07516183

dnn.4.weight f4 [128]
00000000: 2b02 6c3f 546f 813f 9194 803f 0ad1 7a3f
00000010: 0e8f 6e3f 21bd 713f 4235 843f ade7 843f
00000020: 4732 873f a87f 843f 5bc6 7c3f 9b4b 843f
00000030: d17a 873f b98f 723f 0b96 7a3f 9371 823f
00000040: b1d5 5e3f 252c 7f3f 8ca0 653f 84bf 713f
00000050: f995 703f e605 733f 3823 863f 3696 793f
00000060: 3b1c 813f 30ff 743f e734 7e3f 3693 823f
00000070: 9b42 863f f506 873f 703c 823f 8b41 7e3f
00000080: 9c4f 8b3f 0505 813f dd35 753f e484 7d3f
00000090: ba23 833f 8f08 7c3f 019c 783f 2846 8c3f
000000a0: f053 7d3f bd4c 7c3f 2ffa 803f 42e4 6e3f
000000b0: a54d 753f 2c65 833f 701d 813f 6dc7 773f
000000c0: ebf4 7b3f 95fc 7d3f a53b 7c3f d56a 813f
000000d0: 0af1 893f b14a 7a3f 830a 793f ad5f 7c3f
000000e0: d45f 843f 3d64 7d3f 6c98 773f 6cfb 863f
000000f0: 5bc5 803f e508 863f 87ff 793f 6f27 793f
00000100: 094c 763f 3273 843f ae61 883f fb44 7b3f
00000110: a46f 783f 6a61 823f e62a 7c3f 77c8 883f
00000120: b2d6 833f 4ff5 6b3f b3f0 7b3f 4e83 853f
00000130: 2690 843f 5fd3 803f 8031 7b3f 828e 7e3f
00000140: 1a16 813f 2d02 7a3f 61d5 833f 0978 843f
00000150: de7e 813f 8887 793f c537 803f b272 7f3f
00000160: a6d4 733f 1ac6 733f aaa1 6e3f d68e 7a3f
00000170: f68b 7f3f ff65 6d3f 1cdb 803f 2894 803f
00000180: 33c0 7b3f 8205 813f dbba 733f aead 813f
00000190: 41c3 803f 60e6 823f 7e07 6c3f ff10 833f
000001a0: b084 7c3f e15a 823f 7573 7f3f df07 863f
000001b0: 2410 803f 3c0c 863f ce1d 7d3f 3548 7c3f
000001c0: 9789 853f 1ea2 803f b5b2 833f 648f 853f
000001d0: 144b 833f ef7d 7b3f a375 703f aef7 763f
000001e0: 11d4 773f c082 763f e60a 873f 773c 813f
000001f0: cb60 843f f6e7 793f 7508 773f c42f 803f
0.9219081 1.01121 1.0045339 0.9797522 0.93187034 0.9442921 1.0328753 1.0383202
1.0562218 1.0351458 0.98740166 1.0335573 1.0584356 0.94750553 0.978852 1.019091
0.8704482 0.99676734 0.896981 0.94432855 0.9397884 0.94930875 1.0479498 0.9749483
1.008674 0.95701885 0.9929947 1.0201175 1.0489076 1.0548998 1.0174694 0.9931876
1.088367 1.0079657 0.95785314 0.990309 1.0245278 0.9845056 0.97113043 1.095891
0.98956203 0.98554593 1.007635 0.93317044 0.958216 1.026525 1.0087109 0.96788675
0.9842059 0.99213535 0.9852851 1.0110728 1.0776684 0.9777022 0.97281665 0.9858349
1.0341744 0.98981076 0.9671695 1.0545478 1.0060228 1.0471464 0.9765553 0.97325796
0.9620977 1.0347655 1.065481 0.9815213 0.9704535 1.0185978 0.9850296 1.0686177
1.0299895 0.92171186 0.9841415 1.0430696 1.0356491 1.0064505 0.98122406 0.994362
1.008487 0.9765957 1.0299493 1.0349132 1.0116842 0.9747243 1.001702 0.99784386
0.9524635 0.95224154 0.9321543 0.978742 0.9982294 0.9273376 1.0066867 1.0045214
0.9834015 1.0079806 0.95206994 1.0131128 1.0059587 1.0226555 0.9219893 1.0239562
0.98639965 1.0183984 0.9978555 1.0471152 1.0004926 1.0472484 0.98873603 0.9854768
1.0432614 1.0049474 1.0288912 1.0434384 1.0257287 0.98239034 0.939295 0.9647168
0.9680796 0.9629326 1.0550201 1.0096577 1.0342039 0.9761957 0.9649728 1.0014577

dnn.4.bias f4 [128]
00000000: 68ee 03be c4a4 3ebd 7b76 a5bd c014 3cbd
00000010: 8d3b 43bd 5f26 b2bd dcfa 04bb 11bc 87bd
00000020: 1b98 15bc fa2c 93bd 7e5a 13bd 8cd7 393d
00000030: 6518 9c3d 4278 9abd d8b8 a5bd aeae 24bd
00000040: e011 bbbd 559d 94bd 08b1 78bd 2189 3cbb
00000050: 2df7 d4bd 8343 a3bc f3fd edbd cda9 d73b
00000060: 03d6 67bc f68d 90bd 7ee2 33bc 6aa5 e5bd
00000070: 74bc 1abd 31c1 01be a9cf dc3b 1305 86bc
00000080: 1ce6 8bbd 1c3c e0bc 817f f9bc 7694 86bd
00000090: 8f5a 79bc ebc0 6d3c a550 94bc 9cc3 563c
000000a0: eb33 9fbc 1eb0 d6bc c121 9ebc 49ec 99bd
000000b0: 2ff3 f3bd 5414 22bd 9773 50bd f156 95bd
000000c0: efd2 463c 661b 563d 5f20 9bbd 23c1 79bd
000000d0: 7aa4 71bd 7f28 323b b6a6 c1bd d04b 37bd
000000e0: 7c50 123d d5e2 9bbc d372 213d bc29 92bd
000000f0: 0341 98bc 0dff c33c b3c0 91bc f12c 11be
00000100: 11ac 64bd 8f7e febc 2796 473c ca51 0ebe
00000110: 8cce 69bd ba8f 35bc d03f b7bc d6ac 593d
00000120: 9103 32bd fc1e f1bd b6e2 08bd 6c99 04be
00000130: 8ce8 38bd 222e b9bd 607f 82bd 8d22 32bd
00000140: b4ae 703d 379e 78bd ce6c d03c fd02 75bb
00000150: 7302 86bd a79f 7bbd b605 bdbb 81f4 8a3b
00000160: 9370 64bd 1360 91bd 1bce 64bd 5f61 06be
00000170: bb5a 87bd 3ae1 97bd 0241 b8bc 5af2 903c
00000180: 2b8a 9bbd f90a d6bd ec4f f3bc 5aa5 d5bc
00000190: 0499 1b3c 4611 79bd 6fc6 c3bd 32ae 8b3c
000001a0: b9c4 d63b 63f9 8dbd f8fb 32bd c8e2 bebc
000001b0: 8c0e 6fbd cacd 4cbd 722b bfbc 229b b2bd
000001c0: 7b59 bebd 4b53 94bd 3ebe 06be 481d 143d
000001d0: 5516 c1bc cca5 a8bd 3895 86bd 35c3 bfbd
000001e0: e529 4dbd 9250 6cbd 3c38 f2bc acd3 3a3d
000001f0: ef94 2d3d edcf b5bc f559 21bd 471e a4bd
-0.12883914 -0.04654385 -0.08079239 -0.045918226 -0.047664214 -0.08698725 -0.0020291125 -0.06627668
-0.009130503 -0.07186313 -0.035974972 0.045371577 0.076218404 -0.075424686 -0.08091897 -0.04020565
-0.09134269 -0.07256571 -0.060715705 -0.0028768259 -0.103987075 -0.019929653 -0.116207026 0.006581521
-0.014150145 -0.07058327 -0.010979293 -0.11213191 -0.03777738 -0.12671353 0.006738622 -0.016359841
-0.06830999 -0.027372412 -0.030456306 -0.065712854 -0.015219345 0.014511327 -0.01810486 0.01310816
-0.019433936 -0.026207026 -0.019303204 -0.07515771 -0.11911618 -0.039570168 -0.050891485 -0.072919734
0.012135251 0.052272223 -0.07574534 -0.060975205 -0.058994748 0.0027184782 -0.09455626 -0.044750035
0.035721287 -0.01902906 0.039416146 -0.071368665 -0.018585688 0.023925329 -0.017792081 -0.141773
-0.055828158 -0.031066207 0.012181795 -0.13898388 -0.057081744 -0.01108163 -0.022369295 0.053143345
-0.043460432 -0.11773488 -0.033419333 -0.12949151 -0.04514365 -0.09042002 -0.06371951 -0.04348998
0.05876036 -0.06069776 0.025442507 -0.0037385814 -0.06543436 -0.061431553 -0.005768503 0.004240573
-0.05577142 -0.07098403 -0.05586062 -0.13123082 -0.06609102 -0.074160054 -0.022491936 0.017693687
-0.07594713 -0.104513116 -0.029701196 -0.026079822 0.009496931 -0.06080749 -0.095593326 0.017050836
0.006554213 -0.06932332 -0.043697327 -0.023301497 -0.058363482 -0.050000943 -0.023336146 -0.087209955
-0.09294411 -0.072424494 -0.13158509 0.036160737 -0.023570219 -0.08234748 -0.0657143 -0.09363405
-0.050088782 -0.057694025 -0.02956783 0.045612022 0.042378362 -0.022193873 -0.03939243 -0.080135874

dnn.4.running_mean f4 [128]
00000000: e3a4 623d 6712 433e 2f2b a13e afe4 a03d
00000010: ddc9 863e efe2 b73e ce41 953e b068 c7be
00000020: e76c 4cbe 21ce 1cbe c4cf b4be 2da7 223e
00000030: 309b 4dbd 8035 2ebe 6228 65be 3c38 643e
00000040: 9bb9 103e e051 a43c 8e90 67be 4813 81be
00000050: e4a2 6bbe db78 91be 5bcf 493f c49f acbd
00000060: e0df 29be 88f3 c7be df24 20bb 752d 8d3e
00000070: 567a 2d3f e3e4 143f 2054 873e d8a3 1c3e
00000080: 0138 69bc e544 29bf 762e ba3e 957a 16bb
00000090: 74a0 e53d 36a9 98be d896 713e 0f61 7abd
000000a0: c357 e23e 335a 6f3d 4caf dcbd 5584 b5be
000000b0: e623 c83d 9b88 823e 1f70 0e3f 9d4d 443e
000000c0: 5ec6 313d 1f95 99bd 8827 8d3e ca27 17bf
000000d0: 9606 31be b38d ce3c eb4c 20be 019f e8bb
000000e0: 0d09 e4be 7bac e3bd bae2 d7bd 5854 233f
000000f0: 3500 123e b28e 1f3e fc0a c1be 9076 cf3e
00000100: 23b1 12be b800 72be 3d4d 6c3f 9292 d53d
00000110: c6ac 913e d6ce b73d cd49 b63c f73e 2e3e
00000120: 4c1a e83e 0124 87be 0e26 b33c a4a2 5d3e
00000130: cafe a1be 70de d03e a6f8 85be de36 1e3e
00000140: df3f bbbe 691b 323e 9aca 943e 1fc2 273e
00000150: 8a02 9f3e 1c66 4ebe fa94 86bf bbca 0dbe
00000160: 652f eb3e 3019 efbc 17f8 c03e f84b 033f
00000170: 71f2 cb3d e756 5cba 8ca1 75bd a07d cebd
00000180: 31a5 153e 6959 7bbd 840f cabe b208 d3be
00000190: 1636 c8be 5785 74be 4fa3 023c 2f39 94be
000001a0: a0cb bcbe 9089 a33e f3ef f23d ff4e 913e
000001b0: 9e7f 203f 92ab 943e 0870 3438 0838 23bf
000001c0: f877 9d3e edb8 663e 305b 2a3e fd22 51bf
000001d0: 40f7 eebe 58bb 0bbf fca3 d5be 3436 1abf
000001e0: 49ec 863e be75 c23e 15ae 593d c970 c3bd
000001f0: 7702 c9bd 372a 24bd 9439 b8be c85a c63e
0.05533303 0.19049989 0.3147826 0.07856118 0.26325884 0.35915324 0.29151767 -0.38947058
-0.19963418 -0.15313007 -0.35314763 0.15884085 -0.050196826 -0.17012596 -0.22378686 0.22287077
0.14133303 0.020058572 -0.22613737 -0.25210023 -0.23011357 -0.28412518 0.78832024 -0.084289104
-0.16589308 -0.39052987 -0.002443604 0.27573743 0.67764795 0.58161753 0.2643137 0.15296876
-0.014234544 -0.6612075 0.36363572 -0.0022961248 0.11212245 -0.29816598 0.23592699 -0.06112772
0.44207582 0.05843563 -0.10775623 -0.35452524 0.09772472 0.25494847 0.55639833 0.19170232
0.04340207 -0.07499146 0.27569222 -0.5904509 -0.17287669 0.025214052 -0.15654342 -0.007099033
-0.44538155 -0.111168824 -0.105412915 0.63800573 0.14257891 0.15581778 -0.37703693 0.40520144
-0.14325385 -0.23633087 0.92305356 0.10428347 0.28452128 0.08974998 0.022251988 0.17016207
0.45332563 -0.26394656 0.021868732 0.21644074 -0.316397 0.40794706 -0.26166266 0.15450618
-0.36572167 0.17393269 0.29060823 0.16382645 0.31056625 -0.20156139 -1.0514214 -0.13846867
0.45934597 -0.029186815 0.37689278 0.51287794 0.099583514 -0.00084052834 -0.059968516 -0.10082555
0.14613797 -0.061364565 -0.39464962 -0.41217571 -0.39103764 -0.2387899 0.007973506 -0.28949878
-0.36874104 0.3194089 0.11862173 0.28380582 0.6269473 0.29037148 4.301968e-05 -0.6375737
0.3075559 0.22531481 0.16636348 -0.8169401 -0.46673012 -0.5458274 -0.41726673 -0.6023896
0.26352146 0.37980455 0.053144533 -0.095429964 -0.09814923 -0.04007932 -0.3598143 0.38741136

dnn.4.running_var f4 [128]
00000000: abc4 0f3e e571 4d3e da69 5b3e 2c0a 323e
00000010: 8de9 8e3e 8da2 503e ef34 3c3e 30df 6d3e
00000020: 0918 733e 90d0 883e 6180 413e 3fd2 843e
00000030: ceff 4d3e a4ef 8d3e 3fb8 7b3e e96d bc3e
00000040: 08b6 d53e fb72 843e 8649 9a3e f388 3a3e
00000050: 86e3 593e 0769 c13e 24be 5c3e e1bb 243e
00000060: d09e 873e f93f b03e dafb e53d 9ad3 943e
00000070: e831 503e 2cc8 043e 0cc0 013e dc9e e03e
00000080: b20f 0a3e 6fc7 4d3e f718 5b3e 41b4 983e
00000090: c94b 313e 6ed3 d53e a35a 933e e124 3c3e
000000a0: 6cea ac3e 0356 513e 5aea 753e b186 4f3e
000000b0: 6256 143e 6cf6 4a3e e67c 9d3e e183 663e
000000c0: 49f7 513e dd8d 6d3e 14c7 463e fff5 563e
000000d0: 7dfc 253e dd33 413e 6cfe 8d3e 0861 453e
000000e0: 34ff 123e 7fb2 083e a359 233e 7d31 6c3e
000000f0: 6bcd 133e f235 293e 949b ce3d 0850 be3e
00000100: c495 703e 9ee5 c03d e030 2f3e fe10 843e
00000110: 67d8 263e 9ed3 1c3e 7686 303e b9ef 5a3e
00000120: ba0b c63e 3987 383e dfb8 9a3e e4b0 843e
00000130: 8bcb 3c3e 2f46 793e 9a43 523e 1521 043e
00000140: 300b 873e 7d99 373e d108 663e ed2b da3d
00000150: 2733 463e 4e6c 383e fd52 3c3e bd0c 5b3e
00000160: 6d87 5e3e 2e17 e73d 9bf9 8b3e 807d 1f3e
00000170: 3d92 833e 5c87 083e 595f 613e cc47 323e
00000180: df74 703e ab76 273e db93 673e eb19 313e
00000190: 31db 103e c7d1 483e 5a77 7d3e f8ea 0b3e
000001a0: 435d 423e b4aa ca3e f8e8 1b3e d38b b73e
000001b0: 3955 403e f2cb 623e 14bd 3c3e 64b4 f63d
000001c0: 1332 373e 47d0 dc3d 7878 1f3e 1bd8 003e
000001d0: ebb6 ad3e 44da 393e 24b1 7f3e c45c 803e
000001e0: 3144 093e bd94 143e 528a de3d 82c6 323e
000001f0: c233 093f a5d6 953e 6c45 9e3e 4e93 433e
0.14039867 0.20062979 0.21427098 0.17386693 0.2791256 0.20374508 0.18379568 0.2322967
0.23739637 0.2672162 0.18896629 0.25941655 0.20117113 0.27721894 0.24582003 0.36802605
0.4174044 0.25868973 0.3013422 0.18216304 0.212782 0.37775442 0.21556908 0.16087295
0.26488352 0.34423807 0.112296775 0.2906769 0.20331538 0.12966985 0.12670916 0.438712
0.1348255 0.20095609 0.21396242 0.29825023 0.17314066 0.4176287 0.28780088 0.18373443
0.337726 0.20442967 0.2401518 0.20266224 0.14486077 0.19820565 0.30759352 0.22511245
0.20504488 0.23198648 0.1941188 0.20992278 0.16209598 0.1886744 0.2773317 0.19275296
0.14355165 0.13349341 0.15952162 0.23065753 0.1443383 0.16524485 0.10088268 0.37170434
0.23494631 0.09418796 0.17108488 0.25794214 0.16293488 0.153151 0.17238793 0.2138051
0.38680822 0.18020333 0.3021917 0.25916207 0.1843702 0.24343179 0.205336 0.12903245
0.26375723 0.17929645 0.224643 0.106529094 0.1935545 0.18010065 0.18391033 0.21391578
0.21731348 0.11283718 0.2733887 0.15575218 0.25697508 0.13332886 0.22009028 0.17410201
0.23482083 0.16353862 0.22614996 0.17295043 0.14146115 0.19611274 0.2475256 0.13663852
0.18980889 0.3958336 0.1522559 0.35848865 0.1878251 0.22148111 0.18431503 0.120461255
0.17890196 0.10781913 0.15573299 0.12582438 0.33928618 0.18149668 0.24969918 0.25070775
0.13404919 0.14509864 0.10866226 0.17458537 0.535946 0.29265323 0.3091234 0.19099161

dnn.6.weight f4 [64, 128]
00000000: c7a2 fcbc 57c5 03be 05f9 7b3d eae9 a2bd
00000010: 1806 7b3d c924 c5bd 855e 363d 1bb4 153d
00000020: e828 f2bd 7161 a2bc 8947 153d 7dc4 3cbd
00000030: 6bd3 bebc 1fd8 1fbd d0fb 9dbd fe59 b13d
00000040: 564d 143b 6c42 6dbd cd0d b9bc 1b1a 62bd
00000050: 8814 b33d bcf5 81bc 1e0e 25bc bbce e0bc
00000060: 5f8e df3d 5645 27be 0290 82bd dbba ed3c
00000070: fd58 633c 3b08 c0bc a1f6 523d 5c48 53bc
00000080: 9421 18bb a028 db3d 8526 b83d fc88 c3bd
00000090: 167f b3bc 1a4f cd3d fa5b a5bd 7b3e f63c
000000a0: b685 2abc 5aff 8cbd 4d9b 98bd f2ca abbd
000000b0: 4ce6 59bd e938 aa3c 70a8 f73c df75 e4bb
000000c0: 0342 83bd fb96 db3b df5c 033d 0560 12be
000000d0: f19f 8f3b aa16 b73c f47c cbbc 1390 88bd
000000e0: 35f7 18be 5803 a9bd 8066 80bd c0b1 a9bb
000000f0: db46 33bd d9e8 8e3d 4b37 47bd 53b0 b63c
00000100: ad08 afbc 0e2a ebbc f702 00bd fc69 813d
00000110: 706f 39bd 26f8 da3d 1284 0bbd f852 b13d
00000120: 9fd3 75bd 20b1 973d bd53 253d 574f 51bd
00000130: 6f7c de3c 2fc0 de3b 4234 a0bd 4074 6ebd
00000140: b6ef 58bc 40a4 15bd 7614 cabc d8bd a6bd
00000150: 0157 7bbd 3f48 7c3d 5780 8bbc 0e16 5cbd
00000160: 2cb7 a33d d0e4 53bd af50 0b3d 33c6 443b
00000170: 71d3 c73d 0d61 483d 2582 643d 9579 1cbd
00000180: d5c9 d13d b700 d83d 43af 5c3d 4d76 27be
00000190: b928 e63c b133 f43d 0f6b 873d 9d00 183d
000001a0: 48a8 aebc fffe 343c 677f e1bd 2cec 4a3d
000001b0: eef2 8d3c b317 af3c bb0a 3e3d 98df 38bd
000001c0: 1364 823c a902 dfbc ade8 eabc 5488 4abd
000001d0: 0395 6c3c 8e20 053e b829 733d 08a6 89bb
000001e0: 8a9b 8e3d 6e0c b0bb 5500 2b3d 6b3b fabc
000001f0: 9246 ccbc 8ac9 afbc 59cc e33d 0169 c1bd
00000200: 7bc8 03bc f687 7dbd a9fa a83d eb59 21bd
00000210: 77e7 2dbc 95b3 46bd df00 3ebb 6127 393d
00000220: 1282 bcbd 9985 92bb 73a7 94bb 3859 723d
00000230: fe55 c63c e5ac f63d 1cd7 913d 87e3 993c
00000240: 8dd7 d83d bffe 4ebd 3d5d 2a3c ab4d 53bd
00000250: c70c b43d 36a1 a43d 150e c43d b9e4 d6bd
00000260: 8a08 debd f701 a53d 0dac d13d f656 c4bc
00000270: a740 c0bb 41d5 9dbd 3d94 6fbd bd61 8d3d
00000280: 9add a4bd 11d4 1ebc 2bc6 90bd 7b0d d63c
00000290: e259 b73c fe28 a2bd c376 ddbc 6443 b0bd
000002a0: 3906 623c d16f 31bd ea33 543d 7617 87bb
000002b0: c389 d1bd 28c8 aabd 6501 8b3d c802 d2bc
000002c0: 29b4 aabd 70c2 b0bd 63e5 d2bc 81f8 1abd
000002d0: bb9c 0b3d e8ac 6e3d d604 513d 8544 1bbc
000002e0: ca0c 98b8 8fe3 c73d a0ee 1e3c 48ce 63bc
000002f0: 58c2 dcbc fb6a d83c 9caf 9ebc 7eeb 02bc
00000300: 6b0f 77bd 7d0d a93d 420a 563c 689d 95bb
00000310: b9df 773d d2ac 3ebd 1586 0bbb f5bc 0ebe
00000320: 5958 92bd 56e5 423d 93a9 f53c bcc2 82bb
00000330: 8d5e 1ebd a586 eb3d 2b7b 5fbd 8953 f23c
00000340: 40dc f1bd 6a12 f43d 0c06 1dbd fb84 5fbd
00000350: 8e25 a7bc 50ba feba 3427 a9bc f4e9 dfbd
00000360: 434e c33d b4b7 d23c 505b d5bb 6986 633d
00000370: b99c 98bd 4796 6c3d c761 90bc c243 093d
00000380: 0ca4 98bd 3ddd 1e3d 78a3 a13c b62d 80bd
00000390: 64fd f43b d814 6cbc 6b14 b23d ebda c13b
000003a0: b631 07be d193 913d 1174 813a 9443 f03c
000003b0: c73b ed3d a201 343d 9d6f be3c 0aef 883d
000003c0: 0f30 823d a1d7 b13d a03c 70bc 8e25 d43d
000003d0: 8744 11bc 9b98 093d 941d 3b3b 4d5f 583d
000003e0: 1806 933d 3a99 0a3c 2b54 ff3d 45cc 073e
000003f0: 722f fb3c 6b2f 993d 9035 bb3c 5e6a a9bd
-0.030839337 -0.12868248 0.06151678 -0.07954772 0.06128511 -0.09626157 0.044523735 0.036548715
-0.118242085 -0.019821854 0.036445174 -0.046085823 -0.023294171 -0.03902447 -0.07714045 0.08659743
0.0022629104 -0.057924673 -0.022589589 -0.055200677 0.087441504 -0.015864246 -0.010074167 -0.027442327
0.10915827 -0.16335043 -0.063751236 0.029019764 0.013876197 -0.023441425 0.051504735 -0.01289567
-0.0023213373 0.10701108 0.08991722 -0.09547612 -0.021911185 0.10024853 -0.08074184 0.03005909
-0.010407856 -0.06884642 -0.07451496 -0.08388318 -0.053198144 0.02077909 0.030231684 -0.006972059
-0.06409075 0.006701348 0.03207099 -0.14294441 0.00438308 0.022349674 -0.024839856 -0.06668105
-0.14938052 -0.08252591 -0.0626955 -0.00517866 -0.043768745 0.06978006 -0.048636716 0.022300875
-0.021366442 -0.028706577 -0.031252827 0.06319043 -0.04527229 0.10691862 -0.0340615 0.08658403
-0.06001627 0.07406831 0.040363062 -0.051101055 0.027158944 0.0067978124 -0.078224674 -0.058216333
-0.013240745 -0.036533594 -0.02466796 -0.081416786 -0.06136227 0.061592337 -0.01702897 -0.05373197
0.07993922 -0.051731884 0.034012493 0.0030025363 0.09757126 0.04892068 0.055788178 -0.038201887
0.102435745 0.10547011 0.05387808 -0.16353722 0.02809559 0.11923922 0.06612217 0.03710996
-0.021320477 0.011047124 -0.11010628 0.049541637 0.017327752 0.021373605 0.046396952 -0.04513511
0.01591686 -0.027222948 -0.028675402 -0.04944642 0.014439824 0.130007 0.059365958 -0.0042007007
0.069632605 -0.0053725755 0.041748364 -0.03054591 -0.024935994 -0.021458406 0.111229606 -0.09443856
-0.008043404 -0.06189724 0.08250935 -0.039392393 -0.010614268 -0.048511107 -0.0028992218 0.04520357
-0.092044964 -0.0044714925 -0.004536563 0.059167117 0.024210926 0.12044696 0.07121107 0.018785251
0.10587988 -0.050535914 0.010398206 -0.05158774 0.087914996 0.08038561 0.095729984 -0.10492844
-0.108414724 0.080570154 0.10237894 -0.023967247 -0.005867082 -0.077066906 -0.05849098 0.06903408
-0.0805008 -0.009694115 -0.070690475 0.026129475 0.022381727 -0.07917975 -0.027034169 -0.08606604
0.013795429 -0.043319527 0.05180732 -0.00412267 -0.10231354 -0.08338958 0.06787375 -0.025636092
-0.08335144 -0.08630836 -0.025744146 -0.037834648 0.034085017 0.058270365 0.051030003 -0.009476786
-7.250307e-05 0.097602 0.009700447 -0.013904162 -0.02694814 0.0264182 -0.019370846 -0.007990716
-0.060317438 0.08254526 0.013063969 -0.0045658834 0.060516093 -0.046551533 -0.0021289636 -0.13939269
-0.07145757 0.047581993 0.029988086 -0.0039904993 -0.03866439 0.11500291 -0.05456082 0.029580848
-0.118095875 0.11917575 -0.038335845 -0.05457018 -0.02040365 -0.0019434188 -0.020648576 -0.10933295
0.095364116 0.025722362 -0.0065111294 0.055548105 -0.074517675 0.057760503 -0.017624749 0.033511885
-0.074531645 0.038785208 0.019731268 -0.06258719 0.0074764956 -0.014409266 0.08695301 0.0059159896
-0.13202557 0.07108272 0.000987651 0.029329099 0.11583667 0.04394687 0.02324658 0.06686218
0.06356823 0.08683706 -0.014662892 0.103587255 -0.008866436 0.0335928 0.0028551565 0.05282526
0.07178897 0.008459384 0.12467226 0.13261516 0.030662272 0.074797474 0.022852689 -0.08272241

dnn.6.bias f4 [64]
00000000: 27a6 b13d 651a 65bd f7ef 9bba 4189 523d
00000010: 59f8 223d e38f d7bc dc3e 35bd 5c7a 4b3d
00000020: 5b69 71bb 0995 bd3b d458 c6bc 79ad 60bd
00000030: f372 5dbd d100 3b3d 7e3f 933d 18c5 673d
00000040: 1e10 a4bd 2ca3 a53c b380 bfbc bab8 9c3d
00000050: e222 1dbd 8389 b63d b1bd aa3d 9f43 4d3c
00000060: 4886 f23c 3ec2 483d 14ba 0f3d faef 9bbd
00000070: 62ac 00bd 0fd6 4b3d cd43 5bbd 5d68 90bd
00000080: 9cb5 82bd 9e89 933d 89d9 7c3d 56ee 033c
00000090: 1ef9 963b 46d8 643d 9d4c 63bb a27f 2b3d
000000a0: d224 83bd a7f9 48bc be38 24bd 206b 373d
000000b0: e224 983a 2401 293d 380b 95bd 26b6 613b
000000c0: 3d5a 9c3b e04f 993c 4e9b 45bd eaf9 7abd
000000d0: b6cd afbd 1c25 b73c 71cf 0fbd 43cf aabc
000000e0: eaad 31bd 98b1 5d3d f4b1 b43d 0281 c2bc
000000f0: c687 f6bc 0b98 423d a773 8a3b 71c6 213d
0.08674269 -0.055933375 -0.0011897077 0.051400427 0.039787624 -0.026313728 -0.0442494 0.049677238
-0.0036836478 0.0057855886 -0.024212278 -0.054852936 -0.054064702 0.045655075 0.071898445 0.056584448
-0.080108866 0.020219408 -0.023376798 0.07652421 -0.038363345 0.08912947 0.08336962 0.012528329
0.029605046 0.04901337 0.035089567 -0.07614131 -0.031414397 0.04976469 -0.053531457 -0.07051156
-0.063822955 0.07203983 0.061730895 0.008052429 0.004607334 0.055870317 -0.0034683116 0.041869767
-0.06403507 -0.012266553 -0.040093176 0.044779897 0.0011607672 0.041260853 -0.072775304 0.0034440844
0.0047714994 0.018714845 -0.048243813 -0.061273493 -0.08584158 0.022356562 -0.03510994 -0.020850783
-0.043378748 0.054124445 0.08823004 -0.023743156 -0.030094039 0.04750828 0.0042252126 0.03949589

dnn.7.weight f4 [64]
00000000: a280 713f 063c 813f 3511 783f bee0 833f
00000010: 949e 7f3f 1b70 7d3f f6c0 6f3f 2dd1 7f3f
00000020: 38bf 763f 45e2 6c3f 0b02 893f 042b 863f
00000030: c269 793f abb1 7a3f ccb5 6e3f 517d 7b3f
00000040: d4e2 803f b515 843f 1038 703f 1ce3 7f3f
00000050: a34b 7b3f 7730 833f ce54 7d3f 947c 763f
00000060: a5f0 893f fe77 823f 2963 753f 6b29 883f
00000070: 3af1 7b3f 3f5e 883f ca63 703f 6999 7a3f
00000080: 80ab 743f ec56 843f 3cdf 8c3f a7d9 813f
00000090: 7578 843f 14dd 693f 07b4 773f 3ae4 813f
000000a0: db49 7d3f be2b 7d3f 764d 803f 3f35 693f
000000b0: e1fb 7f3f d09e 763f 03ba 6f3f 89e2 803f
000000c0: 7ae1 843f a563 723f 64ec 7d3f 2d45 893f
000000d0: a934 843f 1920 763f 7d24 783f 3017 863f
000000e0: 8d41 873f 8faf 793f 0d02 833f 01b1 7f3f
000000f0: ceda 793f 914a 773f f853 8a3f f265 803f
0.94336903 1.0096443 0.96901256 1.0302961 0.99851346 0.98999184 0.9365381 0.9992855
0.96385527 0.9253276 1.0703748 1.0481877 0.97427 0.9792735 0.9324615 0.9823809
1.0069222 1.0319124 0.93835545 0.99955916 0.9816229 1.0249165 0.98957527 0.9628384
1.0776564 1.0192869 0.9585443 1.063764 0.9841496 1.0653762 0.93902266 0.97890335
0.9557419 1.0339026 1.1005626 1.0144547 1.034926 0.91352963 0.96759075 1.0147774
0.9894082 0.9889487 1.0023639 0.9109687 0.9999371 0.9633608 0.93643206 1.0069133
1.038131 0.94683295 0.9918883 1.0724236 1.0328571 0.9614273 0.96930677 1.0475826
1.056688 0.97533506 1.0235001 0.9987946 0.97599494 0.96598154 1.0806875 1.0031111

dnn.7.bias f4 [64]
00000000: 8eb4 47bc 0a8c bcbd e780 8bbd db7c a73b
00000010: 3d28 c4bd f736 27bb 3020 94bd 6009 d2bb
00000020: b280 b2bd d426 fabd 1f5d b33c 84ee 10bc
00000030: 3b78 1dbe 5bd4 2dbd d54f 44bb f8b8 96bd
00000040: 600a 43bd b363 77bd 3333 01be f94e 053d
00000050: 4a7a 43bd b6b8 91bd d76c b0bd dc6c ed3c
00000060: 5a3b 68bc 7166 f5bb 202d bcbb 170c d63a
00000070: 1c29 94bc 35b5 bbbc 152f febc 3204 18bb
00000080: 2a28 56bd 883d 57bc bc67 01be ea4c 89bd
00000090: 12f4 56bc 31df bfbd 00da 75bd e583 b5bc
000000a0: 130e b1bd 2f31 40bd 8d3a 8ebc 7329 54bd
000000b0: 22c6 5f3c 4bc4 b9bd a4a5 7fbd 9758 ae3b
000000c0: 706a 89bd 6311 1fbd 80a4 c9bc 7dde 923c
000000d0: 12fc 1dba a6b7 76bd 0e8b 43bd 278a 0cbd
000000e0: 4bff 96bc 2b17 233b fe39 2abd f924 b6bc
000000f0: c579 27bd 759b 00bd e685 b23d f02d 033d
-0.012189044 -0.09206398 -0.068116955 0.0051113195 -0.09577987 -0.002551494 -0.07232702 -0.006409809
-0.08715953 -0.12214437 0.02189499 -0.008845929 -0.15377896 -0.042438846 -0.002995481 -0.07359499
-0.047617316 -0.060397815 -0.12617187 0.032546017 -0.047724046 -0.07115309 -0.086145096 0.028982572
-0.014174307 -0.0074890186 -0.005742684 0.0016330507 -0.018086009 -0.022913555 -0.03102831 -0.002319586
-0.052284397 -0.013137229 -0.12637228 -0.06704123 -0.013119714 -0.09368742 -0.060022354 -0.022157619
-0.086452626 -0.046921905 -0.017361904 -0.05179734 0.013658078 -0.09070643 -0.062413827 0.0053206193
-0.067097545 -0.03883494 -0.024614573 0.017928356 -0.0006026636 -0.060233735 -0.047740035 -0.03431144
-0.01843228 0.0024885635 -0.041559212 -0.022234427 -0.040887613 -0.031398255 0.08716945 0.03202623

dnn.7.running_mean f4 [64]
00000000: 0108 3abe 3fe5 0c3e 62b5 a83e b38e ca3d
00000010: b173 8a3e 7a8d 67bd 56bc c53d fe3d 8cbc
00000020: 2b4e c63e 6bee fa3d e0c8 e33e 3689 0ebf
00000030: c971 4a3e 6665 2b3c 7d91 ca3a fdaa 983f
00000040: 574f d0be de2c f53c 2025 c53e 0926 a3be
00000050: ce25 e03d a7ec 1b3f 8e56 a03d 6079 11bf
00000060: 1947 fe3e cdd6 07bf 1a61 d7ba 3b34 063f
00000070: 6770 ad3e 56b0 eb3e 5fa5 d5be b9d2 043e
00000080: 8ef5 133e 8970 903e 9a55 073f f8dc 0b3f
00000090: fcf4 493d 364b dcbe a150 5cbe 9f71 b2bc
000000a0: 576c 10bf 7802 243f 13ed 10bf c452 d93e
000000b0: 5005 fdbe 9999 21be 7fdb 68bc 3bd8 00bf
000000c0: e68e cf3e a7ae 32be 7d16 0dbf dd72 7cbf
000000d0: 21a6 f6be 4bcb abbe 7de3 3f3e f81a 41bc
000000e0: ff31 b1be c450 2bbf 0fb7 293d 9022 38be
000000f0: b2c3 3cbf ad0a 43be 852b f63d 8aaa f93d
-0.18167116 0.13759325 0.32950884 0.09890499 0.2704139 -0.056531407 0.09655063 -0.017119404
0.38731512 0.12252506 0.44489193 -0.5567812 0.19769968 0.010461187 0.0015454736 1.1927181
-0.40685531 0.02992862 0.38504887 -0.31864956 0.10944711 0.6090798 0.07829009 -0.5682583
0.49663618 -0.53062135 -0.0016432137 0.5242345 0.3387482 0.4603297 -0.4172773 0.1297101
0.1444914 0.28210858 0.5286499 0.54634047 0.0493059 -0.4302613 -0.21515132 -0.021782694
-0.56415313 0.64066267 -0.56611747 0.42445958 -0.49418116 -0.15781249 -0.014212488 -0.5032994
0.4053871 -0.17449437 -0.5511244 -0.9861277 -0.4817362 -0.33553538 0.18739124 -0.011786215
-0.34608456 -0.66920114 0.041434344 -0.17981935 -0.7373611 -0.19047041 0.120200194 0.12190731

dnn.7.running_var f4 [64]
00000000: e59e e23e d82a f63e e709 cf3e 6086 323f
00000010: a3d9 d03e c29c bd3e 3768 2a3f f60f 0a3f
00000020: 257e ac3e 25f9 a53e 324a 643f 154b 0b3f
00000030: 7a01 013f bf66 e73e cd5b 173f d459 8e3e
00000040: 232f f23e 1093 613f fb71 c13e 777e 8a3e
00000050: 2d62 793e 017a 633f 0d34 a53e 72de 0d3f
00000060: 8119 aa3f 1c4e ec3e daa2 df3e b552 783e
00000070: eee9 b33e 72ac f53e 8172 e83e 6740 f83e
00000080: a015 a63e b698 dd3e bdb3 563f 717c bb3e
00000090: 9ab6 a63e 71fb 353f 6941 dd3e 4c3e 953e
000000a0: 94c1 083f cfe5 073f dadd a43e b043 083f
000000b0: 233f 0e3f df86 dc3e 0546 a63e ba03 ec3e
000000c0: a669 5a3f 9ee5 bc3e c92d c23e fbd6 873e
000000d0: 744b 083f e69c 0b3f 57bd 993e 99ce 143f
000000e0: 71aa ab3e 711e c03e bbda 0b3f 43db c13e
000000f0: 9753 ea3e 2820 0f3f c09d c63e e2db a03e
0.44261852 0.48079562 0.40437242 0.6973629 0.40791044 0.3703366 0.6656527 0.53930604
0.3368999 0.32416645 0.89175713 0.5441144 0.5039288 0.45195577 0.5912445 0.27802908
0.47301587 0.88115025 0.37782273 0.2704961 0.24353857 0.8885804 0.32266274 0.5541755
1.3289033 0.46153343 0.43678933 0.242503 0.35139412 0.47983128 0.4539986 0.48486635
0.32438374 0.43280572 0.8386801 0.3661838 0.3256119 0.71086794 0.43213966 0.2914909
0.53420377 0.53085035 0.3220051 0.5322828 0.5556509 0.43071648 0.32475296 0.46096593
0.85317457 0.36893934 0.37925556 0.26531205 0.5324013 0.54536283 0.30027267 0.58127743
0.33528474 0.37523225 0.5463063 0.37862596 0.457669 0.5590844 0.3879223 0.31417757
