checkpoints_LabelEncodeWithWeightedSampler/best.pth (torch, 85227 bytes, 25 tensors)

dnn.0.weight f4 [64, 12]
0	0x3e45e38d	0.19325085
1	0x3de013d1	0.1094128
2	0x3e8c0e5d	0.27354708
3	0xbd5f8a73	-0.054575395
4	0x3c32faa8	0.010924019
5	0xbe24f04f	-0.16107295
6	0x3e50b921	0.20383121
7	0xbe80e35b	-0.25173458
8	0xbe56e9b2	-0.20987585
9	0xbe2d17f9	-0.16903676
10	0xbe9f1e8b	-0.3107799
11	0x3e19633e	0.14979264
12	0x3e44640e	0.19178793
13	0x3e794ce4	0.24345738
14	0x3dc353ef	0.095374934
15	0xbdc49338	-0.09598392
16	0xbe518276	-0.20459923
17	0x3e0b86c3	0.13625626
18	0x3ea19b93	0.31564006
19	0x3c5029df	0.012705295
20	0xbe4a9ad3	-0.19785623
21	0x3df91835	0.1216282
22	0x3ca21bc2	0.019788627
23	0xbe8199bf	-0.2531261
24	0xbbef06ae	-0.0072944975
25	0x3e44ff46	0.19238004
26	0xbe3a7323	-0.18207984
27	0x3e01a1c1	0.1265936
28	0x3e03e2b2	0.12879446
29	0x3d8b9409	0.06815345
30	0xbe8268ef	-0.25470683
31	0x3e0d8cd2	0.1382325
32	0x3e134274	0.14380819
33	0xbe8e7c85	-0.27829376
34	0xbde9b852	-0.114121094
35	0x3e5ff8f8	0.21872318
36	0xbea51214	-0.32240355
37	0x3e49912e	0.19684288
38	0x3e752169	0.23938526
39	0x3e8ab345	0.27089897
40	0x3e2b3042	0.16717628
41	0x3da8e85d	0.08247445
42	0xbdd83c7a	-0.1055841
43	0x3e43e4d2	0.19130257
44	0xbe14a73c	-0.1451692
45	0x3c501515	0.012700339
46	0x3e0aff4d	0.13573952
47	0xbe862976	-0.26203507
48	0x3d8650f2	0.06558408
49	0xbda34c0d	-0.0797349
50	0xbe4e2894	-0.20132667
51	0xbc985cfd	-0.018599028
52	0xbd955bc4	-0.072928935
53	0xbe107779	-0.14108075
54	0xbc7ff27a	-0.015621776
55	0xbe8fec07	-0.28109762
56	0x3ded77c1	0.11595107
57	0x3c85cc19	0.016332673
58	0x3e97dbe6	0.29659957
59	0x3d5674d7	0.05235752
60	0x3e395af7	0.18101107
61	0x3d837e34	0.06420556
62	0x3d82016c	0.063479275
63	0x3e3f8c0a	0.18705764
64	0xbeae11dc	-0.33998
65	0xbe483204	-0.1955033
66	0xbcaf2080	-0.021377802
67	0x3e0a70b8	0.13519561
68	0x3d27df70	0.04098457
69	0x3d955fdb	0.072936736
70	0xbcbc848b	-0.02301242
71	0xbe9313a4	-0.28725922
72	0x3c2c1b00	0.010504484
73	0x3d26ba87	0.04070523
74	0x3e43f45a	0.19136181
75	0xbe8ddaf1	-0.27706102
76	0xbd345abe	-0.04403185
77	0xbcb38295	-0.021912852
78	0x3b4bc8ff	0.0031095145
79	0x3e54f64a	0.20797077
80	0x3c15c646	0.00914151
81	0xbe2dd5aa	-0.16976038
82	0x3d9bf27f	0.07614612
83	0x3e19d907	0.15024196
84	0xbdc29b2c	-0.09502253
85	0xbe334185	-0.17505462
86	0xbc99085c	-0.018680744
87	0xbbb0355f	-0.005377456
88	0xbbbdb0c1	-0.005788893
89	0xbb7bb73a	-0.0038408772
90	0x3d551926	0.052025937
91	0x3c387fa5	0.011260902
92	0xbebf111f	-0.3731775
93	0xbd9bfdaa	-0.07616742
94	0xbd6b3a35	-0.057428557
95	0x3da7f3d3	0.08200803
96	0x3db692f5	0.089147486
97	0xbcbf4442	-0.023347978
98	0xbc6d1e58	-0.014472567
99	0x3e32ea8d	0.17472287
100	0xbe55255a	-0.2081503
101	0x3ea15f54	0.31518042
102	0xbe580db1	-0.21098973
103	0xbe6124e3	-0.21986727
104	0x3e459bd4	0.19297725
105	0x3e1f1e2b	0.15538852
106	0x3e3469b1	0.17618443
107	0x3e1cbbbe	0.15305993
108	0x3e763a04	0.24045569
109	0xbe05c4e0	-0.13063383
110	0x3e47f604	0.19527441
111	0x3e88b088	0.26697183
112	0x3e4c76d8	0.1996721
113	0x3cd5209a	0.026016522
114	0x3d83806f	0.06420981
115	0x3dd9f99f	0.106433146
116	0xbde01442	-0.10941364
117	0xbc52f7ca	-0.01287646
118	0xbedf80e9	-0.43653038
119	0xbe4c2ae5	-0.19938238
120	0xbdc24b23	-0.094869874
121	0x3e3315f0	0.17488837
122	0x3e1d5161	0.15363075
123	0xbe8429e3	-0.25813207
124	0xbe513aaa	-0.20432535
125	0x3e553a53	0.2082303
126	0x3ebe3532	0.3714996
127	0x3e12d9f5	0.14340957
128	0xbdb003be	-0.08594464
129	0x3e2dd503	0.16975789
130	0xbe77d637	-0.2420281
131	0x3d05d95c	0.032677993
132	0x3d01046b	0.031498354
133	0x3db60847	0.088882975
134	0xbd5d3214	-0.054002836
135	0xbebb1950	-0.3654275
136	0xbdea2212	-0.1143228
137	0xbe20d0de	-0.15704677
138	0xbe1fa5b5	-0.15590556
139	0xbd710391	-0.05884129
140	0xbd394c9a	-0.04523907
141	0x3e314bc4	0.17314059
142	0x3c40c7e9	0.011766412
143	0x3de7cf60	0.113188505
144	0x3d20e64a	0.03928212
145	0x3daeaa13	0.08528533
146	0xbdd535f4	-0.10410681
147	0xbdbc5e3e	-0.09197663
148	0x3db96296	0.09052007
149	0xbe38d9b3	-0.18051796
150	0x3e8d53e6	0.27603072
151	0x3e2e108b	0.16998498
152	0xbd87c4b7	-0.06629317
153	0x3db87261	0.09006191
154	0x3e465b5c	0.19370788
155	0xbe5cc5dc	-0.21559852
156	0xbd89dffe	-0.06732176
157	0xbe277cac	-0.16356152
158	0xbe2171ee	-0.15766117
159	0x3e7686b1	0.24074818
160	0x3dfe57e6	0.12419109
161	0xbdd1f146	-0.102510974
162	0xbd202d53	-0.039105725
163	0x3d51e2cc	0.05124168
164	0xbbf87cc7	-0.007583234
165	0xbe08d453	-0.13362245
166	0xbebb8d2b	-0.3663114
167	0x3d752d8d	0.059857894
168	0x3df1c722	0.1180556
169	0x3d29c5b4	0.04144831
170	0x3df23a3d	0.11827514
171	0x3c1f9716	0.009740612
172	0xbc10a054	-0.008827288
173	0xbd96a0ba	-0.07354875
174	0xbc872b68	-0.01650019
175	0x3ccc69d9	0.024952816
176	0x3d745e33	0.059660148
177	0xbe97bafd	-0.29634848
178	0x3e5ca5f9	0.21547689
179	0x3e0fa70a	0.14028564
180	0x3d7a220c	0.061067626
181	0x3e3a0df6	0.18169388
182	0xbdce27c8	-0.100661814
183	0xbd805fa0	-0.06268239
184	0xbdd9ae1f	-0.10628914
185	0x3d81bc4b	0.06334742
186	0x3ec056cc	0.3756622
187	0x3e963da7	0.29343912
188	0x3dc22038	0.094788015
189	0x3e2702ef	0.16309713
190	0x3e05c4b9	0.13063325
191	0x3d1f4069	0.038879786
192	0xbe353fa4	-0.17700058
193	0xbe71e023	-0.23620658
194	0x3d0f359a	0.034963228
195	0x3e544d6d	0.2073266
196	0xbe2d4550	-0.16920972
197	0x3cbd5741	0.023112895
198	0xbe9d00aa	-0.3066457
199	0x3e150b68	0.14555132
200	0xbdff6bc0	-0.124717236
201	0x3e589197	0.21149288
202	0x3d073ca0	0.0330168
203	0x3cefcddb	0.029272964
204	0xbeae6e6f	-0.3406863
205	0x3e177d54	0.14793903
206	0x3e7ad97f	0.2449703
207	0xbcfda151	-0.03096071
208	0xbe902bce	-0.2815842
209	0xbdd9c6c8	-0.10633618
210	0xbe44665d	-0.19179673
211	0x3e912cbc	0.28354442
212	0xbd625c05	-0.055263538
213	0x3e7cb716	0.24679217
214	0x3dc22db3	0.09481373
215	0xbe814df3	-0.25254783
216	0xbdd3ba79	-0.10338301
217	0xbdd88c03	-0.1057358
218	0xbe228243	-0.15870003
219	0xbe012dba	-0.126151
220	0xbe71de57	-0.23619972
221	0x3e9013d0	0.28140116
222	0x3e48c7b8	0.19607437
223	0xbd4a94cd	-0.049458314
224	0x3e6c3587	0.23067294
225	0x3e555e7b	0.20836823
226	0x3e9724eb	0.29520354
227	0x3e27a849	0.1637279
228	0x3e4c922f	0.1997764
229	0xbdc4881e	-0.09596275
230	0xbc873615	-0.01650528
231	0x3e75c0e7	0.23999368
232	0x3e890e44	0.26768696
233	0xbcefd96e	-0.029278483
234	0x3db8bcaf	0.090203635
235	0x3e380159	0.17969264
236	0xbe2b1fba	-0.16711321
237	0x3e156c1b	0.1459202
238	0xbe15aa13	-0.1461566
239	0x3dce43e7	0.10071545
240	0x3de9c9f2	0.11415471
241	0xbe9dfba7	-0.30856058
242	0xbe1dc418	-0.15406835
243	0xbe3018c7	-0.17196952
244	0xbe69c3ac	-0.22828549
245	0x3d792dce	0.0608347
246	0xbe40f1e9	-0.18842281
247	0xbe413d27	-0.18870984
248	0xbe4356a9	-0.19076027
249	0x3dc4966e	0.09599005
250	0x3d95d302	0.07315637
251	0xbdad9f03	-0.08477595
252	0xbbefea09	-0.0073216003
253	0xbcd345bd	-0.02579009
254	0xbe09ceec	-0.1345784
255	0xbdb2d034	-0.08731118

dnn.0.bias f4 [64]
0	0x3dc894ed	0.0979403
1	0x3ce67fbe	0.028137084
2	0x3dea468e	0.114392385
3	0xbcb2f096	-0.021843236
4	0xbda4a312	-0.08038916
5	0xbe7666ea	-0.24062696
6	0xbe73f18b	-0.2382261
7	0x3e8c3526	0.273843
8	0x3e6c3d61	0.23070289
9	0x3e29b79c	0.16573948
10	0x3cef4b81	0.029210808
11	0xbe570927	-0.20999585
12	0xbcd32423	-0.025774067
13	0x3d92186d	0.07133565
14	0x3e75ba43	0.23996834
15	0x3da709de	0.08156179
16	0xbe95e28b	-0.292744
17	0xbda31b09	-0.07964141
18	0x3e6b2fd7	0.22967468
19	0xbe73fda3	-0.23827223
20	0x3e00b633	0.12569503
21	0x3e5b13c3	0.21394257
22	0xbe49783d	-0.19674774
23	0x3d4759fe	0.048669808
24	0x3e4e2fd6	0.20135435
25	0xbe86ca8e	-0.26326412
26	0xbd5b070f	-0.05347353
27	0x3e5eda0a	0.21762863
28	0xbcf783dc	-0.030214243
29	0x3d5224a9	0.051304493
30	0x3e4ec725	0.20193155
31	0xbe23be73	-0.1599062
32	0x3e865ec9	0.2624419
33	0xbdeac4ea	-0.114633396
34	0x3df2ebcf	0.11861383
35	0x3e403e6c	0.18773812
36	0x3e47d7cb	0.19515912
37	0xbe5956bc	-0.21224493
38	0x3e2d7beb	0.16941802
39	0xbe94ebab	-0.2908605
40	0x3c0660e4	0.008201811
41	0xbd155c30	-0.03646487
42	0x3e5b9301	0.21442796
43	0xbe0b310e	-0.13592932
44	0xbe90e880	-0.28302383
45	0xbddd4e0a	-0.108059004
46	0x3e27edf2	0.16399363
47	0xbe24f167	-0.16107713
48	0x3e7becf0	0.24602103
49	0xbe4aa6ba	-0.19790164
50	0x3dd585f5	0.10425941
51	0xbe6a9939	-0.22910012
52	0x3e5b402e	0.21411201
53	0x3e006063	0.12536769
54	0xbccf7497	-0.025324149
55	0x3e62c037	0.22143637
56	0x3db9b47c	0.09067628
57	0xbe7c58db	-0.2464327
58	0x3dce46d0	0.100721
59	0xbe212ffd	-0.15740962
60	0x3e61f8a7	0.2206751
61	0x3da04d5f	0.07827257
62	0xbe8d8d6e	-0.27646965
63	0xbcd035dd	-0.025416309

dnn.1.weight f4 [64]
0	0x3f81fa9f	1.0154608
1	0x3f81311b	1.0093111
2	0x3f7dd311	0.99150187
3	0x3f81c099	1.0136901
4	0x3f7ed052	0.9953662
5	0x3f7af96e	0.9803685
6	0x3f7ae654	0.980077
7	0x3f822a26	1.0169113
8	0x3f81ed45	1.0150534
9	0x3f79d02f	0.9758329
10	0x3f824153	1.0176185
11	0x3f8161df	1.0107993
12	0x3f82c4ab	1.0216268
13	0x3f85c4ef	1.0450724
14	0x3f82979e	1.020252
15	0x3f85f442	1.0465167
16	0x3f724f70	0.9465246
17	0x3f74009e	0.9531344
18	0x3f809dc2	1.0048144
19	0x3f7609be	0.96108615
20	0x3f6f93d8	0.93584967
21	0x3f79a27c	0.97513556
22	0x3f7ee76f	0.9957189
23	0x3f81441c	1.009891
24	0x3f770861	0.9649716
25	0x3f8420e2	1.0322535
26	0x3f7c4d33	0.98555297
27	0x3f7fbd99	0.9989868
28	0x3f7a503a	0.97778666
29	0x3f836154	1.0264077
30	0x3f7cd706	0.987656
31	0x3f7c40a4	0.98536134
32	0x3f8193c3	1.0123218
33	0x3f80f7c8	1.0075617
34	0x3f87072f	1.0549067
35	0x3f7f178e	0.99645317
36	0x3f78a4b9	0.97126347
37	0x3f833fb1	1.0253812
38	0x3f785f89	0.97020775
39	0x3f8283dc	1.019649
40	0x3f8191aa	1.0122578
41	0x3f7de73b	0.99180955
42	0x3f784804	0.9698489
43	0x3f7a7d22	0.9784719
44	0x3f7dfba6	0.9921211
45	0x3f80216f	1.0010203
46	0x3f7cde37	0.9877657
47	0x3f807232	1.003485
48	0x3f7e1aa3	0.99259394
49	0x3f81a607	1.0128793
50	0x3f760535	0.96101695
51	0x3f7e08a7	0.9923195
52	0x3f7c0786	0.9844898
53	0x3f83fc3f	1.0311354
54	0x3f83c22a	1.0293629
55	0x3f71b908	0.9442296
56	0x3f81fa50	1.0154514
57	0x3f843496	1.0328548
58	0x3f80ac52	1.0052588
59	0x3f7dadf2	0.99093544
60	0x3f8574e5	1.0426298
61	0x3f7b1541	0.98079306
62	0x3f867007	1.0502938
63	0x3f7fedc1	0.9997216

dnn.1.bias f4 [64]
0	0x3bf7176e	0.007540635
1	0xbdab63aa	-0.08368619
2	0xbd9b1635	-0.07572595
3	0x3cbefef2	0.023314927
4	0x3b864b9a	0.004098368
5	0xbc834cb4	-0.016027786
6	0xbd5a4b4b	-0.05329446
7	0xbd7f7c84	-0.062374607
8	0x3d370a94	0.044687822
9	0xbd3b6a93	-0.045755934
10	0x3c542bb7	0.012949876
11	0xbd8a0720	-0.0673964
12	0xbcb8c8ac	-0.022556625
13	0xbd14b1d5	-0.036302406
14	0xbcea2c8d	-0.028585697
15	0xbd8dbfa6	-0.0692132
16	0xbdb3537e	-0.08756159
17	0xbba8b8cd	-0.005148983
18	0xbda7f506	-0.082010314
19	0xbb9f1746	-0.0048550693
20	0x3d5cc3fb	0.05389784
21	0xbd4c0309	-0.049807582
22	0x3c1ab8ae	0.009443445
23	0xba707bac	-0.0009173702
24	0xbd28e90b	-0.041237872
25	0x3d18462b	0.037176292
26	0xbd37fac9	-0.0449169
27	0xbd4979b0	-0.049188316
28	0xbd545f77	-0.051848855
29	0xbc6b9c6d	-0.0143805565
30	0xbd8e1472	-0.069374934
31	0xbc818bb3	-0.015813684
32	0xbd1375b1	-0.03600091
33	0xbca1c597	-0.019747538
34	0xbc81c138	-0.015839204
35	0x3cf37a3e	0.029721376
36	0xbd0c03c5	-0.034183282
37	0xbc5f24a0	-0.013619572
38	0xbbc3a945	-0.0059711062
39	0xbcb06ce1	-0.021536293
40	0x3c568e6c	0.013095479
41	0x3cab7117	0.020927949
42	0x3cf3e5f7	0.029772742
43	0xbd8daf5e	-0.06918214
44	0x3ccc095b	0.024906805
45	0x3b292f11	0.0025815407
46	0xbd30410a	-0.043030776
47	0xbd6a08b6	-0.057137214
48	0xbd2ce17d	-0.04220723
49	0x3d0ebeeb	0.034850042
50	0xbc2b932b	-0.010472099
51	0xbcc8d330	-0.024514765
52	0xbc830e1d	-0.01599794
53	0x3d698c1d	0.057018388
54	0x3aaf533b	0.0013376245
55	0xbdab85a6	-0.08375101
56	0x3c78816a	0.0151675735
57	0xbc6ef74a	-0.0145853255
58	0x3d329258	0.043596596
59	0xbcbff58e	-0.02343252
60	0xbc6bd73c	-0.014394578
61	0x3c7da5ba	0.015481407
62	0x3d005efb	0.03134058
63	0xbd353102	-0.04423619

dnn.1.running_mean f4 [64]
0	0xbdbef892	-0.09324755
1	0x3ea719b6	0.32636803
2	0x3d61e1c6	0.055146955
3	0x3ec15151	0.37757352
4	0xbeabc6b1	-0.33550027
5	0xbec037e8	-0.37542653
6	0x3c45fa43	0.012083593
7	0x3bc3cbce	0.005975223
8	0x3e8def7a	0.2772177
9	0x3ea5ff7d	0.32421485
10	0x3e96a9bc	0.29426372
11	0xbf00862b	-0.50204724
12	0x3ea8aa63	0.32942495
13	0xbeb16b89	-0.34652355
14	0x3edc8873	0.43072852
15	0x3f382ba4	0.7194159
16	0xbf03ea42	-0.51529324
17	0xbdcbf895	-0.09959523
18	0x3ef66038	0.48120284
19	0x3e304168	0.1721245
20	0xbef0f6f9	-0.47063425
21	0xbcbb0a49	-0.022832053
22	0xbe89a62f	-0.268846
23	0x3eb27ae5	0.34859386
24	0x3ef99521	0.4874659
25	0x3d569edd	0.052397598
26	0x3c45412a	0.012039462
27	0x3eca32bb	0.3949183
28	0xbe1119e9	-0.1417004
29	0x3b262958	0.0025354233
30	0xbef67c87	-0.48141882
31	0xbeaa1e3f	-0.332262
32	0x3e6f126c	0.23346871
33	0xbeda4175	-0.42628065
34	0x3f0082b0	0.50199413
35	0x3f35239d	0.70757467
36	0xbeab0dd0	-0.33408976
37	0xbed3d374	-0.41372263
38	0x3de99098	0.11404532
39	0xbe6c56ca	-0.23079982
40	0xbf2640b7	-0.64942497
41	0x3ea8b334	0.3294922
42	0xbe3b175d	-0.18270631
43	0xbe58989f	-0.2115197
44	0xbf3f7df3	-0.7480156
45	0x3eb108ee	0.34577125
46	0x3f8045ff	1.0021361
47	0xbf235839	-0.6380649
48	0xbecb0a79	-0.39656428
49	0x3e8948dd	0.26813403
50	0x3efa0008	0.4882815
51	0xbf8a8300	-1.0821228
52	0x3f16648d	0.5874718
53	0xbf182b15	-0.5944074
54	0xbe85b32d	-0.26113263
55	0x3f04b146	0.51833
56	0x3e0a3d3a	0.13499919
57	0x3e1e0e1f	0.15435074
58	0xbebc039f	-0.36721513
59	0xbe5a76b9	-0.21334352
60	0x3d1cdf98	0.038299173
61	0xbc86ec8b	-0.016470214
62	0xbe8c7336	-0.2743165
63	0x3e64bfb7	0.22338758

dnn.1.running_var f4 [64]
0	0x3d1c5ba2	0.038173325
1	0x3d28a6b1	0.041174594
2	0x3d1c7995	0.038201887
3	0x3d1ef1b5	0.03880473
4	0x3ca021b5	0.019547323
5	0x3c7c5d77	0.015403143
6	0x3c7649bc	0.015032228
7	0x3cfa929d	0.030587489
8	0x3d05ca49	0.032663617
9	0x3d23e743	0.04001547
10	0x3d3b6553	0.045750927
11	0x3c969fd8	0.018386766
12	0x3d0abf0b	0.0338736
13	0x3cd5e82c	0.026111685
14	0x3c33623f	0.010948717
15	0x3d89f6a0	0.06736493
16	0x3d4ec8d3	0.05048449
17	0x3d2f7405	0.042835254
18	0x3d288b55	0.041148502
19	0x3c955fd9	0.01823418
20	0x3d574f56	0.052565895
21	0x3c9d37bc	0.019191615
22	0x3c837093	0.01604489
23	0x3cd8e2b6	0.026475292
24	0x3cfff137	0.03124295
25	0x3cccaa1b	0.024983456
26	0x3cbe77cb	0.023250481
27	0x3d0e19fc	0.03469275
28	0x3cccb80f	0.02499011
29	0x3c461fb1	0.012092517
30	0x3d4014d3	0.04689486
31	0x3cef8d1b	0.029242089
32	0x3c7ef84f	0.015562131
33	0x3d8828a9	0.0664838
34	0x3cda1f8f	0.026626376
35	0x3d30aaa9	0.043131504
36	0x3d2a3ab2	0.041559882
37	0x3ca7a90a	0.020466346
38	0x3ca4ccab	0.020117125
39	0x3d267dc5	0.040647287
40	0x3cf67c44	0.030088551
41	0x3ca0ba7f	0.019620178
42	0x3d36940c	0.044574782
43	0x3d6fc742	0.058539636
44	0x3d23cc7a	0.039989926
45	0x3d722e68	0.059126288
46	0x3ce38a77	0.027775986
47	0x3d00a19c	0.031404123
48	0x3cb6cf25	0.022315571
49	0x3d00ae3e	0.03141617
50	0x3cc8050f	0.024416475
51	0x3d2a7699	0.04161701
52	0x3c914e25	0.017737458
53	0x3d5eb62c	0.05437295
54	0x3d1118e5	0.035424132
55	0x3d5077d1	0.050895516
56	0x3cd5ad4e	0.026083615
57	0x3d14d12a	0.036332287
58	0x3c90fe46	0.017699372
59	0x3cfdb4d2	0.03097001
60	0x3d23e5f6	0.04001423
61	0x3cbbbc81	0.022917034
62	0x3ceb41aa	0.028717835
63	0x3d83a686	0.06428246

dnn.3.weight f4 [128, 64]
0	0x3cf31f4e	0.029678013
1	0x3df9aad6	0.121907875
2	0x3d2b6aa9	0.041849766
3	0x3c839d6e	0.01606628
4	0xbd5e03b0	-0.054202735
5	0xbc284dc7	-0.01027245
6	0xbaa64c56	-0.0012687545
7	0x3d45fd04	0.048336998
8	0xbdbd9ac5	-0.092580356
9	0x3d1dde12	0.03854186
10	0x3e01a3f4	0.126602
11	0xbdc16e03	-0.09444811
12	0xbdb9a03a	-0.09063764
13	0x3e141c9c	0.14464039
14	0xbd1d444b	-0.038395207
15	0x3d82f46c	0.06394276
16	0x3dc6743e	0.0969014
17	0xbafa2a50	-0.0019086096
18	0xbd6f1986	-0.05837395
19	0xbb07a1f4	-0.0020695897
20	0x3d626d83	0.05528022
21	0x3c1bdedf	0.009513586
22	0xbdb2da8f	-0.08733093
23	0xbdf44c50	-0.11928618
24	0x3b38ece1	0.0028217363
25	0xbbe6e8c5	-0.0070467913
26	0x3d647bda	0.055782177
27	0xbe16a35e	-0.14710757
28	0x3ae32114	0.0017328584
29	0xbc7ab68f	-0.015302314
30	0x3d992c0c	0.074791044
31	0x3a4b893d	0.00077642855
32	0xbd279660	-0.040914893
33	0x3d0f8c34	0.035045817
34	0xbdc9895c	-0.09840652
35	0xbc0c1611	-0.008550183
36	0xbd83746b	-0.06418689
37	0xbdd9958a	-0.106242254
38	0x3dd00d55	0.10158793
39	0x3da4cc62	0.080467954
40	0x3c1484ce	0.009064866
41	0x3c68e5c5	0.014214938
42	0xbcff234b	-0.031144759
43	0xbddfc6a5	-0.1092656
44	0xbd5b9304	-0.053607002
45	0xbdd0660d	-0.10175715
46	0x3d76c7d9	0.060249183
47	0xbd881405	-0.066444434
48	0x3dcfc99b	0.10145875
49	0x3d68677a	0.056739308
50	0xbe1db17d	-0.15399738
51	0x3daef06e	0.08541952
52	0x3d078d34	0.033093646
53	0xbd86e225	-0.065861024
54	0x3dab9ab2	0.08379115
55	0x3dab4e58	0.08364552
56	0x3de56e42	0.11202671
57	0xbd315e0a	-0.043302573
58	0xbd2e96e5	-0.042624373
59	0xbdd9b0a1	-0.106293924
60	0xbd35e1fc	-0.04440497
61	0x3dabbaae	0.08385216
62	0xbd83731f	-0.06418442
63	0x3c419167	0.011814452
64	0x3e01fda8	0.12694418
65	0xbdc462cc	-0.095891565
66	0x3dad4086	0.084595725
67	0xbd63c320	-0.055606008
68	0x3d3193dd	0.043353904
69	0xbd973c51	-0.07384551
70	0xbbbcf5b9	-0.005766597
71	0x3c87ca47	0.016575946
72	0x3e27e38a	0.16395393
73	0xbdb4f186	-0.088351294
74	0x3d65c340	0.056094408
75	0xbe031ba0	-0.12803507
76	0x3d8137c6	0.06309466
77	0x3c744309	0.014908561
78	0x39b466f0	0.0003440897
79	0xbc4f287d	-0.0126439305
80	0xbbc0e93d	-0.005887179
81	0x3d8a5585	0.06754593
82	0x3e0569ce	0.13028643
83	0xbe015d2d	-0.126332
84	0x3db1ef62	0.08688237
85	0xbd72eaae	-0.05930584
86	0x3dbe989e	0.09306453
87	0xbdf9457f	-0.121714585
88	0x3ddbba63	0.1072891
89	0xbdd0c84f	-0.10194456
90	0xbdb5c220	-0.08874917
91	0xbd31dccc	-0.04342346
92	0xbdc000eb	-0.09375175
93	0xbdb7ea57	-0.08980244
94	0x3daa18b8	0.08305496
95	0xbda8c9b6	-0.08241598
96	0x3e2e8c17	0.17045628
97	0x3d66ebf2	0.05637736
98	0xbdfccea3	-0.123441
99	0x3df7d664	0.12101439
100	0xbd824fa6	-0.06362848
101	0x3d393935	0.045220573
102	0xbd2ad906	-0.041710876
103	0xbca9a0a3	-0.02070648
104	0xbdc96cd0	-0.098352075
105	0xbbec2e1e	-0.007207646
106	0x3d727e6f	0.059202608
107	0xbd7d13f2	-0.0617866
108	0x3e23980c	0.1597597
109	0xbda52ed1	-0.0806557
110	0xbdc9b50e	-0.098489866
111	0xbd9d09bd	-0.07667873
112	0xbdab0094	-0.0834972
113	0xbd805a86	-0.06267266
114	0x3de9b4e8	0.11411458
115	0xbd9405f5	-0.07227699
116	0x3dc0a631	0.094066985
117	0x3d7599c6	0.059961103
118	0xbdc97a14	-0.09837738
119	0x3d403a4d	0.0469306
120	0x3cfc8c8a	0.030828733
121	0x3d448b2f	0.0479843
122	0x3d4b55e7	0.04964247
123	0x3e145bfd	0.14488216
124	0xbb97b2b7	-0.0046294588
125	0x3d3b5e77	0.045744386
126	0xbde84f54	-0.11343256
127	0xbe1506fb	-0.14553444
128	0x3da9b910	0.08287251
129	0x3da9f1ee	0.082980976
130	0x3cf8ea9f	0.030385314
131	0xbd501f08	-0.050810844
132	0xbda0568b	-0.07829007
133	0x3d8a20c3	0.0674453
134	0xbd2a3e24	-0.04156317
135	0x3c1ca54b	0.009560893
136	0x3bda97b8	0.0066709183
137	0xbb4574cd	-0.0030129433
138	0x3de39005	0.11111454
139	0xbd91b40f	-0.071144216
140	0x3cba058e	0.022707727
141	0xbe047469	-0.12935032
142	0x3dbbe2bf	0.09174108
143	0x3cc29146	0.023750912
144	0x3dce0f6f	0.100615375
145	0xbc915c2f	-0.017744152
146	0xbc2053a6	-0.009785568
147	0xbdfba96c	-0.12288174
148	0x3d09234e	0.033480935
149	0xbdf62bb2	-0.12020053
150	0x3e0a9132	0.1353195
151	0xbe248951	-0.16068007
152	0xbd9b9726	-0.07597189
153	0xbc86dd2e	-0.016462889
154	0xbd1b08c9	-0.037850175
155	0xbce2de7a	-0.027693976
156	0xbe19b1a4	-0.15009171
157	0x3d724a71	0.059153024
158	0x3d00da47	0.031458165
159	0xbd17bfe4	-0.037048236
160	0x3d5311a8	0.05153051
161	0xbdb81d2b	-0.08989938
162	0xbd0b7e37	-0.034055915
163	0xbdcd4e39	-0.100246854
164	0xbdb46721	-0.08808733
165	0x3c526a32	0.012842702
166	0xbd6e1976	-0.05812975
167	0xbc6c6348	-0.014427967
168	0x3ded0cd9	0.11574716
169	0xbd988c8d	-0.07448683
170	0xbc88000d	-0.016601587
171	0xbce12262	-0.027482215
172	0x3d617d15	0.05505093
173	0xbdceddfc	-0.10100934
174	0xbcef7def	-0.029234855
175	0x3ce05d53	0.02738825
176	0xbd1e713e	-0.038682215
177	0xbe3180a5	-0.1733423
178	0x3ba20a64	0.0049450863
179	0x3d7ecce4	0.062207118
180	0xbd89fc18	-0.06737536
181	0xbe0c7399	-0.13715972
182	0xbcc9ee35	-0.024649719
183	0xbded4f3a	-0.11587377
184	0xbdab2cae	-0.08358131
185	0xbe00b246	-0.12568006
186	0xbc0f437b	-0.008744116
187	0xbc8f4ef5	-0.017493704
188	0x3d715b0b	0.058924716
189	0x3cb8093e	0.022465345
190	0xbe316609	-0.1732408
191	0xbdb872af	-0.09006249
192	0x3d3a6dc8	0.04551485
193	0x3ce153f0	0.027505845
194	0x3d8e4296	0.06946294
195	0xbdded8d7	-0.10881203
196	0xbd87568d	-0.06608305
197	0x3d9b3e85	0.07580284
198	0x3db8429a	0.08997078
199	0xbd8696b2	-0.065717116
200	0xbd5d671e	-0.05405342
201	0xbca6f4e8	-0.020380452
202	0x3d8d9fc0	0.069152355
203	0xbd14a08f	-0.036285933
204	0x3dda8ba0	0.106711626
205	0xbde7b669	-0.11314089
206	0x3d029200	0.031877518
207	0xbdc176d5	-0.094464935
208	0xbe16af0d	-0.14715214
209	0x3d52d156	0.05146917
210	0x3d3b77fe	0.04576873
211	0x3d36d37f	0.044635292
212	0x3d81d511	0.06339467
213	0x3cbd2609	0.023089426
214	0xbd7c0273	-0.061525773
215	0xbd6efaa6	-0.058344506
216	0xbdb3747a	-0.087624505
217	0xbd32a3d9	-0.04361329
218	0xbcb0f929	-0.021603184
219	0xbe1644a1	-0.14674617
220	0x3d353fdb	0.04425035
221	0x3dc8d34d	0.098059274
222	0x3d3a5fad	0.0455014
223	0x3d80ac54	0.06282869
224	0xbd978386	-0.07398133
225	0xbcb1ee08	-0.021719947
226	0xbe032ce3	-0.12810092
227	0xbc2878f7	-0.0102827465
228	0xbcc13d80	-0.023588896
229	0xbdeba0d4	-0.11505285
230	0xbe007072	-0.12542894
231	0xbd16255c	-0.036656722
232	0xbc5f0d6f	-0.013614043
233	0x3e038db8	0.1284703
234	0xbcea1d11	-0.028578313
235	0xbd9fc71c	-0.07801649
236	0xbdcd3251	-0.10019363
237	0xbdad2a93	-0.08455386
238	0x3d035165	0.032060046
239	0x3bcdbc57	0.0062785554
240	0xbbd5bf88	-0.0065230764
241	0x3d2666fd	0.04062556
242	0x3aad70d8	0.0013232483
243	0xbc62e727	-0.013849056
244	0x3d735043	0.059402715
245	0x3d98af23	0.0745528
246	0x3dba5cdf	0.09099745
247	0xbd67f348	-0.056628495
248	0xbdaa1a95	-0.08305851
249	0xbda2d29c	-0.07950327
250	0xbdabde82	-0.08392049
251	0xbbf1be06	-0.007377389
252	0x3d23a788	0.039954692
253	0xbdaaa706	-0.083326384
254	0x3da11d13	0.078668736
255	0x3d831546	0.06400542

dnn.3.bias f4 [128]
0	0x3d9149e6	0.07094173
1	0xbde12389	-0.10993106
2	0xbd708cde	-0.05872809
3	0x3ca774d8	0.020441458
4	0xbb829f9a	-0.003986311
5	0xbdd4ceb6	-0.103909895
6	0xbd4d0cc1	-0.05006099
7	0xbd4e93ac	-0.0504338
8	0x3bae34ab	0.005316337
9	0xbde4ffd9	-0.111816116
10	0xbd66c7e2	-0.056342967
11	0xbcf6d20f	-0.03012946
12	0x3d8a8ccc	0.06765136
13	0xbd68e90c	-0.056862876
14	0x3c3c35ce	0.011487437
15	0x3dd332a9	0.10312397
16	0x3dcfc1b6	0.10144369
17	0x3d38881f	0.04505169
18	0x3d9fa9c5	0.07796053
19	0xbd537bb3	-0.05163164
20	0xbb0bd742	-0.002133802
21	0xbdda3f4f	-0.106566064
22	0x3d92ff8b	0.07177647
23	0xbd87ac9e	-0.06624721
24	0xbdce986e	-0.100876674
25	0x3d76afe9	0.060226355
26	0xbd44efaf	-0.048080143
27	0x3dfea252	0.12433304
28	0x3c3e90a0	0.011631161
29	0x3da38c1d	0.07985709
30	0x3cc89c78	0.024488673
31	0x3daefaff	0.085439675
32	0x3ce1ba1d	0.027554566
33	0xbc0a6a32	-0.0084481705
34	0xbcb58737	-0.022159202
35	0x3bb75959	0.005595368
36	0x3dcc7478	0.09983152
37	0xbdc0be93	-0.09411349
38	0xbe0265df	-0.12734173
39	0x3dcdcc3d	0.10048721
40	0x3d97836d	0.07398114
41	0xbbd31117	-0.0064412463
42	0x3d1e5734	0.038657382
43	0x3dea7b82	0.114493385
44	0x3c1ec8a5	0.009691392
45	0x3c3ae93f	0.011408149
46	0x3d2cd429	0.04219452
47	0x3da4342b	0.08017763
48	0x3d880079	0.06640715
49	0xbd230e4c	-0.039808556
50	0x3dca1302	0.09866907
51	0x3d52c5f8	0.05145833
52	0x3cdfe2de	0.027329858
53	0x3defb217	0.1170389
54	0xbca488a6	-0.02008469
55	0xbc0fdca4	-0.008780632
56	0x3d19cc16	0.037548147
57	0x3b792327	0.0038015337
58	0x3dfb6e6d	0.122769214
59	0x3d5af26b	0.053453844
60	0x3d4a8ba4	0.049449578
61	0x3db3472b	0.087538086
62	0x3c542aa6	0.012949621
63	0xbdecb285	-0.115574874
64	0xbdf90490	-0.12159073
65	0x3de2ed95	0.110804714
66	0xbd9abcab	-0.07555517
67	0xbd29b4aa	-0.04143206
68	0x3d74416a	0.059632696
69	0xbd986628	-0.0744136
70	0x3c90d9fd	0.01768207
71	0xbde7403a	-0.11291547
72	0x3df448a3	0.11927917
73	0x3d4a422f	0.049379524
74	0x3d419ddd	0.04726969
75	0xbb09ab27	-0.0021006556
76	0xbdcd9b9a	-0.10039444
77	0xbbb24a42	-0.005440981
78	0x3dda2896	0.106522724
79	0x3e01116b	0.126043
80	0xbdf19b3b	-0.11797186
81	0xbd823a4c	-0.063587755
82	0xbc91a7a9	-0.017780142
83	0xbdf54eaa	-0.119778946
84	0x3dd27103	0.102754615
85	0xbd3b79b9	-0.04577038
86	0x3bbfbcf4	0.0058513824
87	0x3ce52294	0.02797059
88	0x3b8a8fd2	0.0042285705
89	0xbd5350d1	-0.051590744
90	0xbc2b11cc	-0.010441255
91	0x3dba9d98	0.0911209
92	0x3d514144	0.051087633
93	0x3cbec99c	0.023289494
94	0x3df291e0	0.1184423
95	0x3dab6298	0.08368415
96	0x3d2de26a	0.042452253
97	0xbdc61dfc	-0.09673688
98	0xbbaa13d7	-0.0051903534
99	0x3dd6ec21	0.10494257
100	0xbcdd0793	-0.02698115
101	0x3dcfd7df	0.10148596
102	0x3b89ba7c	0.004203139
103	0xbd0da225	-0.03457846
104	0x3d61025d	0.054933894
105	0x3d18bc06	0.037288688
106	0x3d147d4d	0.03625231
107	0x3dad951b	0.08475705
108	0xbd9a606d	-0.07537923
109	0x3d621caf	0.055203136
110	0x3d5c3f1c	0.053771123
111	0x3c474b54	0.012163956
112	0x3ddd9e6f	0.108212344
113	0xbdc24146	-0.09485106
114	0x3cdf49fe	0.027256962
115	0xbd8be393	-0.06830516
116	0x3d9361a0	0.07196355
117	0xbd3b507e	-0.04573106
118	0x3c2ba246	0.010475701
119	0x3b28e561	0.0025771486
120	0x3bb1c95a	0.0054256143
121	0x3d5c0976	0.05371996
122	0xbde9ca4e	-0.1141554
123	0x3df48aaf	0.11940514
124	0x3d3b3e00	0.045713425
125	0x3cda3a52	0.026639137
126	0x3de60520	0.11231446
127	0xbe01b050	-0.12664914

dnn.4.weight f4 [128]
0	0x3f81ae9a	1.0131409
1	0x3f8331b6	1.0249546
2	0x3f7bb87d	0.9832838
3	0x3f729172	0.9475318
4	0x3f81036a	1.0079167
5	0x3f808233	1.0039734
6	0x3f82bec6	1.021447
7	0x3f813f5d	1.0097462
8	0x3f78dfbf	0.9721641
9	0x3f7eb4a6	0.994944
10	0x3f8402d0	1.0313358
11	0x3f8a8343	1.0821308
12	0x3f8046b3	1.0021576
13	0x3f853bb1	1.0408841
14	0x3f803b42	1.0018084
15	0x3f869861	1.0515252
16	0x3f76c941	0.9640084
17	0x3f8207d5	1.015864
18	0x3f75baf8	0.95988417
19	0x3f8119b1	1.0085965
20	0x3f82d7d3	1.0222114
21	0x3f768828	0.9630151
22	0x3f70dc75	0.9408639
23	0x3f7d5b8d	0.9896782
24	0x3f7ebcb3	0.9950668
25	0x3f7b64e1	0.98200804
26	0x3f80af7b	1.0053552
27	0x3f79c77d	0.9757002
28	0x3f8550af	1.0415248
29	0x3f802a28	1.0012865
30	0x3f817bbf	1.0115889
31	0x3f8284c0	1.0196762
32	0x3f7bb6b3	0.9832565
33	0x3f8caaba	1.0989602
34	0x3f7f47f5	0.9971917
35	0x3f7e8dbb	0.99435014
36	0x3f81c486	1.0138099
37	0x3f7af89b	0.9803559
38	0x3f7fe5e9	0.9996019
39	0x3f74e084	0.95655084
40	0x3f7a94c1	0.9788323
41	0x3f74b8ec	0.9559467
42	0x3f7a3485	0.9773639
43	0x3f80831a	1.0040009
44	0x3f8003ba	1.0001137
45	0x3f750bd9	0.95721203
46	0x3f7e60e4	0.99366593
47	0x3f821b19	1.016452
48	0x3f7b719f	0.9822025
49	0x3f786628	0.9703088
50	0x3f6ad53b	0.91731614
51	0x3f84ae08	1.036561
52	0x3f787498	0.9705291
53	0x3f7be59a	0.9839722
54	0x3f816d48	1.0111475
55	0x3f741193	0.95339316
56	0x3f7af587	0.98030895
57	0x3f807f93	1.0038933
58	0x3f7dff7d	0.9921797
59	0x3f7043a2	0.938532
60	0x3f80d9ed	1.0066506
61	0x3f7160f9	0.94288594
62	0x3f7e96a5	0.99448615
63	0x3f7be3c5	0.98394424
64	0x3f866b85	1.0501562
65	0x3f75d302	0.960251
66	0x3f72f6c8	0.9490781
67	0x3f85d782	1.0456393
68	0x3f7da7f1	0.99084383
69	0x3f8817a5	1.0632216
70	0x3f7d6857	0.98987335
71	0x3f83983c	1.0280833
72	0x3f793015	0.9733899
73	0x3f7286da	0.9473702
74	0x3f8796b8	1.0592871
75	0x3f7ce1ec	0.9878223
76	0x3f7b22f8	0.98100233
77	0x3f76e93d	0.96449643
78	0x3f8233d2	1.0172064
79	0x3f85683f	1.0422438
80	0x3f79bc15	0.97552615
81	0x3f7ea4f7	0.99470466
82	0x3f83930a	1.0279248
83	0x3f7dd81c	0.9915788
84	0x3f8067d7	1.003169
85	0x3f7ccaf7	0.987472
86	0x3f812fe5	1.0092741
87	0x3f852fe9	1.0405246
88	0x3f79ec4a	0.97626173
89	0x3f78ca37	0.97183555
90	0x3f770fef	0.9650869
91	0x3f813846	1.0095298
92	0x3f7f6c9c	0.997751
93	0x3f82fd83	1.0233616
94	0x3f73f48b	0.9529502
95	0x3f802f42	1.0014422
96	0x3f81678e	1.0109727
97	0x3f79d560	0.9759121
98	0x3f76ab5e	0.96355236
99	0x3f73f9f2	0.9530326
100	0x3f717783	0.94322985
101	0x3f800983	1.0002903
102	0x3f771d09	0.9652868
103	0x3f782700	0.9693451
104	0x3f7a3539	0.9773746
105	0x3f813f06	1.0097358
106	0x3f730cae	0.9494122
107	0x3f825e77	1.0185078
108	0x3f8526a9	1.0402423
109	0x3f779da5	0.9672492
110	0x3f80c943	1.006142
111	0x3f792953	0.9732868
112	0x3f7d2acf	0.98893446
113	0x3f7933e9	0.97344834
114	0x3f7df117	0.99196
115	0x3f83e8d6	1.0305431
116	0x3f7c1f23	0.9848501
117	0x3f86cf33	1.0531982
118	0x3f79fd9a	0.9765259
119	0x3f836913	1.0266441
120	0x3f826ae9	1.0188876
121	0x3f83b923	1.0290874
122	0x3f81215d	1.0088307
123	0x3f805371	1.0025464
124	0x3f7fc705	0.99913055
125	0x3f89ef04	1.0776067
126	0x3f845420	1.0338173
127	0x3f7351d3	0.9504673

dnn.4.bias f4 [128]
0	0x3d3440f1	0.044007245
1	0x3cbc65e0	0.022997797
2	0x3c8309a2	0.015995804
3	0x3bda3528	0.0066591688
4	0xbc400d63	-0.011721942
5	0xbd36a99a	-0.04459534
6	0xbd28bcfd	-0.04119586
7	0x3c841748	0.016124383
8	0xbd8ad226	-0.06778364
9	0xbd39ec4d	-0.04539137
10	0xbc663fd7	-0.014053307
11	0x3b13564d	0.002248186
12	0xbd00efa8	-0.031478554
13	0xbc5d3793	-0.013502019
14	0xbc8941de	-0.01675504
15	0xbcab346d	-0.020899022
16	0xbd5f8e40	-0.05457902
17	0xbd41cc50	-0.04731399
18	0xbd3c2a09	-0.045938525
19	0xbd1085e0	-0.035283923
20	0xbdb136a2	-0.086529985
21	0xbd0a3968	-0.033746153
22	0xbd3d37d2	-0.046195813
23	0xbcaf5f8b	-0.021407863
24	0xbcca4971	-0.024693223
25	0xbc6377d4	-0.01388355
26	0xbd014c93	-0.031567167
27	0xbd150241	-0.036379103
28	0xbd486e79	-0.04893348
29	0xbd1ed2d0	-0.038775265
30	0xbcded544	-0.027201302
31	0xbc95ceed	-0.018287146
32	0xbd3860e6	-0.045014285
33	0x3a4bf38b	0.0007780126
34	0xbcba2544	-0.022722848
35	0xbcafde1d	-0.021468217
36	0xbc8d8a29	-0.017277794
37	0xbd4a9a65	-0.04946365
38	0x3d08c82a	0.033394016
39	0xbcbf1060	-0.023323238
40	0xbc49b568	-0.012311317
41	0xbd8caaf3	-0.068685435
42	0xbd55247e	-0.052036755
43	0xbd8c380a	-0.06846626
44	0x3bcbf999	0.0062248227
45	0xbcb69cdf	-0.022291599
46	0xbdaf77ff	-0.08567809
47	0xbd8adf89	-0.06780917
48	0xbd098304	-0.03357221
49	0x3c6aeab2	0.014338182
50	0xbd7c5732	-0.061606593
51	0xbc2af552	-0.0104344655
52	0xbcb9ab0c	-0.02266457
53	0xbd4c21a7	-0.04983678
54	0xbce519e5	-0.027966449
55	0xbc7c0d59	-0.015384042
56	0xbcfabfbe	-0.030609008
57	0x3b8f78ac	0.004378399
58	0xbd8bada8	-0.06820232
59	0x3c0f0c5c	0.008730974
60	0x3cbccb9b	0.023046305
61	0xbd304575	-0.04303499
62	0xbca19d7e	-0.019728418
63	0xbc5d4cd0	-0.013507083
64	0xbd4078cf	-0.046990212
65	0xbd533f86	-0.051574253
66	0xbca466d5	-0.020068565
67	0x3c8eb183	0.017418629
68	0xbd278c3f	-0.040905233
69	0xbc9be76e	-0.019031253
70	0xbd69f628	-0.05711952
71	0xb96294b4	-0.00021608436
72	0xbd7041f1	-0.058656637
73	0xbd3318f1	-0.043724958
74	0xbcfaebf0	-0.030630082
75	0xbccd5216	-0.025063556
76	0xbcc3e508	-0.023912922
77	0xbc604e72	-0.013690578
78	0x3a13f8cb	0.0005644678
79	0xbd34c6ca	-0.044134893
80	0xbd808b21	-0.06276537
81	0x3cf94367	0.030427648
82	0x3c4062ec	0.011742335
83	0xbdb1bff5	-0.08679191
84	0xbd8565c7	-0.06513553
85	0xbd1c1c29	-0.038112793
86	0xbd728d83	-0.059216987
87	0x3d48a265	0.048982996
88	0x3ca38c98	0.019964501
89	0xbd3d1e2b	-0.04617135
90	0xbd308f99	-0.043105695
91	0xbd93799d	-0.0720093
92	0xbd6f997d	-0.058495987
93	0x3b7918e2	0.0038009216
94	0xbd2a0cf2	-0.04151625
95	0xbd157473	-0.036488008
96	0xbba62d59	-0.005071324
97	0xbd243aac	-0.040095016
98	0xbd806601	-0.06269456
99	0xbd7cef71	-0.061751787
100	0xbddc239d	-0.1074898
101	0x3c01fb5d	0.007933465
102	0xbd22efb7	-0.03977939
103	0xbd6a7879	-0.057243798
104	0x3c711d21	0.0147164175
105	0xbda8110e	-0.08206378
106	0xbd014439	-0.031559203
107	0x3b3c460e	0.002872828
108	0xbd3883fa	-0.045047738
109	0xbd3a5690	-0.04549271
110	0x3d258e86	0.040419124
111	0xbd1f18d3	-0.038842034
112	0xbd5847cf	-0.052802857
113	0xbd2ca513	-0.042149615
114	0xbde113d4	-0.1099011
115	0xbcfc8362	-0.030824367
116	0xbd291111	-0.04127604
117	0xbda29751	-0.079390176
118	0xbd7811f2	-0.06056399
119	0xbcae4dc8	-0.021277323
120	0xbc67ba3b	-0.014143522
121	0x3d11bc9b	0.03558026
122	0xbd8317f8	-0.06401056
123	0x3d4891be	0.048967116
124	0xbca9bb05	-0.02071906
125	0xbd4de77d	-0.050269593
126	0x3c422721	0.011850149
127	0xbc8d3797	-0.017238421

dnn.4.running_mean f4 [128]
0	0x3bbd3166	0.005773711
1	0xbe1062f0	-0.14100242
2	0xbf2ce477	-0.6753611
3	0xbe8b2752	-0.27178437
4	0x3dfe8b64	0.124289304
5	0x3eefbfe7	0.46826097
6	0x3e42f8e7	0.19040261
7	0x3e02f22a	0.12787691
8	0x3df9467c	0.12171647
9	0x3ec65bc0	0.38741875
10	0xbec9b8cd	-0.39398804
11	0xbd52d2c1	-0.05147052
12	0xbdbd857b	-0.09253975
13	0x3f07dd9e	0.53072536
14	0xbe49f163	-0.19720988
15	0x3e9848c0	0.29743004
16	0xbe6a1866	-0.2286087
17	0x3efa5f73	0.48900947
18	0x3e3bdff0	0.18347144
19	0xbe66d8a0	-0.22543573
20	0x3dbd71f3	0.0925025
21	0xbecd7ea0	-0.4013567
22	0x3dbfd7ef	0.09367358
23	0xbf0a252f	-0.5396299
24	0xbf0ea8bc	-0.5572622
25	0x3eeedb70	0.46651793
26	0x3d9f43de	0.077766165
27	0x3e7128df	0.23550747
28	0x3e74f325	0.23920877
29	0x3e7be4cc	0.24598998
30	0x3d8007e8	0.06251508
31	0xbe797019	-0.24359168
32	0x3ebbe9d7	0.36701843
33	0xbed28705	-0.41118637
34	0x3df54d0e	0.11977588
35	0xbe29c441	-0.16578771
36	0x3e5535f2	0.2082136
37	0xbdafd173	-0.08584871
38	0xbf1e98c8	-0.61951876
39	0x3efc658b	0.4929622
40	0xbdcecb0e	-0.10097323
41	0x3d54d924	0.051964894
42	0xbc9af2f6	-0.01891468
43	0xbe50befc	-0.20385355
44	0xbea39a04	-0.31953442
45	0xbdbae706	-0.091260955
46	0x3dbedcc8	0.093194544
47	0xbd090c04	-0.033458725
48	0xbe025348	-0.12727082
49	0xbe986c51	-0.2977014
50	0xbdb02763	-0.086012624
51	0x3cdceb0d	0.02696755
52	0x3e99983d	0.2999896
53	0x3dbc5898	0.091965854
54	0x3ec0e8a8	0.37677503
55	0x3ea29302	0.31752783
56	0x3d3db780	0.046317577
57	0xbe8d5750	-0.27605677
58	0x3e7802d1	0.24219824
59	0x3e648efb	0.22320168
60	0xbe18b0d4	-0.14911205
61	0x3ed50d8f	0.41611907
62	0xbe167d87	-0.14696322
63	0xbe3dd892	-0.18539646
64	0xbdb97111	-0.09054769
65	0xbe6fc23a	-0.23413935
66	0xbe90b87a	-0.28265744
67	0xbf33f542	-0.7029611
68	0x3e75fbf1	0.2402189
69	0xbe9f9584	-0.3116876
70	0xbd163b84	-0.036677852
71	0xbd3bc2a8	-0.045839936
72	0x3dc1254c	0.09430942
73	0xbe610b12	-0.21976879
74	0x3e460fb6	0.19341931
75	0x3dc062f8	0.09393877
76	0xbe01cc31	-0.12675549
77	0x3d00d9e0	0.03145778
78	0x3da942c5	0.082646884
79	0x3f16479b	0.5870301
80	0x3e678d34	0.22612458
81	0xbeff05e6	-0.49809188
82	0x3db07669	0.08616335
83	0x3d89f907	0.06736951
84	0x3e5ddb61	0.21665718
85	0xbe161308	-0.14655697
86	0x3ec2fa41	0.38081554
87	0xbed61546	-0.41813105
88	0xbe8889ba	-0.26667577
89	0x3eab4088	0.3344767
90	0x3e34464f	0.17604946
91	0x3cb8b127	0.02254541
92	0x3e9bf48a	0.30460006
93	0x3ed21d2e	0.41037887
94	0x3e730edb	0.23736136
95	0xbf03c38d	-0.5147026
96	0xbceeb927	-0.029141022
97	0x3e4dcdb9	0.20098008
98	0x3eb99798	0.3624847
99	0x3d5b8ec7	0.05360296
100	0x3c6c3c28	0.014418639
101	0x3d4b59a9	0.049646053
102	0xbd325aa2	-0.043543465
103	0x3cfaf3a8	0.030633762
104	0x3e3a50e1	0.18194915
105	0x3ccbd2d0	0.024880797
106	0x3dc72edd	0.09725735
107	0xbdf3d260	-0.1190536
108	0xbef352c0	-0.4752407
109	0x3ea7f950	0.32807398
110	0xbf38d9d6	-0.7220739
111	0xbf274e01	-0.653534
112	0xbdbf4d0a	-0.09340866
113	0xbe1de6ed	-0.15420122
114	0x3d266912	0.040627547
115	0xbdf1461e	-0.11780952
116	0x3ef7be5c	0.4838742
117	0xbbea5830	-0.007151626
118	0x3e8b44f9	0.2720106
119	0xbec6c232	-0.38820034
120	0x3e9fab3e	0.31185335
121	0x3e36741d	0.17817731
122	0x3dbd2bb9	0.09236855
123	0xbe6e910b	-0.23297517
124	0x3e709734	0.2349518
125	0x3ea8e254	0.32985175
126	0x3cc3f105	0.023918638
127	0xbea7bb0c	-0.32759893

dnn.4.running_var f4 [128]
0	0x3e094396	0.13404688
1	0x3e38cc98	0.18046796
2	0x3e63f54f	0.22261547
3	0x3e2f132f	0.17097162
4	0x3e0d187e	0.13778874
5	0x3e7b9a7c	0.2457065
6	0x3e653d1a	0.2238659
7	0x3e10042c	0.14064091
8	0x3e67824e	0.22608301
9	0x3e19a9c0	0.1500616
10	0x3ea4293a	0.32062703
11	0x3e973662	0.29533678
12	0x3e157916	0.14596972
13	0x3e08e97a	0.13370314
14	0x3e9c11d5	0.30482355
15	0x3d8f2663	0.069897436
16	0x3e385fa1	0.1800523
17	0x3e6b8fc2	0.23004058
18	0x3e6d8783	0.23196225
19	0x3e23f315	0.16010697
20	0x3e81dd8a	0.25364333
21	0x3e43ed8c	0.19133586
22	0x3dc0b51f	0.09409546
23	0x3e0fd0fc	0.14044565
24	0x3e42cd7a	0.19023696
25	0x3e0d9d98	0.13829648
26	0x3e3609cc	0.17777175
27	0x3e7de582	0.24794582
28	0x3e172fdc	0.1476435
29	0x3e5d8cd5	0.21635754
30	0x3e5e8818	0.21731603
31	0x3e1bd5d6	0.1521829
32	0x3e4acbbd	0.19804282
33	0x3e2b7ee2	0.1674762
34	0x3dee55ab	0.116374336
35	0x3e1a4841	0.15066625
36	0x3dbaffaf	0.09130799
37	0x3dc41c57	0.09575718
38	0x3ded4c96	0.11586873
39	0x3e1eae10	0.15496087
40	0x3e568ae0	0.20951414
41	0x3e85bb8a	0.26119643
42	0x3e267c40	0.16258335
43	0x3e865d56	0.26243085
44	0x3e40b0a4	0.18817383
45	0x3deafb95	0.11473767
46	0x3e7b3b68	0.2453438
47	0x3e5847bc	0.21121114
48	0x3e0e8ad6	0.13920149
49	0x3e1a73ce	0.15083238
50	0x3e4776ec	0.19478959
51	0x3e9dd40e	0.30825847
52	0x3e8a55ac	0.27018487
53	0x3dd6cb54	0.104880005
54	0x3e5fe22c	0.21863621
55	0x3e6aee50	0.22942472
56	0x3e85f605	0.2616426
57	0x3e543944	0.2072497
58	0x3e0bf8e6	0.13669166
59	0x3e34d444	0.17659098
60	0x3e015d16	0.12633166
61	0x3e8a6a2b	0.27034125
62	0x3e939867	0.2882721
63	0x3e70926d	0.23493357
64	0x3e2b8fba	0.16754046
65	0x3e902ab1	0.2815757
66	0x3e9b2826	0.30304068
67	0x3ddde1b6	0.108340666
68	0x3e5a4259	0.21314372
69	0x3dc33c29	0.09532959
70	0x3e1c54ff	0.15266798
71	0x3e30724d	0.17231102
72	0x3e33c255	0.175546
73	0x3e9a3e8c	0.30125844
74	0x3e5cd74c	0.21566504
75	0x3dd56f85	0.10421661
76	0x3e4ae369	0.19813313
77	0x3e33cad3	0.1755784
78	0x3e2ecf49	0.1707126
79	0x3e00183e	0.12509248
80	0x3e423925	0.18967111
81	0x3e6954a5	0.22786196
82	0x3e5a5b2d	0.21323843
83	0x3e33c13c	0.17554182
84	0x3e182b40	0.14860249
85	0x3e5a8edf	0.21343563
86	0x3e70f0f3	0.23529415
87	0x3df656c0	0.12028265
88	0x3e28d7f9	0.16488637
89	0x3e1bad31	0.15202786
90	0x3ea12bb4	0.31478655
91	0x3e297198	0.16547239
92	0x3e3d3302	0.18476489
93	0x3e0a2ed1	0.13494422
94	0x3e425530	0.18977809
95	0x3eb07904	0.34467328
96	0x3e13cb14	0.14432937
97	0x3e2d02c4	0.16895586
98	0x3e849b30	0.2589965
99	0x3e469f3b	0.19396679
100	0x3e070151	0.13184096
101	0x3e93afb2	0.28844982
102	0x3e543f35	0.20727237
103	0x3e151630	0.14559245
104	0x3e09ec9f	0.1346917
105	0x3de44c1c	0.11147329
106	0x3e12c75b	0.1433386
107	0x3e6e9fc3	0.23303132
108	0x3e0e8640	0.139184
109	0x3e75e1a2	0.24011853
110	0x3e3e6f9f	0.18597268
111	0x3dce3fe3	0.10070779
112	0x3e3e93e2	0.186111
113	0x3e24c882	0.16092113
114	0x3e0cac7e	0.13737676
115	0x3e6ef0ef	0.23334096
116	0x3e0abb25	0.13547952
117	0x3dc8a35b	0.097967826
118	0x3e2c97d6	0.16854796
119	0x3e32e8c4	0.17471606
120	0x3e829ed8	0.25511813
121	0x3e448207	0.19190226
122	0x3e3f3da6	0.18675861
123	0x3e3c53aa	0.1839129
124	0x3de35f90	0.111022115
125	0x3e5c57f3	0.21517925
126	0x3e63ee30	0.2225883
127	0x3e506e12	0.20354488

dnn.6.weight f4 [64, 128]
0	0x3be99312	0.007128128
1	0x3b726b35	0.003699017
2	0xbd8c3383	-0.068457626
3	0xbbe83d25	-0.007087367
4	0x3ca39670	0.019969195
5	0xbd6c28f4	-0.057656243
6	0xbd02d54e	-0.031941704
7	0xbd9b694c	-0.07588443
8	0xbd9fc148	-0.07800537
9	0x3da68b5e	0.08132051
10	0xbcee78a0	-0.029110253
11	0xbd275f9e	-0.040862672
12	0x3ddd340e	0.10800944
13	0xbd04a01c	-0.032379255
14	0x3d4ffbb0	0.050777137
15	0x3ddaa744	0.10676435
16	0x3d9b4451	0.0758139
17	0xbd451508	-0.04811576
18	0xbd1f42ec	-0.03888218
19	0x3e0dbf28	0.13842452
20	0x3c1ec439	0.009690338
21	0xbc1ae642	-0.009454312
22	0x3b1b0b3e	0.0023657824
23	0x3d908c71	0.07058037
24	0xbd7d4168	-0.061829954
25	0x3d915fb8	0.07098335
26	0x3d8ed5bc	0.0697436
27	0x3c317fff	0.010833739
28	0xbda138bc	-0.07872149
29	0xbcad569e	-0.021159466
30	0x3dc2ac40	0.0950551
31	0x3d3d0943	0.04615141
32	0xbd7cabe7	-0.061687376
33	0xbdbb7534	-0.09153214
34	0x3bb129db	0.005406601
35	0xbdaa29b4	-0.083087355
36	0xbd9da1f5	-0.076969065
37	0x3d2c2acd	0.042033006
38	0x3d550003	0.052001964
39	0x3d866a8c	0.06563291
40	0x3d149138	0.036271304
41	0x3d33ddab	0.04391257
42	0xbd3aa719	-0.045569513
43	0xbd84dc8b	-0.06487378
44	0xbd8dadc3	-0.06917908
45	0x3dfa27e7	0.12214642
46	0x3c2b052d	0.010438246
47	0x3da80e1f	0.082058184
48	0x3dbdb320	0.09262681
49	0x3d54ede6	0.05198469
50	0xbc86b112	-0.016441856
51	0x3d9dd536	0.077066824
52	0xbd33521c	-0.043779477
53	0xbd11c794	-0.035590723
54	0x3ddc812b	0.10766824
55	0xbd570b55	-0.05250104
56	0x3de78da5	0.113063134
57	0x3c29a9a0	0.010355383
58	0xbd48a214	-0.048982695
59	0xbd23887b	-0.03992508
60	0x3cdddae0	0.027081907
61	0xbd4932b2	-0.049120612
62	0x3dab32dc	0.0835931
63	0x3d6eacc7	0.058270242
64	0x3da3ef16	0.080045864
65	0x3dec3f43	0.11535504
66	0x3d045c5f	0.032314654
67	0x3dde629e	0.108586535
68	0xbb861686	-0.0040920405
69	0xbe1c821d	-0.1528401
70	0x3d3a7436	0.045520984
71	0x3db00905	0.0859547
72	0x3d55ee6a	0.052229322
73	0x3da7527b	0.08170029
74	0x3d30238b	0.043002646
75	0xbcc06deb	-0.023489913
76	0x3d28a822	0.04117597
77	0xbd45351a	-0.048146345
78	0x3d17326e	0.036913328
79	0x3d7d3660	0.061819434
80	0xbdbf0cf2	-0.09328641
81	0xbd90c731	-0.07069243
82	0xbd75858b	-0.05994181
83	0xbd3a4391	-0.045474593
84	0xbda526a3	-0.0806401
85	0x3d8397de	0.06425451
86	0xbd6a66bb	-0.057226878
87	0xbd746d7c	-0.059674725
88	0x3d65b7c7	0.056083467
89	0x3c274512	0.010209339
90	0xbd2c0509	-0.04199699
91	0xbca88392	-0.02057055
92	0x3d213d83	0.039365303
93	0x3c7331da	0.0148434285
94	0xbc7c72d8	-0.01540824
95	0xbcea8e04	-0.028632171
96	0x3c563d21	0.013076098
97	0x3dc2722f	0.09494435
98	0xbd8e4968	-0.06947595
99	0xbdabcb54	-0.08388391
100	0x3d22a464	0.039707556
101	0xbcd8f692	-0.026484761
102	0x3dd4f472	0.10398187
103	0x3cc6e286	0.024277937
104	0xbb5f9b26	-0.0034119575
105	0xbceb3022	-0.028709475
106	0x3d36e9a4	0.04465641
107	0xbb4cd04d	-0.0031252087
108	0xbd42cf4e	-0.047560982
109	0x3c1266b9	0.008935624
110	0x3c9d0212	0.019166026
111	0xbcc9f8f8	-0.02465485
112	0xbdb75996	-0.08952634
113	0x3d47b8ed	0.048760343
114	0x3e07d951	0.13266493
115	0xbd33a784	-0.043860927
116	0xbd2574e9	-0.040394697
117	0x3d9dba4f	0.07701551
118	0xbdba18a9	-0.09086735
119	0xbda7e01c	-0.08197042
120	0xbd454d70	-0.048169553
121	0xbd7d8885	-0.061897773
122	0x3d13259e	0.035924546
123	0x3ce16548	0.027514115
124	0x3d735d81	0.059415344
125	0xbcc2727c	-0.023736231
126	0x3dc56229	0.09637863
127	0x3dea6ba5	0.11446313
128	0x3b8f9d82	0.00438279
129	0x3d6bdb97	0.057582464
130	0xbc344600	-0.011003017
131	0x3d1f8777	0.03894755
132	0x3d89142c	0.066933006
133	0x3c3110af	0.0108072
134	0xbd363236	-0.04448148
135	0x3dd8e650	0.105908036
136	0xbda69a0e	-0.08134852
137	0xbdd8b29e	-0.105809435
138	0xbd342d9f	-0.04398882
139	0x3c2245b1	0.009904311
140	0xbde13f89	-0.109984465
141	0xbd60370d	-0.05474
142	0xbd8351ee	-0.06412111
143	0xbda18e7b	-0.07888504
144	0xbbcb36ee	-0.0062016165
145	0xbd349c42	-0.04409433
146	0xbcf6a27e	-0.03010678
147	0x3cb35557	0.02189128
148	0x39008902	0.0001225807
149	0xbd6c05d8	-0.05762276
150	0x3d24d3d6	0.040241085
151	0xbd3957bd	-0.04524969
152	0xbc3dfb91	-0.011595623
153	0x3db32ab8	0.08748382
154	0x3d6b511a	0.05745039
155	0xbcc41534	-0.023935892
156	0xbc97cbaa	-0.018529732
157	0xbd3e5e3c	-0.046476588
158	0xbd8c9d06	-0.06865887
159	0xbdc6c75b	-0.09705993
160	0x3ce47119	0.02788596
161	0x3d3700e7	0.044678595
162	0x3c000c10	0.007815376
163	0x3d3b8fd6	0.04579147
164	0x3d909b5c	0.070608824
165	0x3dcf6115	0.10125939
166	0x3c3ae71a	0.011407638
167	0xbdceb1ff	-0.10092544
168	0xbb29d147	-0.0025912093
169	0x3d72e571	0.059300844
170	0x3da03bf7	0.078239374
171	0x3dc5c164	0.09656027
172	0x3d57ab5f	0.052653667
173	0x3d75c625	0.06000342
174	0x3ca75ebe	0.020430919
175	0xbd480a21	-0.048837785
176	0xbd120e8c	-0.035658404
177	0xbd186da9	-0.037213955
178	0xbdec81e0	-0.11548209
179	0xbb899df3	-0.004199737
180	0x3d436379	0.047702286
181	0x3c364ca9	0.011126676
182	0xbd31f3f1	-0.04344553
183	0xbdcc88c8	-0.099870265
184	0x3d6bd2cc	0.05757408
185	0xbdadc8a9	-0.084855385
186	0xbdd34af5	-0.10317031
187	0x3d29bd18	0.0414401
188	0x3d998e80	0.07497883
189	0xbd6d584d	-0.05794554
190	0xbd8e0d23	-0.069360994
191	0xbdc473d0	-0.09592402
192	0xbda29637	-0.079388075
193	0xbcd71948	-0.026257172
194	0x3a1b3a92	0.00059215084
195	0x3cf52db2	0.029929016
196	0xbb86e4ae	-0.004116616
197	0x3cd36ad5	0.025807777
198	0xbdb42f14	-0.08798042
199	0x3dc4caaa	0.096089676
200	0x3c51a243	0.012795034
201	0x3c28ef7c	0.010311004
202	0x3d8af422	0.06784846
203	0x3d82db24	0.06389454
204	0xbd04e463	-0.03244437
205	0x3ba841ed	0.005134812
206	0x3dbaffed	0.09130845
207	0xbbe60ff2	-0.007020944
208	0xbda6ce94	-0.081448704
209	0x3d011b75	0.031520326
210	0xbd309174	-0.043107465
211	0xbe00d4f8	-0.12581241
212	0x3d9ca326	0.076483056
213	0x3cae186c	0.02125188
214	0x3dc5d742	0.09660198
215	0xbd8e3754	-0.06944147
216	0x3d6966da	0.056982853
217	0x3dc9df01	0.09856988
218	0xbcd44ce3	-0.025915569
219	0x3d70a7e2	0.058753856
220	0xbd601aa0	-0.05471289
221	0x3d23fb07	0.04003432
222	0xbc40b912	-0.011762874
223	0xb9e58cd2	-0.00043783203
224	0xbd39c258	-0.045351356
225	0xbca348c3	-0.019932156
226	0xbc9ef2d6	-0.019402903
227	0xbe0763dc	-0.13221687
228	0x3d03a2c8	0.032137662
229	0x3de58312	0.1120664
230	0xbc92e454	-0.017931141
231	0x3c81f8d9	0.01586573
232	0x3d0a408c	0.033752963
233	0x3d3acdfc	0.0456066
234	0xbcf0336a	-0.029321391
235	0x3d2bc3d7	0.041934814
236	0xbd6695b5	-0.056295116
237	0xbd8bd721	-0.06828142
238	0xbd363dd3	-0.044492554
239	0xbc549bc9	-0.012976595
240	0xbd45e60e	-0.0483151
241	0xbcb4a06a	-0.022049148
242	0x3cf8f781	0.030391457
243	0xbc8a16d4	-0.016856588
244	0xbd972924	-0.07380894
245	0x3d898373	0.06714525
246	0x3ac8bb0a	0.0015314531
247	0xbdbed81f	-0.093185656
248	0xbca5feef	-0.020263163
249	0xbc9fa6f8	-0.019488797
250	0x3d1a988b	0.037743133
251	0xbe0aa151	-0.135381
252	0xbdca7226	-0.09885053
253	0x3d2d1e6d	0.042265344
254	0xbdc3d0fd	-0.09561346
255	0x3cc0e21e	0.023545321

dnn.6.bias f4 [64]
0	0x3d935b8c	0.071951956
1	0xbdaf9c72	-0.085747615
2	0xbc43e553	-0.011956531
3	0x3b790594	0.003799771
4	0x3d175534	0.03694649
5	0xbda23610	-0.07920468
6	0x3d8a6d12	0.06759085
7	0xbd7d8ee0	-0.061903834
8	0x3d5a502c	0.053299114
9	0x3d1cc625	0.038274903
10	0xbd9e5244	-0.07730535
11	0x3c42bb9c	0.01188555
12	0x3d2fd716	0.04292973
13	0xbda2bf07	-0.07946592
14	0x3d782610	0.060583174
15	0xbd599523	-0.053120743
16	0xbd127aba	-0.035761572
17	0xbd9fb6e2	-0.07798554
18	0x3c69532c	0.014241021
19	0x3db51e85	0.08843712
20	0x3d352fd4	0.044235066
21	0xbc6696e4	-0.014074061
22	0xbd4faead	-0.050703693
23	0x3d0c7434	0.034290507
24	0x3d9efeae	0.0776342
25	0x3d814cbe	0.063134655
26	0x3af2c968	0.0018523159
27	0xbd4899ab	-0.048974674
28	0x3db66273	0.089054964
29	0x3c8ddba8	0.017316654
30	0x3d96be14	0.07360473
31	0xbdb85ec2	-0.090024486
32	0x3c8a9f1d	0.016921574
33	0x3d0956c4	0.03353001
34	0x3d226416	0.03964623
35	0x3cd41e93	0.025893485
36	0xbd477699	-0.048697088
37	0xbd78ced1	-0.06074411
38	0xbd16d8d9	-0.036827896
39	0x3d6c6721	0.05771554
40	0x3d804aa2	0.06264235
41	0x3db6bf1b	0.08923169
42	0xbda043d9	-0.07825441
43	0xbbcc0028	-0.0062256046
44	0xbd24b783	-0.040214073
45	0x3da5594f	0.08073675
46	0xbca5c58c	-0.0202358
47	0x3c5a41ed	0.013321382
48	0xbcdffff0	-0.02734372
49	0xbdab9ec2	-0.0837989
50	0xbd92e733	-0.07173004
51	0xbd461430	-0.048359096
52	0x3d2c266e	0.042028837
53	0xbd8af850	-0.06785643
54	0x3d6740de	0.056458347
55	0x3d909010	0.07058728
56	0x3d921ef3	0.07134809
57	0xbc38c783	-0.011278036
58	0xbba657e6	-0.0050763963
59	0x3d8524c7	0.06501155
60	0xbd86f5f3	-0.0658988
61	0xbc7eabab	-0.0155438585
62	0xbdb17ce0	-0.08666396
63	0x3d6a323c	0.057176813

dnn.7.weight f4 [64]
0	0x3f74f67e	0.9568862
1	0x3f7c39bb	0.9852559
2	0x3f7bf6ec	0.9842365
3	0x3f70e730	0.94102764
4	0x3f807ca0	1.0038033
5	0x3f869009	1.0512706
6	0x3f834163	1.025433
7	0x3f84a33a	1.0362313
8	0x3f81a2da	1.0127823
9	0x3f809dfd	1.0048214
10	0x3f81127f	1.008377
11	0x3f740db6	0.9533342
12	0x3f76cc3d	0.9640539
13	0x3f6e953c	0.93196464
14	0x3f807e32	1.0038512
15	0x3f887a0e	1.0662248
16	0x3f73690c	0.95082164
17	0x3f7ef01f	0.99585146
18	0x3f7d37c0	0.9891319
19	0x3f76c6ca	0.9639708
20	0x3f820249	1.0156947
21	0x3f71244b	0.94196004
22	0x3f7b6f7e	0.98217
23	0x3f7d751e	0.9900683
24	0x3f7f9e03	0.9985048
25	0x3f86626e	1.0498788
26	0x3f7bf43a	0.98419535
27	0x3f84db54	1.0379434
28	0x3f8259be	1.0183637
29	0x3f85f818	1.0466337
30	0x3f7e12f1	0.9924765
31	0x3f7f5282	0.9973527
32	0x3f7edf3e	0.9955939
33	0x3f837696	1.0270565
34	0x3f78c8a7	0.9718117
35	0x3f7c3c92	0.9852992
36	0x3f839167	1.0278748
37	0x3f80d2a1	1.0064279
38	0x3f821ee1	1.0165673
39	0x3f800482	1.0001376
40	0x3f7e4137	0.9931826
41	0x3f83287a	1.0246727
42	0x3f809dba	1.0048134
43	0x3f7f5d2f	0.9975156
44	0x3f79bff7	0.9755854
45	0x3f82d734	1.0221925
46	0x3f77007a	0.964851
47	0x3f7c8ae6	0.9864944
48	0x3f8100ce	1.007837
49	0x3f807405	1.0035406
50	0x3f7c5221	0.9856282
51	0x3f877002	1.0581057
52	0x3f7ec835	0.9952424
53	0x3f7c0c27	0.98456043
54	0x3f7ee0fa	0.99562037
55	0x3f7d142a	0.9885889
56	0x3f826234	1.0186219
57	0x3f7ffc76	0.999946
58	0x3f76eec6	0.9645809
59	0x3f7f840c	0.9981086
60	0x3f7e3a8b	0.9930808
61	0x3f7fd708	0.99937487
62	0x3f772149	0.96535164
63	0x3f80b745	1.005593

dnn.7.bias f4 [64]
0	0xbda1b8d1	-0.07896579
1	0x3c829498	0.015939996
2	0xbc9fcedf	-0.019507824
3	0xbd986f1a	-0.07443066
4	0xbd0e0ca0	-0.03468001
5	0x3c8ffdf1	0.017577143
6	0x3c7e95e6	0.015538668
7	0xbd60837f	-0.054812904
8	0xbd6cdd69	-0.05782834
9	0xbd21418d	-0.039369155
10	0x3bb9b9fe	0.005667924
11	0xbda3db5c	-0.08000824
12	0x3c0be8e4	0.008539412
13	0xbd85bc48	-0.065300524
14	0xbdc84e46	-0.097805545
15	0x3d1d9f0c	0.038481757
16	0xbd2f0c76	-0.042736493
17	0x3c1fd89e	0.009756235
18	0xbc9af160	-0.018913925
19	0xbcb7abc4	-0.022420771
20	0xbd08fc1c	-0.033443555
21	0xbcdbac45	-0.026815543
22	0xbd4066ed	-0.046973158
23	0xbd5639df	-0.052301284
24	0xbd62a3a0	-0.055331826
25	0xbc605c65	-0.013693904
26	0xbc9e03d3	-0.019288933
27	0xbd35f2a3	-0.04442085
28	0xbd350370	-0.04419273
29	0x3d9d8cbb	0.07692858
30	0xbd8a91cf	-0.06766092
31	0xbc0d61bc	-0.008629259
32	0xbd383d4c	-0.044980332
33	0x3b215f82	0.0024623577
34	0x3cf5d052	0.030006561
35	0xbd926cbd	-0.071496464
36	0xbd21e585	-0.039525528
37	0xbc853e0b	-0.016264936
38	0xbd19c748	-0.037543565
39	0x3c3591aa	0.011082092
40	0xbd1584ea	-0.03650371
41	0x3c794e3f	0.015216409
42	0x3c040aaa	0.008059183
43	0x3b8e8b7d	0.0043501244
44	0xbc8ef067	-0.017448617
45	0xbca5cac3	-0.020238286
46	0xbce113cb	-0.027475258
47	0x3d47906d	0.04872172
48	0x3d0e7f94	0.034789637
49	0xbd71b95e	-0.05901467
50	0xbce74fee	-0.028236356
51	0xbcc2d386	-0.023782503
52	0x3c464057	0.012100301
53	0x3c8504be	0.016237613
54	0x3b9544d2	0.004555323
55	0xbc6dfe4f	-0.014525964
56	0x3cdc3c5f	0.026884256
57	0x3cd7fa19	0.026364373
58	0xbb214498	-0.0024607535
59	0xbccbfb57	-0.024900122
60	0x3a982b65	0.0011609612
61	0xbc9c8988	-0.019108549
62	0xbd4156f0	-0.04720205
63	0xbceb7ad7	-0.028745098
