checkpoints_OneHot/best.pth (torch, 128235 bytes, 25 tensors)

dnn.0.weight f4 [64, 180]
0.038434077 -0.059629213 0.027367402 -0.03687316 -0.027854353 0.017029937 -0.060331017 -0.04052358
-0.080048285 -0.043464143 0.06519564 -0.055142343 0.04820887 0.002330058 -0.011289903 0.07244115
0.010439041 -0.013389339 -0.012375618 0.009095096 0.086955726 -0.07711538 0.03837678 0.059127428
0.05264271 0.029376933 -0.076223895 0.05360834 -0.068587184 -0.0061741844 0.010375322 0.050730772
0.051626023 -0.06087368 -0.02306514 -0.070558675 -0.07322464 -0.050706837 -0.028049365 -0.067479394
0.04510924 0.0330454 0.009516601 0.031138284 -0.01765823 0.00082069676 -0.06279502 -0.031971164
0.010305095 -0.011696587 0.018656155 -0.023146827 0.024188858 0.038299244 -0.008101679 -0.0098207295
-0.045029543 -0.088672504 -0.045640457 -0.027993934 -0.040038288 -0.0032397588 -0.013861066 0.044571478
0.031794798 0.0096734455 -0.018248659 -0.04495862 0.04825993 0.022486674 0.0021409232 -0.05793551
0.023430595 0.069850735 0.01822426 0.05623136 -0.048958257 0.025750056 -0.0039075534 -0.021411382
0.048392866 -0.041306835 -0.0031310658 0.020815052 0.046456497 -0.026792107 -0.022348559 0.03585532
-0.01660448 0.02711223 0.011090596 -0.04193852 0.009546209 -0.008253036 0.0027467723 -0.03991377
0.007886625 0.009459417 0.013315014 -0.055082913 -0.048705943 -0.033227883 0.019202452 0.04042937
-0.038071595 0.06577415 0.02981739 0.023791732 -0.034214135 0.037372295 -0.07521067 0.054014035
0.04974584 0.08419981 -0.011540528 0.008752753 0.008075028 0.05528054 -0.07230146 0.0283229
0.07126537 0.05247848 -0.09853618 -0.029504066 -0.0006479972 0.010839192 0.059959397 -0.05234099
-0.029359989 -0.044258825 -0.037588507 0.027771486 0.01622953 0.035194788 -0.02123356 0.006431387
0.016660193 0.010988033 -0.050107103 0.034995627 0.009184387 -0.038632303 0.03466404 0.056051992
0.10592457 -0.0030107873 0.019933343 0.058875553 -0.018304938 0.08579232 0.06692833 -0.08585479
0.04275116 -0.01788638 0.02232849 0.025730273 -0.016529351 0.10860543 -0.001196794 -0.037298318
0.024085287 0.049245354 0.056037847 0.041784775 0.06391852 -0.015479848 -0.02675908 0.028263638
0.034708202 0.075436525 0.0240896 0.013436371 0.055731546 0.051582497 -0.065427266 -0.063678466
0.0137408115 0.030595168 -0.021210287 0.10132007 0.044875022 0.01194064 0.023327703 0.041353803
-0.003361958 0.053496227 -0.07318282 0.054462746 0.033083383 -0.057333533 -0.024378143 -0.06703598
-0.0003810512 0.085064925 -0.0011249973 -0.04433489 0.016930051 0.05321558 -0.036070574 -0.0037419952
-0.042036984 0.04922321 -0.054522954 0.022675779 0.082857706 0.020954281 -0.08943712 -0.051318243
0.073797815 0.028120598 0.013250393 -0.06946705 -0.026502864 0.030870061 0.017353494 0.0131199155
-0.027618416 -0.034001045 -0.028785957 -0.023824913 -0.041215114 -0.018339766 -0.01602644 -0.039117783
0.016775265 0.0028810354 0.021637963 -0.03953918 -0.05268701 -0.014274845 0.03404247 0.013062178
-0.009911933 0.034398425 0.025309887 -0.022953378 0.06384964 -0.042244818 -0.013466114 0.04508687
-0.011120018 -0.06255384 -0.0706991 0.04094433 -0.0139357215 -0.0399064 0.06567409 0.03372076
-0.04967673 0.07852607 -0.052213553 -0.06938675 -0.04057484 -0.018984906 -0.07614029 -0.06418515
00000000: 0d6d 1d3d c33d 74bd 9a31 e03c 5008 17bd
00000010: d02e e4bc 5e82 8b3c a81d 77bd 0efc 25bd
00000020: 5bf0 a3bd 7507 32bd 4b85 853d f0dc 61bd
00000030: aa76 453d e3b3 183b 49f9 38bc 075c 943d
00000040: 8308 2b3c f55e 5bbc 1bc3 4abc 9903 153c
00000050: d815 b23d abee 9dbd f830 1d3d 9a2f 723d
00000060: e29f 573d e5a7 f03c 461b 9cbd 6b94 5b3d
00000070: 7077 8cbd d050 cabb 41fd 293c 12cb 4f3d
00000080: cf75 533d ae56 79bd 1bf3 bcbc 1181 90bd
00000090: cdf6 95bd f9b1 4fbd c8c7 e5bc a332 8abd
000000a0: 77c4 383d 9d5a 073d 85eb 1b3c b715 ff3c
000000b0: fea7 90bc 0724 573a ad9a 80bd 32f4 02bd
000000c0: b4d6 283c 0ba3 3fbc cbd4 983c 6a9e bdbc
000000d0: b627 c63c abdf 1c3d e8bc 04bc 20e7 20bc
000000e0: e670 38bd ee99 b5bd 7df1 3abd 8953 e5bc
000000f0: 30ff 23bd 2252 54bb 8619 63bc 9590 363d
00000100: 433b 023d 5f7d 1e3c 367e 95bc 8826 38bd
00000110: 34ac 453d f935 b83c bb4e 0c3b c94d 6dbd
00000120: 85f1 bf3c e70d 8f3d 0b4b 953c db52 663d
00000130: 7488 48bd c8f1 d23c ef0a 80bb ec66 afbc
00000140: 9937 463d 5b31 29bd 9132 4dbb 5484 aa3c
00000150: 2b49 3e3d 1f7b dbbc 5314 b7bc 07dd 123d
00000160: 1e06 88bc 781a de3c 55b5 353c bac7 2bbd
00000170: b467 1c3c be37 07bc 3103 343b 9f7c 23bd
00000180: e736 013c acfb 1a3c 3727 5a3c 9f9e 61bd
00000190: e27f 47bd f619 08bd 764e 9d3c 4499 253d
000001a0: f6f0 1bbd 99b4 863d 9943 f43c e1e6 c23c
000001b0: 1f24 0cbd b113 193d 0d08 9abd d23d 5d3d
000001c0: 4bc2 4b3d f370 ac3d 7c14 3dbc b567 0f3c
000001d0: 1f4d 043c d96d 623d ca12 94bd 6d05 e83c
000001e0: 94f3 913d adf3 563d 56cd c9bd 83b2 f1bc
000001f0: 5bde 29ba de96 313c fc97 753d 8263 56bd
00000200: 5c84 f0bc be48 35bd 68f6 19bd 0781 e33c
00000210: cbf3 843c 6928 103d 01f2 adbc 62be d23b
00000220: f57a 883c 2707 343c 1b3d 4dbd 9357 0f3d
00000230: 1c7a 163c e83c 1ebd e1fb 0d3d c696 653d
00000240: fbee d83d a150 45bb 404b a33c 7e27 713d
00000250: 3df4 95bc e2b3 af3d b811 893d a3d4 afbd
00000260: d71b 2f3d 7586 92bc 3dea b63c 4bc8 d23c
00000270: 9068 87bc 866c de3d bedd 9cba 1fc6 18bd
00000280: 824e c53c 7fb5 493d f187 653d 8326 2b3d
00000290: b7e7 823d 309f 7dbc dc35 dbbc 2589 e73c
000002a0: 302a 0e3d 777e 9a3d 8e57 c53c 3a24 5c3c
000002b0: c346 643d 2b48 533d bbfe 85bd db69 82bd
000002c0: 2421 613c b8a2 fa3c 32c1 adbc e680 cf3d
000002d0: dfce 373d ada2 433c bd19 bf3c 9b62 293d
000002e0: 4c54 5cbb dc1e 5b3d e0e0 95bd 5414 5f3d
000002f0: 7182 073d 91d6 6abd acb4 c7bc 294a 89bd
00000300: d4c7 c7b9 8536 ae3d a574 93ba 8098 35bd
00000310: e4b0 8a3c 94f8 593d bdbe 13bd 433c 75bb
00000320: f92e 2cbd 479e 493d 7653 5fbd 8ec2 b93c
00000330: 4db1 a93d 50a8 ab3c cf2a b7bd 1433 52bd
00000340: 4f23 973d 2b5d e63c 2d18 593c be44 8ebd
00000350: 891c d9bc 36e3 fc3c ea28 8e3c eaf4 563c
00000360: 0440 e2bc ae44 0bbd 87d0 ebbc 772c c3bc
00000370: 2ed1 28bd 473d 96bc e149 83bc f839 20bd
00000380: 486c 893c c1cf 3c3b 1942 b13c d6f3 21bd
00000390: 56ce 57bd 0ae1 69bc 1e70 0b3d bf02 563c
000003a0: a965 22bc 5de5 0c3d ae56 cf3c b908 bcbc
000003b0: 9ac3 823d e708 2dbd faa0 5cbc 03ad 383d
000003c0: bc30 36bc 3a1c 80bd b1ca 90bd 3eb5 273d
000003d0: a752 64bc e574 23bd 2380 863d c81e 0a3d
000003e0: d479 4bbd 47d2 a03d e1dd 55bd a41a 8ebd
000003f0: ce31 26bd 3c86 9bbc 71ef 9bbd 8173 83bd

dnn.0.bias f4 [64]
0.05962132 -0.0003409982 -0.040687382 0.058883976 0.048684843 -0.0059705246 -0.051177762 -0.05562835
-0.007514691 0.0031079515 -0.044799175 -0.040216304 0.020450255 -0.06786381 0.046501964 0.024827497
-0.06561926 -0.019156672 -0.03339772 0.02136615 0.05598849 0.05346589 0.038036056 -0.053560518
-0.049024507 -0.0005633691 0.047850102 0.02487601 -0.053129055 -0.03196533 -0.069023274 -0.009372308
0.0060062376 -0.00970063 0.023427421 -0.051939156 -0.06101629 0.016626492 0.018171107 -0.029345812
0.062985614 0.041931342 0.037698884 -0.04808241 -0.03744749 -0.041752547 -0.048306875 -0.0046591046
-0.07009225 -0.06789168 -0.071512386 -0.06727787 -0.043716967 0.05257879 -0.047838844 0.02740776
-0.011143528 0.0024250099 0.04965244 -0.02879003 -0.07083364 0.050017938 0.012512 -0.064383544
00000000: 7c35 743d 01c8 b2b9 d0a7 26bd 5330 713d
00000010: c269 473d 64a4 c3bb c69f 51bd 8dda 63bd
00000020: cc3d f6bb c6ae 4b3b 577f 37bd dab9 24bd
00000030: 4b87 a73c 2efc 8abd d878 3e3d 0963 cb3c
00000040: 6463 86bd 74ee 9cbc 0ccc 08bd 1008 af3c
00000050: 3054 653d 0dff 5a3d b2cb 1b3d 4662 5bbd
00000060: eccd 48bd 0faf 13ba 78fe 433d c6c8 cb3c
00000070: da9d 59bd 14ee 02bd 135c 8dbd 4f8e 19bc
00000080: f9cf c43b 64ef 1ebc ddea bf3c 27be 54bd
00000090: 38ec 79bd 4834 883c 93db 943c a166 f0bc
000000a0: 9afe 803d 33c0 2b3d 256a 1a3d 10f2 44bd
000000b0: 8a62 19bd b804 2bbd 6edd 45bd 67ab 98bb
000000c0: 878c 8fbd cb0a 8bbd 1675 92bd fbc8 89bd
000000d0: 9010 33bd db5c 573d aaf2 43bd 3d86 e03c
000000e0: 5893 36bc eaec 1e3b 5b60 4b3d 12d9 ebbc
000000f0: 3a11 91bd 9cdf 4c3d 22ff 4c3c 85db 83bd

dnn.1.weight f4 [64]
0.9901649 0.96680224 0.9800337 0.99289954 0.9841326 0.9854529 1.0028272 1.0193784
0.99389863 0.99194413 0.9832733 0.98004884 0.9899733 1.0229895 0.9862084 1.0033861
0.9977861 0.958845 0.9919807 0.96314883 1.0063922 1.0174278 1.0039855 0.99242115
1.0167626 0.9899939 1.0002204 0.9918603 1.0032698 0.9805537 0.9890219 1.0241345
0.99472725 0.9937333 0.9979291 0.98343235 1.0124589 0.98180896 0.9938737 1.0927283
0.9851013 1.0025927 1.0268027 0.9676975 1.0045044 0.9861773 0.97042274 0.95630944
1.0031227 0.98445296 0.9662066 0.9916976 0.96290845 1.0049481 0.993234 0.9771872
0.9944786 0.99369687 0.9983082 0.99514985 0.9729636 1.0116578 0.9815316 0.9999727
00000000: 727b 7d3f 5a80 773f 7de3 7a3f aa2e 7e3f
00000010: 1df0 7b3f a446 7c3f a45c 803f fe7a 823f
00000020: 2470 7e3f 0df0 7d3f cdb7 7b3f 7be4 7a3f
00000030: e46e 7d3f 52f1 823f 2778 7c3f f56e 803f
00000040: e96e 7f3f de76 753f 72f2 7d3f ec90 763f
00000050: 76d1 803f 133b 823f 9982 803f 500f 7e3f
00000060: 4725 823f 3d70 7d3f 3907 803f 8eea 7d3f
00000070: 256b 803f 9105 7b3f 8a30 7d3f d716 833f
00000080: 72a6 7e3f 4e65 7e3f 4878 7f3f 39c2 7b3f
00000090: 4198 813f d557 7b3f 826e 7e3f 85de 8b3f
000000a0: 992f 7c3f f554 803f 456e 833f 06bb 773f
000000b0: 9a93 803f 1e76 7c3f a06d 783f b2d0 743f
000000c0: 5366 803f 1c05 7c3f 5159 773f e5df 7d3f
000000d0: 2b81 763f 24a2 803f 9544 7e3f f128 7a3f
000000e0: 2696 7e3f eb62 7e3f 2091 7f3f 24c2 7e3f
000000f0: 2414 793f 017e 813f a845 7b3f 36fe 7f3f

dnn.1.bias f4 [64]
-0.0010698613 0.0086749215 -0.018799888 0.016692424 0.009038668 -0.020028671 0.031746462 -0.024184655
-0.02008446 0.01780123 0.008590629 0.00815978 0.0047515295 0.013009649 -0.013654812 0.010312606
0.02204513 -0.028044907 0.014324973 -0.027448466 0.0004583881 -0.0052160793 0.014917914 -0.004020959
0.014053036 -0.0019058844 0.006888626 -0.0002868568 0.0060520065 -0.016965099 -0.027709566 0.01653807
0.0050178342 0.0047978917 -0.010043257 -0.0029205233 -0.019676194 -0.008572887 0.0041633504 0.107081525
0.004146984 -0.0066337194 -0.0075981775 -0.031641692 0.033868838 0.0072490955 -0.030778715 -0.0032457344
0.019040976 0.033799563 -0.0240391 -0.00519099 -0.020665731 0.003481359 -0.025504246 0.0016891895
0.017305495 0.041606374 -0.026863478 -0.009220573 -0.0102922525 0.039987482 0.0054171165 -0.033227537
00000000: 973a 8cba 4221 0e3c 3902 9abc 8dbe 883c
00000010: ec16 143c 2b13 a4bc 9408 023d e61e c6bc
00000020: 2a88 a4bc e3d3 913c b6bf 0c3c 99b0 053c
00000030: b8b2 9b3b 6c26 553c 6fb8 5fbc 34f6 283c
00000040: fd97 b43c 6fbe e5bc 4bb3 6a3c 9bdb e0bc
00000050: cf53 f039 a5eb aabb 446a 743c 40c2 83bb
00000060: b53e 663c dece f9ba fcb9 e13b 4565 96b9
00000070: e94f c63b 64fa 8abc 2cff e2bc d97a 873c
00000080: a56c a43b a237 9d3b 798c 24bc 4066 3fbb
00000090: f82f a1bc 4b75 0cbc b76c 883b 8f4d db3d
000000a0: 6ce3 873b ac5f d9bb 22fa f8bb b89a 01bd
000000b0: 0dba 0a3d d289 ed3b a523 fcbc 63b6 54bb
000000c0: d2fb 9b3c 6971 0a3d a6ed c4bc 2e19 aabb
000000d0: 2e4b a9bc 8327 643b 48ee d0bc cb67 dd3a
000000e0: 41c4 8d3c 726b 2a3d cc10 dcbc e311 17bc
000000f0: d6a0 28bc eac9 233d 1182 b13b 9919 08bd

dnn.1.running_mean f4 [64]
-3.665395 0.7315846 1.145686 -2.488378 -2.0301855 -4.42313 3.5430377 0.88754636
-1.2141496 -1.0528958 -6.6720533 0.42901653 -0.95752627 0.5565933 -4.391131 -1.832196
1.2677425 2.091679 3.849889 -2.860314 0.46311337 -0.59427905 -1.3262738 -1.370123
-0.7617901 -1.1275059 5.24858 -1.2042372 -1.8886249 3.2866988 0.8869653 -0.8014787
-1.8252712 -1.9995837 -2.868242 -3.993484 2.5494723 -3.5759683 -3.470044 -0.085416704
2.8543737 -2.4508898 1.0761428 2.4159243 0.19998254 -1.7008827 3.1733928 0.883078
-1.640135 1.2907714 -3.1215146 -3.1506371 3.013834 -2.2091393 -1.7948412 -3.0715034
-2.4052835 1.061353 -0.8543826 2.7675648 -6.0306993 -0.62012064 -1.6697457 2.6416893
00000000: d595 6ac0 2149 3b3f d7a5 923f 9641 1fc0
00000010: 8fee 01c0 488a 8dc0 21c1 6240 3d36 633f
00000020: 4169 9bbf 4ac5 86bf 7681 d5c0 0ea8 db3e
00000030: 7120 75bf e67c 0e3f 2584 8cc0 6685 eabf
00000040: 6345 a23f 12de 0540 9564 7640 620f 37c0
00000050: 321d ed3e ac22 18bf 57c3 a9bf 3160 afbf
00000060: ad04 43bf 1d52 90bf 5ef4 a740 7224 9abf
00000070: 76be f1bf 4659 5240 2810 633f b52d 4dbf
00000080: 7da2 e9bf 5cf2 ffbf 4791 37c0 3e95 7fc0
00000090: 8e2a 2340 aadc 64c0 3315 5ec0 f4ee aebd
000000a0: 0fae 3640 61db 1cc0 0cbf 893f 819e 1a40
000000b0: 39c8 4c3e 86b6 d9bf de18 4b40 6611 623f
000000c0: f2ef d1bf ff37 a53f e5c6 47c0 0aa4 49c0
000000d0: a8e2 4040 8a62 0dc0 5bbd e5bf 8393 44c0
000000e0: 2af0 19c0 6ada 873f d1b8 5abf c81f 3140
000000f0: 7dfb c0c0 3ac0 1ebf 3aba d5bf 7011 2940

dnn.1.running_var f4 [64]
12.131693 0.48952982 1.1249716 5.1800265 3.4417222 15.196611 11.814355 1.1898036
1.003025 0.7397653 34.50608 0.32883644 0.57089907 0.08257678 16.753895 2.9478135
1.4874803 3.294391 12.579076 6.7721796 0.08041862 0.70302 1.9339887 1.5918032
0.36953354 1.0430648 23.134237 1.0851709 2.829089 8.326851 0.4669114 0.68067294
3.6355102 3.8153372 6.8533416 12.448931 5.647144 11.225801 9.574314 0.00933375
6.808145 5.354267 1.0170314 5.233819 0.11150615 2.6815374 8.093204 0.5985414
2.3734553 1.4192082 8.107608 7.68799 7.489297 4.037788 2.394627 7.348941
5.0280876 0.8248669 0.53379375 6.6056056 29.826954 0.8036342 1.799274 6.046609
00000000: 6a1b 4241 a7a3 fa3e 12ff 8f3f c7c2 a540
00000010: 2d45 5c40 5225 7341 9907 3d41 7c4b 983f
00000020: 2063 803f 4261 3d3f 3a06 0a42 405d a83e
00000030: 7126 123f 041e a93d fa07 8641 faa8 3c40
00000040: c165 be3f 4dd7 5240 e543 4941 b2b5 d840
00000050: 84b2 a43d 1ef9 333f f18c f73f 35c0 cb3f
00000060: 8033 bd3e 2683 853f eb12 b941 e1e6 8a3f
00000070: cb0f 3540 c83a 0541 030f ef3e 9540 2e3f
00000080: 33ac 6840 7c2e 7440 934e db40 d22e 4741
00000090: 67b5 b440 e29c 3341 6430 1941 96ec 183c
000000a0: 53dc d940 2856 ab40 162e 823f 727b a740
000000b0: 565d e43d 4f9e 2b40 c37d 0141 023a 193f
000000c0: b1e6 1740 9da8 b53f c3b8 0141 0404 f640
000000d0: 52a8 ef40 8f35 8140 9241 1940 862a eb40
000000e0: 18e6 a040 7a2a 533f b5a6 083f 1f61 d340
000000f0: 9a9d ee41 f9ba 4d3f 9c4e e63f d27d c140

dnn.3.weight f4 [128, 64]
0.108746424 -0.050135303 -0.03880234 -0.007112305 -0.04525776 0.0611281 0.038867373 0.10167709
-0.10844264 -0.035571825 0.10061974 0.044942476 0.07712229 -0.07996952 -0.043446526 0.036556344
-0.08328067 -0.119900204 -0.06297836 0.009064084 0.03638789 0.0230692 0.13151723 0.012815596
0.014739758 0.069655746 -0.074485905 0.0580514 0.07000611 -0.015816214 0.09310182 0.124437205
-0.044547312 -0.0383748 -0.114537545 -0.124118805 -0.11185246 -0.034380212 0.058951862 -0.09944229
-0.1279503 0.010181087 -0.15556587 0.07449929 0.023492338 0.095580965 0.057064075 0.0077527706
0.09383462 0.10792927 -0.07393728 0.049621496 0.07299708 -0.067034446 -0.03075435 -0.064142406
-0.062390707 0.10121102 -0.10548598 0.0054892725 0.021261975 0.06862709 0.016346777 -0.092643484
-0.10255431 -0.06839072 -0.048208322 0.021793865 -0.11448336 -0.013851635 0.038928766 0.040047724
-0.066096984 0.017274324 -0.09750861 0.043461148 0.030479796 -0.09583675 -0.073603556 -0.055100698
0.047624134 -0.05809887 -0.02635104 -0.0008280685 -0.03380104 0.022784121 -0.0086773615 0.041631293
0.04350899 0.049117066 -0.1263694 0.06435484 -0.10941675 -0.05011297 0.09950252 -0.035787966
-0.13715537 0.075462975 0.08201737 -0.04317145 -0.08045497 0.07368553 -0.0887942 0.01878257
-0.10289511 0.025850963 0.13454226 -0.07592129 -0.011834606 -0.070647806 -0.015594098 -0.11850631
0.09758997 -0.10722898 0.08428061 -0.019154053 0.05551372 0.117254294 -0.09354403 0.10903588
0.09442801 -0.056578487 0.055966336 0.097391404 0.050006688 -0.01639888 0.06403601 0.06946828
-0.01206087 0.021943308 -0.10448876 0.024551008 -0.058255475 0.024282772 -0.0418671 0.052826334
-0.0070525627 0.050082885 0.0034430681 0.08630257 -0.069735035 0.00047855347 0.08895238 -0.14156908
-0.11449248 -0.04237312 -0.03852756 -0.09962689 0.06578376 0.044545878 -0.15707068 -0.029579923
-0.1183596 0.08475593 -0.029626582 -0.003528717 -0.007965296 0.049582757 0.056375276 -0.09747516
0.006708299 -0.0040420997 0.06877753 -0.08466046 0.0035378158 -0.07230171 -0.09487559 0.08833761
0.11063723 -0.14830153 -0.11720173 0.10111134 0.12930416 -0.0587999 -0.081299335 0.09214031
0.06941316 -0.025009876 0.04771268 -0.13852488 -0.07127697 -0.06896328 -0.06423282 0.09328965
-0.055668995 0.024345905 0.003042208 0.12640509 -0.14539854 0.007061121 0.004803116 -0.06866786
-0.0015681745 -0.053826448 -0.10559526 0.032866083 0.03956419 -0.0697858 -0.046130896 -0.05680118
0.0105305 -0.08397443 0.024623757 -0.08222065 -0.1251432 -0.008392851 -0.068920314 0.12687248
0.05848233 -0.12896125 0.012730749 0.090225644 -0.06707306 0.056993697 -0.021016404 -0.058399875
0.00492246 -0.013976111 0.058219533 -0.072904445 -0.060454104 -0.06253532 0.11530349 0.08685892
0.103472866 -0.018239804 -0.110698655 0.022699123 -0.019975668 -0.09328666 -0.051059984 -0.08220124
-0.12849542 -0.09006367 -0.021301521 0.05521218 -0.10746574 -0.10220305 -0.05769445 0.0013436452
0.0028786007 -0.013616857 -0.06957834 0.053509854 -0.06592462 -0.07005382 -0.101576604 0.09090923
0.12853114 -0.004364733 -0.043785542 -0.028399305 -0.03909345 0.115718015 0.067950256 -0.08798796
00000000: 72b6 de3d ad5a 4dbd 34ef 1ebd 570e e9bb
00000010: 3360 39bd 7561 7a3d 6533 1f3d 143c d03d
00000020: 2d17 debd c3b3 11bd b911 ce3d 9a15 383d
00000030: 4bf2 9d3d 0fc7 a3bd fcf4 31bd 1bbc 153d
00000040: 0e8f aabd 3d8e f5bd ccfa 80bd 8681 143c
00000050: 780b 153d 9efb bc3c 74ac 063e 81f8 513c
00000060: 077f 713c aca7 8e3d 118c 98bd 4ec7 6d3d
00000070: 5d5f 8f3d 0191 81bc 2bac be3d efd8 fe3d
00000080: 3e77 36bd e52e 1dbd a992 eabd 0032 febd
00000090: e712 e5bd 44d2 0cbd 8277 713d 66a8 cbbd
000000a0: 6705 03be 93ce 263c a94c 1fbe 1593 983d
000000b0: 0173 c03c f4bf c33d 05bc 693d f40a fe3b
000000c0: 5e2c c03d 050a dd3d 6e6c 97bd e93f 4b3d
000000d0: 7e7f 953d 5b49 89bd 8cf0 fbbc 185d 83bd
000000e0: 668d 7fbd b947 cf3d 0909 d8bd 5bdf b33b
000000f0: 982d ae3c 5c8c 8c3d ade9 853c debb bdbd
00000100: fe07 d2bd 6f10 8cbd 1776 45bd 0c89 b23c
00000110: 4076 eabd f8f1 62bc c573 1f3d 1509 243d
00000120: db5d 87bd e282 8d3c 98b2 c7bd 5104 323d
00000130: c4b0 f93c 0f46 c4bd 76bd 96bd 45b1 61bd
00000140: 8611 433d 15f9 6dbd 23de d7bc bd12 59ba
00000150: f672 0abd c4a5 ba3c 7e2b 0ebc 9385 2a3d
00000160: 7c36 323d fa2e 493d fb66 01be 78cc 833d
00000170: e415 e0bd 4243 4dbd fac7 cb3d 6796 12bd
00000180: 7572 0cbe 558c 9a3d b9f8 a73d 8cd4 30bd
00000190: 93c5 a4bd 70e8 963d bcd9 b5bd e7dd 993c
000001a0: acba d2bd 66c5 d33c 72c5 093e 9f7c 9bbd
000001b0: efe5 41bc ccaf 90bd 637e 7fbc 70b3 f2bd
000001c0: 40dd c73d de9a dbbd 509b ac3d f6e8 9cbc
000001d0: 5b62 633d 0523 f03d 0394 bfbd 344e df3d
000001e0: 7963 c13d d8be 67bd f53c 653d 2575 c73d
000001f0: d0d3 4c3d f256 86bc 5025 833d 6345 8e3d
00000200: f59a 45bc 74c2 b33c 34fe d5bd 321f c93c
00000210: 4b9d 6ebd aaec c63c d67c 2bbd 6d60 583d
00000220: 2f19 e7bb b623 4d3d 19a5 613b 67bf b03d
00000230: 3ed1 8ebd 5ce6 fa39 aa2c b63d 7cf7 10be
00000240: 097b eabd 708f 2dbd 13cf 1dbd 2f09 ccbd
00000250: a3b9 863d bd75 363d 23d7 20be 9851 f2bc
00000260: 8566 f2bd 8494 ad3d 72b3 f2bc 0c42 67bb
00000270: df80 02bc 4a17 4b3d c3e9 663d 0fa1 c7bd
00000280: 4ad1 db3b 9773 84bb 3cdb 8c3d 7762 adbd
00000290: b3da 673b eb12 94bd 224e c2bd 59ea b43d
000002a0: c695 e23d 5bdc 17be 7607 f0bd 7613 cf3d
000002b0: 4f68 043e 2ad8 70bd 4480 a6bd 0fb4 bc3d
000002c0: 7d28 8e3d 83e1 ccbc 5f6e 433d 77d9 0dbe
000002d0: a9f9 91bd 9f3c 8dbd 7f8c 83bd a50e bf3d
000002e0: 2c05 64bd 1071 c73c c85f 473b 5670 013e
000002f0: 5be3 14be fa60 e73b 7563 9d3b bca1 8cbd
00000300: 348b cdba 1f79 5cbd 5442 d8bd 969e 063d
00000310: 0f0e 223d dceb 8ebd c0f3 3cbd 5ba8 68bd
00000320: 1e88 2c3c c9fa abbd c3b7 c93c 4d63 a8bd
00000330: 8a25 00be 2b82 09bc 1826 8dbd dcea 013e
00000340: 2b8b 6f3d 6b0e 04be a294 503c 39c8 b83d
00000350: 9a5d 89bd 3972 693d 982a acbc b534 6fbd
00000360: 964c a13b 0ffc 64bc 9b77 6e3d ed4e 95bd
00000370: b99e 77bd 8512 80bd 3c24 ec3d 17e3 b13d
00000380: 95e9 d33d a46b 95bc fab5 e2bd 83f3 b93c
00000390: 03a4 a3bc 140d bfbd 4624 51bd 2059 a8bd
000003a0: 4e94 03be 4d73 b8bd 8780 aebc 2b26 623d
000003b0: ff16 dcbd d54f d1bd 0451 6cbd 401d b03a
000003c0: e8a6 3c3b 3d19 5fbc 177f 8ebd 262d 5b3d
000003d0: 7d03 87bd 6178 8fbd 6507 d0bd 9e2e ba3d
000003e0: ab9d 033e 0906 8fbb 7858 33bd a9a5 e8bc
000003f0: 7420 20bd 91fd ec3d 8129 8b3d 0833 b4bd

dnn.3.bias f4 [128]
0.06547063 -0.10980726 -0.07241791 -0.10932063 0.078257434 -0.013983359 0.117928915 -0.09379221
-0.0169022 -0.088236876 -0.057194307 0.10656606 -0.003080502 0.042491447 0.0010160919 -0.04128074
-0.019822275 0.022962043 -0.021356886 -0.0025923748 -0.024246173 0.059511714 0.060630288 -0.09927297
-0.09315492 0.03044824 0.08212803 0.05340819 -0.0873863 -0.020755155 0.06868662 -0.12046225
-0.037774436 -0.043719172 -0.0020472882 0.007962101 -0.003525892 -0.098314196 0.09332423 -0.103235275
0.08257307 -0.063728675 -0.08168062 -0.07550054 0.07519381 -0.12320178 0.11896805 -0.086971134
-0.10598857 -0.029537585 0.019812135 -0.0476977 0.11841685 -0.015820121 -0.03421393 -0.09658229
0.053509336 0.08074027 -0.073919445 0.07257993 -0.058109403 -0.07844534 -0.034374874 0.02810912
-0.046337474 -0.082588725 0.020982776 0.020677619 -0.017146219 -0.094353765 0.11883424 -0.02484592
0.066874065 -0.00944848 -0.0024587302 0.12297162 -0.12343261 -0.11806864 -0.020072456 0.06777782
-0.021880297 -0.11097152 -0.0037816453 0.066649325 -0.03610156 -0.03179806 -0.06278417 -0.09707562
-0.07300014 -0.026677892 -0.08431451 0.10365837 -0.09371083 0.018738821 0.02812415 0.014707866
-0.038922302 -0.06847974 0.09169651 -0.03662039 -0.059736114 0.055668306 0.12364959 -0.012482156
0.039953504 0.083496556 0.05321874 -0.12621218 -0.08415778 -0.099244595 -0.035354465 0.030618537
0.10631573 -0.10339504 0.10352615 0.09968143 -0.09080318 -0.018674655 0.04975976 0.08514719
-0.117816634 0.105987996 -0.11549387 0.07091387 0.015729817 -0.02492782 0.061215855 0.021504054
00000000: 7715 863d a1e2 e0bd d74f 94bd 7fe3 dfbd
00000010: 6f45 a03d 751a 65bc b784 f13d 2116 c0bd
00000020: 7c76 8abc 89b5 b4bd 9444 6abd 4e3f da3d
00000030: 3fe2 49bb 830b 2e3d 632e 853a fe15 29bd
00000040: 5362 a2bc e51a bc3c a3f4 aebc d5e4 29bb
00000050: e99f c6bc 8ec2 733d 7757 783d a04f cbbd
00000060: 02c8 bebd 966e f93c be32 a83d 8cc2 5a3d
00000070: 97f7 b2bd b706 aabc 92ab 8c3d eab4 f6bd
00000080: 5eb9 1abd e012 33bd cc2b 06bb 7973 023c
00000090: a712 67bb f458 c9bd c620 bf3d 046d d3bd
000000a0: 121c a93d 2e84 82bd 2b48 a7bd 07a0 9abd
000000b0: 36ff 993d 3751 fcbd 85a5 f33d ec1d b2bd
000000c0: 8910 d9bd cef8 f1bc 0f4d a23c aa5e 43bd
000000d0: 8984 f23d 3399 81bc e823 0cbd f0cc c5bd
000000e0: 9b2c 5b3d 285b a53d 1463 97bd c9a4 943d
000000f0: 2004 6ebd f3a7 a0bd abcc 0cbd 1945 e63c
00000100: 5dcc 3dbd 4724 a9bd 12e4 ab3c 1c64 a93c
00000110: 3a76 8cbc 8c3c c1bd 5e5f f33d ac89 cbbc
00000120: 45f5 883d cccd 1abc a622 21bb 8bd8 fb3d
00000130: 3cca fcbd f9cd f1bd fe6e a4bc 19cf 8a3d
00000140: 4f3e b3bc 0945 e3bd 7bd5 77bb 717f 883d
00000150: 3bdf 13bd af3e 02bd fd94 80bd 95cf c6bd
00000160: 1981 95bd 988b dabc 16ad acbd d74a d43d
00000170: 77eb bfbd 2882 993c 9e64 e63c 43f9 703c
00000180: fe6c 1fbd 1b3f 8cbd 61cb bb3d 43ff 15bd
00000190: dbad 74bd 7304 643d ff3b fd3d f581 4cbc
000001a0: 49a6 233d 3e00 ab3d e5fb 593d c43d 01be
000001b0: ea5a acbd c040 cbbd d8cf 10bd bad3 fa3c
000001c0: 10bc d93d c7c0 d3bd 8505 d43d c725 cc3d
000001d0: 05f7 b9bd 97fb 98bc e4d0 4b3d a661 ae3d
000001e0: d949 f1bd 3c10 d93d 0d88 ecbd 4b3b 913d
000001f0: d1db 803c 6d35 ccbc 7abd 7a3d 4529 b03c

dnn.4.weight f4 [128]
1.0075285 0.9614538 0.97378105 1.0172621 0.9930765 0.9941255 0.98114103 0.9963731
1.0010645 0.96053696 1.047901 0.974547 0.9640001 0.99144846 1.0468584 0.99983305
0.99471486 0.99546385 1.0020349 0.9950452 0.9775863 1.0354905 0.98831403 0.994579
1.0085368 0.9779234 1.0284361 0.9904875 0.99946034 0.99708384 0.98864347 1.0332799
0.99123526 0.9955696 0.9868103 0.98787534 0.9911419 1.0173208 1.0275332 1.0255842
0.99266744 0.9885039 1.0252718 0.9949152 1.0693128 0.97490656 1.0057236 0.9780926
1.0248377 1.0228617 1.0077296 1.0227467 0.98781157 0.97546464 1.0405072 1.0040252
0.99961853 1.0163198 1.0021441 0.97516567 0.9834173 0.9839328 1.0358847 0.99351
0.9812464 0.9655332 0.9923579 1.0319281 0.94191253 0.9992788 1.0259895 0.9991455
1.0053308 1.0382184 0.998373 0.98745 0.9846099 0.96744597 1.0035404 1.0216285
0.9956729 0.98850137 0.99001944 0.95315 0.9969207 1.0108439 0.98120594 1.0005102
0.9684516 0.984459 0.9775304 0.98451596 0.98667616 0.9981032 0.9822534 0.99988306
0.99913216 0.9780937 0.99761593 0.99076116 1.0004312 1.0218829 1.0339758 0.9921146
1.0400758 0.99376893 1.0731605 1.0408795 0.96844864 0.9727492 1.0008627 0.9651857
0.98768115 1.0114337 0.9837203 0.9969536 1.0069007 0.9650694 0.9614569 0.9929221
1.0011022 0.9924565 1.0241728 1.0016797 0.9972117 0.9865883 0.992392 1.0054809
00000000: b2f6 803f d621 763f b749 793f a535 823f
00000010: 433a 7e3f 027f 7e3f 0f2c 7b3f 4f12 7f3f
00000020: e222 803f c0e5 753f 9f21 863f ea7b 793f
00000030: b6c8 763f 91cf 7d3f 75ff 853f 0ff5 7f3f
00000040: a2a5 7e3f b8d6 7e3f ae42 803f 48bb 7e3f
00000050: 1943 7a3f f48a 843f 2602 7d3f bb9c 7e3f
00000060: bc17 813f 3059 7a3f cba3 833f 9790 7d3f
00000070: a2dc 7f3f e340 7f3f bd17 7d3f 8442 843f
00000080: 98c1 7d3f a6dd 7e3f 9a9f 7c3f 66e5 7c3f
00000090: 7abb 7d3f 9137 823f 3586 833f 5846 833f
000000a0: 741f 7e3f 970e 7d3f 1b3c 833f c3b2 7e3f
000000b0: 3edf 883f 7a93 793f 8dbb 803f 4764 7a3f
000000c0: e22d 833f 22ed 823f 49fd 803f 5de9 823f
000000d0: 38e1 7c3f 0db8 793f 572f 853f e683 803f
000000e0: 00e7 7f3f c416 823f 4246 803f 75a4 793f
000000f0: 3cc1 7b3f 05e3 7b3f df97 843f ac56 7e3f
00000100: f732 7b3f 2f2d 773f 2b0b 7e3f 3816 843f
00000110: 2e21 713f bcd0 7f3f a053 833f 00c8 7f3f
00000120: aeae 803f 57e4 843f 5f95 7f3f 86c9 7c3f
00000130: 650f 7c3f 8aaa 773f 0374 803f b9c4 823f
00000140: 6be4 7e3f 6d0e 7d3f ea71 7d3f a301 743f
00000150: 3236 7f3f 5563 813f 5030 7b3f b810 803f
00000160: 72ec 773f 8105 7c3f 6f3f 7a3f 3d09 7c3f
00000170: cf96 7c3f b183 7f3f f574 7b3f 56f8 7f3f
00000180: 20c7 7f3f 5964 7a3f c263 7f3f 86a2 7d3f
00000190: 210e 803f 0fcd 823f 5259 843f 39fb 7d3f
000001a0: 3421 853f a467 7e3f 535d 893f 8a3b 853f
000001b0: 40ec 773f 1706 793f 451c 803f 6916 773f
000001c0: acd8 7c3f a976 813f 18d5 7b3f 5a38 7f3f
000001d0: 1fe2 803f ca0e 773f 0a22 763f 2530 7e3f
000001e0: 1e24 803f a111 7e3f 1818 833f 0a37 803f
000001f0: 4449 7f3f 0d91 7c3f 670d 7e3f 99b3 803f

dnn.4.bias f4 [128]
-0.016499132 -0.03373485 -0.017063733 0.037363224 -0.008995873 -0.031529583 0.004101824 0.03721625
-0.013293503 -0.0107507175 0.03351061 -0.016943734 -0.037311755 -0.010899638 0.027422601 0.017187791
-0.008055476 0.012308004 -0.013783281 -0.010197426 0.0038030057 0.046702635 -0.013185504 0.019080771
0.018079096 -0.014707857 0.0237519 0.005810176 -0.032264292 0.00160009 0.033837408 0.034328792
0.0017247116 0.0049261544 0.019374054 0.008504452 -0.034750044 0.02378754 0.018868355 0.01976735
0.03949057 -0.028304446 0.0021637261 0.017506555 -0.015562532 -0.022570455 0.005718126 -0.015355297
0.0103174895 0.023860442 0.051681675 -0.0129905725 0.0144390585 -0.0015075132 0.06926729 0.030717002
0.008161296 0.002502901 -0.0027103077 -0.033856187 -0.020967606 -0.0006558923 -0.0038534775 -0.0058007613
-0.013911114 -0.038682684 -0.019941026 0.040990088 -0.055583086 -0.004748587 0.013614727 0.013802351
-0.036154166 0.039574385 -0.0023566566 -0.0002513397 -0.01633173 0.00019763305 -0.0236474 0.01591749
0.016600298 -0.029135173 -0.002132454 -0.030419793 -0.0035883214 -0.005499143 -0.030972416 0.013112609
-0.00993816 -0.016985258 0.0006886496 -0.0007853684 6.64253e-05 -0.015099932 -0.05300548 0.0065687085
0.0018624356 -0.0026077705 -0.013431321 0.009978291 -0.0035337529 0.038801216 0.008895282 0.002738064
-0.016237544 -0.0063584372 0.028447747 0.0487167 -0.026853591 -0.029387506 -0.023277575 -0.039532073
-0.015484819 0.0048277765 -0.019662587 0.0056543113 -0.016429108 -0.017136091 -0.056338504 0.01753371
0.021747716 0.0019349637 0.04757401 -0.004509808 0.00023945319 -0.007176766 0.010620565 -0.023679515
00000000: 3029 87bc 8e2d 0abd 3ec9 8bbc 2e0a 193d
00000010: 6d63 13bc 2a25 01bd 9868 863b 1170 183d
00000020: fecc 59bc c723 30bc 6c42 093d 96cd 8abc
00000030: 36d4 18bd 6594 32bc 5da5 e03c 69cd 8c3c
00000040: 1dfb 03bc 83a7 493c 45d3 61bc 1b13 27bc
00000050: d93b 793b 434b 3f3d 0308 58bc 474f 9c3c
00000060: 9d1a 943c 39f9 70bc 5893 c23c 4a63 be3b
00000070: 9027 04bd 1cba d13a 1899 0a3d 599c 0c3d
00000080: b80f e23a 946b a13b 56b6 9e3c 4256 0b3c
00000090: 1056 0ebd 16de c23c cf91 9a3c 23ef a13c
000000a0: ddc0 213d bade e7bc 4dcd 0d3b e869 8f3c
000000b0: fdf9 7ebc ade5 b8bc 1e5f bb3b c994 7bbc
000000c0: b00a 293c f976 c33c 2ab0 533d 69d6 54bc
000000d0: cd91 6c3c c097 c5ba 02dc 8d3d 39a2 fb3c
000000e0: f5b6 053c b607 243b 6b9f 31bb c9ac 0abd
000000f0: 42c4 abbc 30f0 2bba a08a 7cbb 5014 bebb
00000100: 71eb 63bc bc71 1ebd 5d5b a3bc 39e5 273d
00000110: 17ab 63bd 099a 9bbb 4e10 5f3c 4223 623c
00000120: 6416 14bd c018 223d 2372 1abb 3ec6 83b9
00000130: 1fca 85bc b83b 4f39 31b8 c1bc 6565 823c
00000140: 59fd 873c e3ac eebc a4c0 0bbb ee32 f9bc
00000150: 0b2a 6bbb 2832 b4bb ddb9 fdbc 45d6 563c
00000160: aad3 22bc ab24 8bbc 7e86 343a 2ee1 4dba
00000170: d04d 8b38 b565 77bc 461c 59bd 523e d73b
00000180: f81c f43a 21e7 2abb 0b0f 5cbc fc7b 233c
00000190: 8996 67bb 06ee 1e3d 84bd 113c 1771 333b
000001a0: 9904 85bc 705a d0bb 400b e93c 2a8b 473d
000001b0: 10fc dbbc 11be f0bc 9db0 bebc 62ec 21bd
000001c0: 0ab4 7dbc 5332 9e3b 6f13 a1bc cd47 b93b
000001d0: 5696 86bc fd60 8cbc 34c3 66bd dba2 8f3c
000001e0: 4428 b23c 9c9e fd3a f7dc 423d 03c7 93bb
000001f0: ba15 7b39 142b ebbb e101 2e3c 8bfb c1bc

dnn.4.running_mean f4 [128]
0.06351661 -0.24435368 -0.39506307 -0.56635123 -0.12144332 0.28108227 -0.39482006 -0.13545373
0.16736059 -0.58964956 0.067326605 0.26710576 0.08945738 0.08227979 0.064859115 0.30567923
0.4355532 -0.1109147 0.06775173 -0.0044421735 -0.22894715 -0.2424685 0.10605869 -0.27625573
-0.7319336 0.6699899 -0.5877795 -0.08736383 0.115200184 0.1066444 -0.05627309 -0.14735082
-0.22341199 -0.62364507 -0.16471007 0.63813394 -0.37882248 -0.6310462 0.32085428 -0.47194496
0.021279607 0.16353944 -0.11473391 -0.6592653 0.20281973 -0.28873572 0.29446864 0.06787475
0.10755969 -0.20753857 -0.30924594 -0.6373301 0.42941818 -0.81014895 -0.05466865 0.22970803
0.053744934 0.0822202 0.38491464 0.08562302 0.046058625 -0.72913647 -0.08071727 0.34008473
0.24838327 -0.7714008 0.23766664 -0.2684775 -0.50744814 -0.045141947 -0.04907588 0.452916
0.06661243 -0.2084733 0.64740866 0.05366519 0.08867626 -0.08690271 0.15757282 -0.13643073
-0.09504371 0.40790832 -0.016866246 0.23228207 -0.41386148 0.1200827 -0.015943859 -0.55816984
-0.36271182 0.27491608 -0.056751553 -0.43421188 -0.146472 0.80023724 0.41493407 -0.16949911
-0.5706165 -0.5360422 0.29391506 0.46819994 0.031213054 -0.4472308 -0.082220845 -0.46463022
0.13016482 0.20799635 0.086268656 -0.15549481 -0.2589756 -0.16972633 -0.4875258 -0.44253886
-0.283511 -0.07524455 0.43163237 -0.21936092 -0.053491987 -0.0931554 0.25462443 -0.09026196
-0.32735682 0.44322312 -0.39077157 0.6271712 -0.34587964 -0.21222308 0.06398277 -0.04957179
00000000: ff14 823d da37 7abe b545 cabe 65fc 10bf
00000010: 46b7 f8bd 04ea 8f3e db25 cabe 62b4 0abe
00000020: 9360 2b3e 46f3 16bf 88e2 893d 16c2 883e
00000030: 6e35 b73d 4e82 a83d dbd4 843d fd81 9c3e
00000040: d400 df3e 3f27 e3bd 6bc1 8a3d a78f 91bb
00000050: 1f71 6abe aa49 78be 4c35 d93d 6471 8dbe
00000060: 0060 3bbf 7584 2b3f b878 16bf cfeb b2bd
00000070: 13ee eb3d 6168 da3d 9d7e 66bd 22e3 16be
00000080: 1dc6 64be 34a7 1fbf c2a9 28be bf5c 233f
00000090: 05f5 c1be 3e8c 21bf 0347 a43e c5a2 f1be
000000a0: 9252 ae3c e276 273e 9df9 eabd 9cc5 28bf
000000b0: faaf 4f3e 2bd5 93be 98c4 963e eb01 8b3d
000000c0: 4148 dc3d fe84 54be 7c55 9ebe 1128 23bf
000000d0: b3dc db3e ec65 4fbf 3cec 5fbd 9538 6b3e
000000e0: a623 5c3d 1063 a83d 8813 c53e 1f5b af3d
000000f0: f8a7 3c3d b0a8 3abf 194f a5bd 961f ae3e
00000100: 2f58 7e3e 867a 45bf e25e 733e e275 89be
00000110: 1fe8 01bf c3e6 38bd ca03 49bd 9be4 e73e
00000120: 196c 883d 067a 55be 93bc 253f 08d0 5b3d
00000130: e69b b53d 0cfa b1bd c55a 213e 7fb4 0bbe
00000140: 47a6 c2bd 5cd9 d03e 152b 8abc 5adb 6d3e
00000150: a7e5 d3be ebed f53d b29c 82bc 38e4 0ebf
00000160: 5db5 b9be cdc1 8c3e 5174 68bd 0551 debe
00000170: c2fc 15be 59dc 4c3f 3d72 d43e 2d91 2dbe
00000180: ec13 12bf 103a 09bf 097c 963e e7b7 ef3e
00000190: 85b2 ff3c 6ffb e4be 6763 a8bd 03e4 edbe
000001a0: ed49 053e fffc 543e 9fad b03d 083a 1fbe
000001b0: 7398 84be bdcc 2dbe fb9c f9be 7494 e2be
000001c0: 5b28 91be d119 9abd ebfe dc3e 26a0 60be
000001d0: 6a1a 5bbd 42c8 bebd 225e 823e 43db b8bd
000001e0: 509b a7be 24ee e23e 3613 c8be 4b8e 203f
000001f0: 2317 b1be 0251 59be 6609 833d ca0b 4bbd

dnn.4.running_var f4 [128]
0.106962465 0.113387674 0.27586168 0.36938092 0.18218985 0.07231416 0.103287116 0.13295877
0.1303907 0.35274363 0.038225994 0.09001084 0.2730398 0.092033036 0.05028803 0.22498307
0.14445643 0.3365065 0.087458454 0.32122993 0.066259556 0.46240526 0.029543562 0.7848228
0.28210837 0.18257843 0.17678799 0.11644957 0.19033705 0.08450688 0.32267514 0.05866964
0.12415759 0.14802949 0.63940024 0.19528466 0.16753371 0.617589 0.14864841 0.2502714
0.1325617 0.30748227 0.018809415 0.525605 0.02859605 0.13197702 0.2102232 0.2635656
0.13563977 0.22056547 0.15998706 0.14632468 0.2637124 0.452832 0.0914952 0.14391626
0.47672048 0.143043 0.30236706 0.069435224 0.12891872 0.2698522 0.13448529 0.1933078
0.20179449 0.23012045 0.108202845 0.25053486 0.8992002 0.18389606 0.040152848 0.20353985
0.08954956 0.03788357 0.31636235 0.58299035 0.22764175 0.095570594 0.037227467 0.60047734
0.46000785 0.1984715 0.15859857 0.17594197 0.18916638 0.0938169 0.03753419 0.29421055
0.93841285 0.07325973 0.29258513 0.12012993 0.25441718 0.33816496 0.94389427 0.18124959
0.12059851 0.24163316 0.024670115 0.31072325 0.1077347 0.42780748 0.10381482 0.7328103
0.042744625 0.18344927 0.04375502 0.10179656 0.03662698 0.13558513 0.07859369 0.119088694
0.8267227 0.18812357 0.110979915 0.15678525 0.034328606 0.16686516 0.06555802 0.20296246
0.16840085 0.14443165 0.049838692 0.4004249 0.2917169 0.35252854 0.14313868 0.14108929
00000000: 230f db3d cc37 e83d be3d 8d3e 7f1f bd3e
00000010: fa8f 3a3e 7219 943d 3288 d33d 5826 083e
00000020: 2485 053e d09a b43e dc92 1c3d 9a57 b83d
00000030: dfcb 8b3e d17b bc3d d2fa 4d3d f661 663e
00000040: 63ec 133e 944a ac3e 6b1d b33d 4078 a43e
00000050: 17b3 873d 62c0 ec3e 5705 f23c 26ea 483f
00000060: 8270 903e d7f5 3a3e e907 353e 1d7d ee3d
00000070: b7e7 423e f111 ad3d ad35 a53e 944f 703d
00000080: 5646 fe3d 0b95 173e bcaf 233f b4f8 473e
00000090: f58d 2b3e 501a 1e3f 4a37 183e 9323 803e
000000a0: 41be 073e 516e 9d3e 3416 9a3c 0d8e 063f
000000b0: 4342 ea3c fc24 073e c044 573e 12f2 863e
000000c0: 27e5 0a3e eadb 613e a6d3 233e 23d6 153e
000000d0: 5005 873e 99d9 e73e d661 bb3d c95e 133e
000000e0: b514 f43e dd79 123e dbcf 9a3e 0e34 8e3d
000000f0: 4503 043e 112a 8a3e 83b6 093e 7bf2 453e
00000100: 37a3 4e3e b2a4 6b3e 7499 dd3d 1b46 803e
00000110: fc31 663f 404f 3c3e 5077 243d c06c 503e
00000120: c265 b73d cd2b 1b3d 3ffa a13e db3e 153f
00000130: eb1a 693e 84ba c33d d47b 183d e2b8 193f
00000140: 2686 eb3e 1d3c 4b3e aa67 223e 222a 343e
00000150: d5b4 413e 1323 c03d 73bd 193d c4a2 963e
00000160: d33b 703f 3309 963d b8cd 953e ae06 f63d
00000170: f842 823e f523 ad3e 0ea3 713f 7e99 393e
00000180: 5afc f63d af6e 773e fb18 ca3c 1e17 9f3e
00000190: 03a4 dc3d 9509 db3e dd9c d43d 7599 3b3f
000001a0: fd14 2f3d 20da 3b3e 7738 333d b77a d03d
000001b0: 2c06 163d d4d6 0a3e bbf5 a03d c6e4 f33d
000001c0: 19a4 533f 77a3 403e 7049 e33d 508c 203e
000001d0: 279c 0c3d b3de 2a3e 4843 863d 64d5 4f3e
000001e0: 4671 2c3e e4e5 133e a823 4c3d 7e04 cd3e
000001f0: eb5b 953e 9f7e b43e f292 123e b679 103e

dnn.6.weight f4 [64, 128]
-0.018780755 -0.004450636 0.027993124 0.018756343 0.002530762 0.05157457 -0.026292657 0.048612256
-0.053018704 -0.020190408 -0.05801779 0.012664613 0.026505334 -0.08779949 -0.071296975 -0.05599911
-0.056020923 0.03072368 -0.068840384 0.060494773 0.026391728 0.05765331 -0.029520217 -0.044630036
-0.026378127 -0.067153305 0.098868325 -0.10401889 -0.08868326 -0.055412557 0.05646438 0.02700945
0.07544713 0.089676365 -0.084739536 0.022902485 0.029072989 0.06509944 -0.06824945 0.0007182044
0.009387615 -0.037810303 -0.013246934 0.030339917 -0.11008698 -0.07354308 0.020768493 -0.0037400846
-0.0945956 0.10691897 -0.021014716 0.017508266 -0.08085333 -0.053429566 0.07224254 -0.07639973
0.056238495 0.0032672526 0.08267961 -0.082451835 0.007442605 0.09409018 -0.029300418 -0.0028003808
-0.096857436 0.022966692 0.004664942 0.044848125 0.037997644 -0.020859111 -0.06113316 0.029156134
0.013618563 0.07222957 0.009577508 -0.055352397 0.043581545 -0.072904676 0.008311977 -0.068418
0.04457055 -0.018857028 -0.07401064 0.0686511 -0.0019355864 0.0022474425 -0.02206751 0.0023452372
-0.00428976 0.030122038 -0.061906677 -0.004130027 0.040800154 -0.065234795 -0.0003934332 0.031064918
-0.061800573 0.08545359 -0.0027903193 -0.028494133 -0.08889606 -0.02476334 -0.016253863 0.06256962
-0.030418288 0.04813702 -0.1158478 -0.090740114 -0.066498876 -0.03463435 0.05745758 -0.058951207
-0.051065262 0.0064229346 0.051893014 -0.03815848 0.030182697 -0.024625732 0.020468807 0.029518984
0.05346268 -0.02589227 -0.05930154 0.043854434 -0.064542346 0.033902604 -0.07204603 0.006456148
0.041990906 0.032048497 0.07137155 -0.0015967198 -0.026544537 0.02697398 -0.069564715 0.026153859
-0.090694115 -0.090339884 0.07685705 -0.0068663107 0.07062565 -0.06911581 0.06484574 0.028551145
0.031882834 -0.045466933 -0.051379733 0.04054826 0.04873849 0.05271514 0.010637801 0.01992223
0.045665927 -0.021325631 0.04320307 -0.049949165 0.07969474 -0.07130773 0.023768518 0.03760913
0.05694513 0.038859397 0.04539514 0.07224818 -0.09601183 -0.000545659 -0.03014194 -0.030052572
0.04982834 0.060804345 -0.08694198 -0.07988268 -0.07995219 -0.014415394 0.020907586 -0.01142245
0.027781013 0.06381414 0.002149055 -0.07104859 -0.05052193 -0.05658576 0.0038881947 0.046754975
-0.019943861 -0.039446138 0.084370084 0.015966697 0.049720366 -0.023442037 0.044501405 0.080396324
0.029430965 -0.06310646 -0.07252354 0.032687113 0.06571334 -0.06721185 -0.105582215 -0.013616598
-0.05330551 0.0007980638 0.06410009 0.021017015 0.024079029 -0.024954056 0.038197804 0.026754845
0.033920612 -0.00639701 -0.060428873 0.07855914 0.059935857 -0.060795803 0.09327726 -0.050026633
0.039754555 0.06211125 -0.024196684 -0.04296158 0.056094464 -0.059809264 0.021294776 -0.061227135
0.010940206 -0.04692363 0.022991976 0.06663983 -0.0765158 0.009847165 -0.09247276 -0.016409777
-0.019481521 -0.071325265 -0.09626058 0.007787287 -0.013522109 -0.063318975 -0.066567436 -0.06992475
-0.024279648 -0.076370545 0.013610357 -0.06570779 -0.05283234 0.0071718325 0.00092524407 -0.039872836
0.06348877 -0.012009783 -0.03008664 -0.07027719 -0.03644252 -0.048859183 -0.09821997 -0.026882486
00000000: 19da 99bc a4d6 91bb d651 e53c e7a6 993c
00000010: 24db 253b db3f 533d b363 d7bc a51d 473d
00000020: 242a 59bd 5b66 a5bc 10a4 6dbd 3d7f 4f3c
00000030: b721 d93c 38d0 b3bd 2604 92bd 535f 65bd
00000040: 3276 65bd 3ab0 fb3c 30fc 8cbd 5ec9 773d
00000050: 7733 d83c e125 6c3d 62d4 f1bc fccd 36bd
00000060: f116 d8bc ac87 89bd 7a7b ca3d db07 d5bd
00000070: 929f b5bd 47f8 62bd 3247 673d ec42 dd3c
00000080: 0684 9a3d 3ea8 b73d ec8b adbd fe9d bb3c
00000090: 7a2a ee3c db52 853d 5ec6 8bbd e245 3c3a
000000a0: 83ce 193c fade 1abd ab09 59bc 6b8b f83c
000000b0: 4875 e1bd c19d 96bd b022 aa3c 351c 75bb
000000c0: 57bb c1bd 55f8 da3d 0e27 acbc 7f6d 8f3c
000000d0: 6e96 a5bd f6d8 5abd e6f3 933d 7677 9cbd
000000e0: 565a 663d 671f 563b ed53 a93d 82dc a8bd
000000f0: 19e1 f33b 5ab2 c03d 6e07 f0bc 9886 37bb
00000100: 315d c6bd a524 bc3c 5fdc 983b abb2 373d
00000110: 6ba3 1b3d bae0 aabc c466 7abd d8d8 ee3c
00000120: 6520 5f3c 19ed 933d fbea 1c3c 32b9 62bd
00000130: 9082 323d 0c4f 95bd f52e 083c bd1e 8cbd
00000140: 9c8f 363d 0e7a 9abc e492 97bd f398 8c3d
00000150: 81b3 fdba d449 133b ecc6 b4bc 8db2 193b
00000160: 1d91 8cbb 7ec2 f63c db91 7dbd 2d55 87bb
00000170: 101e 273d d299 85bd b645 ceb9 db7b fe3c
00000180: 9922 7dbd 4b02 af3d cadd 36bb 876c e9bc
00000190: 230f b6bd 7ddc cabc d226 85bc 8024 803d
000001a0: c62f f9bc 532b 453d 9d41 edbd f4d5 b9bd
000001b0: 9030 88bd c0dc 0dbd a458 6b3d d276 71bd
000001c0: cf29 51bd 7b77 d23b c58d 543d 114c 1cbd
000001d0: b441 f73c e7bb c9bc 33ae a73c ccd1 f13c
000001e0: affb 5a3d 071c d4bc 2ce6 72bd b5a0 333d
000001f0: c72e 84bd 75dd 0a3d de8c 93bd 188e d33b
00000200: a8fe 2b3d 4945 033d 3f2b 923d 0749 d1ba
00000210: ee73 d9bc 89f8 dc3c f277 8ebd 9e40 d63c
00000220: d6bd b9bd 1e04 b9bd 3b67 9d3d cafe e0bb
00000230: 2ea4 903d 978c 8dbd d8cd 843d 17e4 e93c
00000240: 9397 023d 893b 3abd 8e73 52bd ef15 263d
00000250: 03a2 473d d5eb 573d 2c4a 2e3c f233 a33c
00000260: 320c 3b3d 17b3 aebc b4f5 303d 7f97 4cbd
00000270: ff36 a33d ca09 92bd 32b6 c23c 080c 1a3d
00000280: 4c3f 693d 082b 1f3d 41f0 393d dbf6 933d
00000290: daa1 c4bd 8e0a 0fba 3bec f6bc d030 f6bc
000002a0: cd18 4c3d fa0d 793d a30e b2bd 8899 a3bd
000002b0: f9bd a3bd 8b2e 6cbc 6346 ab3c 3a25 3bbc
000002c0: 0295 e33c fdb0 823d 29d7 0c3b ec81 91bd
000002d0: 15f0 4ebd 78c6 67bd 15d1 7e3b 2582 3f3d
000002e0: 4f61 a3bc 4692 21bd 39ca ac3d 97cc 823c
000002f0: 95a7 4b3d 8409 c0bc 1b47 363d d4a6 a43d
00000300: 3519 f13c f63d 81bd 3987 94bd ece2 053d
00000310: b794 863d 5ea6 89bd 7d3b d8bd 2718 5fbc
00000320: e156 5abd 2835 513a e846 833d e02b ac3c
00000330: 6241 c53c 736c ccbc 4d75 1c3d fa2c db3c
00000340: 57f0 0a3d 029e d1bb 4484 77bd 9de3 a03d
00000350: 4d7f 753d 0505 79bd 2608 bf3d bae8 4cbd
00000360: acd5 223d 5e68 7e3d 2038 c6bc 7bf8 2fbd
00000370: 4fc3 653d 8ffa 74bd 6272 ae3c 4ec9 7abd
00000380: 8d3e 333c fe32 40bd ab59 bc3c 777a 883d
00000390: 51b4 9cbd 0156 213c 5c62 bdbd cc6d 86bc
000003a0: b697 9fbc fb12 92bd 4424 c5bd 7f2c ff3b
000003b0: d68b 5dbc 61ad 81bd 8254 88bd b534 8fbd
000003c0: 1de6 c6bc 2968 9cbd fafd 5e3c ce91 86bd
000003d0: b966 58bd b101 eb3b 148c 723a b351 23bd
000003e0: 6606 823d aec4 44bc 4278 f6bc 7ded 8fbd
000003f0: c044 15bd 9120 48bd 8d27 c9bd a938 dcbc

dnn.6.bias f4 [64]
-0.048502214 -0.018364625 -0.042032268 0.025233103 -0.024169706 0.06089653 0.08769784 -0.013506798
0.087064914 -0.052223857 0.0061738505 0.06873293 0.07708989 0.00645184 -0.083665 -0.0485647
0.0763461 0.036868326 0.08799551 0.029695183 -0.019646691 0.06968115 0.01877209 0.028335545
-0.056669038 -0.080802694 -0.0385465 0.08385597 -0.015932638 -0.058371484 0.07253893 -0.028651128
0.027690753 -0.05000091 -0.005747892 0.02549838 0.047562957 0.008783565 0.08786935 -0.048770435
0.06990271 0.08761303 0.042858537 -0.08343718 -0.03685931 0.00072578085 -0.06935472 -0.022519084
0.033715215 -0.05288475 0.06714729 0.02479268 0.03963047 0.05451475 0.0055094687 -0.035268843
0.03364897 -0.057768963 -0.02666514 -0.084805295 0.054763347 0.033537947 -0.057215184 -0.04108793
00000000: 42aa 46bd 6971 96bc 072a 2cbd a7b5 ce3c
00000010: 8cff c5bc a46e 793d ed9a b33d 9e4b 5dbc
00000020: 174f b23d afe8 55bd 034e ca3b dac3 8c3d
00000030: 4ee1 9d3d f569 d33b 8e58 abbd c7eb 46bd
00000040: 585b 9c3d 3e03 173d fd36 b43d 5043 f33c
00000050: 19f2 a0bc feb4 8e3d edc7 993c f21f e83c
00000060: cb1d 68bd e27b a5bd efe2 1dbd aebc ab3d
00000070: 2a85 82bc f016 6fbd 4a8f 943d c5b5 eabc
00000080: b8d7 e23c c1cd 4cbd d058 bcbb fbe1 d03c
00000090: 60d1 423d f1e8 0f3c d9f4 b33d 82c3 47bd
000000a0: 2729 8f3d 766e b33d 6f8c 2f3d 1de1 aabd
000000b0: caf9 16bd 5442 3e3a d909 8ebd f179 b8bc
000000c0: f718 0a3d ae9d 58bd 8584 893d 051a cb3c
000000d0: 8f53 223d dc4a 5f3d c688 b43b 1076 10bd
000000e0: 81d3 093d 269f 6cbd da70 dabc 66ae adbd
000000f0: 884f 603d 165f 093d 785a 6abd d14b 28bd

dnn.7.weight f4 [64]
1.0097094 1.0094514 1.0357548 0.9799183 0.974025 0.96294856 0.9751146 0.9941736
0.966257 1.0055028 1.0195824 0.9668253 0.9948313 1.0046235 0.99553937 1.0681679
0.9854635 0.99181056 1.0155046 1.0007759 0.9756439 1.0152309 1.0184609 1.0477992
0.99234164 0.9855191 0.9847523 0.9966695 1.0209142 0.991926 0.95528466 0.93034077
1.1354852 0.9834017 1.035619 0.9859654 0.960668 1.054121 1.0004185 0.9662125
1.0080177 1.0874333 1.0017402 0.95625436 1.014956 1.0387253 1.0430298 1.0069262
0.9652593 1.0473195 0.99907076 0.9872917 1.0357828 0.99752665 0.99764967 0.9540249
1.0138268 0.96692854 1.0040072 1.0298314 1.0172888 1.0034883 0.9911117 0.983248
00000000: 283e 813f b435 813f 9d93 843f eddb 7a3f
00000010: b459 793f cc83 763f 1ca1 793f 2982 7e3f
00000020: 9e5c 773f 51b4 803f ad81 823f dd81 773f
00000030: 44ad 7e3f 8197 803f abdb 7e3f bab9 883f
00000040: 5647 7c3f 4ce7 7d3f 0efc 813f 6d19 803f
00000050: ccc3 793f 16f3 813f ed5c 823f 491e 863f
00000060: 1a0a 7e3f fb4a 7c3f ba18 7c3f bb25 7f3f
00000070: 51ad 823f ddee 7d3f 898d 743f d02a 6e3f
00000080: 9457 913f 37c0 7b3f 2a8f 843f 3a68 7c3f
00000090: 57ee 753f 70ed 863f b70d 803f b459 773f
000000a0: b906 813f 0431 8b3f 0639 803f 16cd 743f
000000b0: 14ea 813f f3f4 843f 0082 853f f5e2 803f
000000c0: 3c1b 773f 910e 863f 1ac3 7f3f 26bf 7c3f
000000d0: 8894 843f e85d 7f3f f865 7f3f fa3a 743f
000000e0: 14c5 813f a188 773f 4f83 803f 84d1 833f
000000f0: 8536 823f 4e72 803f 7fb9 7d3f 24b6 7b3f

dnn.7.bias f4 [64]
0.028302498 0.020304367 0.07199824 0.012951311 -0.005748896 -0.021207223 -0.04929163 0.028016148
0.02062617 0.02986471 0.06739818 -0.013701781 0.018548299 0.017167442 0.026083112 -0.054814283
0.016665416 0.011577019 -0.013834892 0.0016842926 -0.008759044 0.02078402 0.008680841 0.10664872
-0.035637997 0.005644392 -0.002825745 0.0012404971 0.06722401 -0.05390337 -0.006978749 -0.06571666
0.058117863 0.0022649537 -0.0073752 -0.042277355 -0.028954592 -0.016481716 0.07507328 -0.011090147
0.028835569 -0.051046614 -0.034507126 -0.019435167 0.017621156 0.05584636 0.044691395 0.01626417
-0.038410638 0.069275364 0.07608594 0.036215704 0.017518066 -0.010399361 -0.044341553 -0.009517489
0.036037184 -0.07104852 0.089924835 0.032463375 0.04356491 -0.024778772 0.0069254083 0.06795616
00000000: a4da e73c 5855 a63c d073 933d bc31 543c
00000010: 3c61 bcbb c5ba adbc 05e6 49bd 1f82 e53c
00000020: 37f8 a83c d6a6 f43c 0f08 8a3d 6f7d 60bc
00000030: 9af2 973c bca2 8c3c 40ac d53c f184 60bd
00000040: e985 883c 89ad 3d3c beab 62bc 7bc3 dc3a
00000050: 1882 0fbc 4043 aa3c 163a 0e3c a56a da3d
00000060: 26f9 11bd 98f4 b83b 2230 39bb 2d98 a23a
00000070: beac 893d c8c9 5cbd fdad e4bb 7596 86bd
00000080: ff0c 6e3d 9e6f 143b a9ab f1bb 052b 2dbd
00000090: 2e32 edbc aa04 87bc 05c0 993d 73b3 35bc
000000a0: 9238 ec3c 4116 51bd 5857 0dbd 8036 9fbc
000000b0: 3e5a 903c 27bf 643d 530e 373d 703c 853c
000000c0: 7954 1dbd 3ee0 8d3d f2d2 9b3d eb56 143d
000000d0: 0c82 8f3c 1562 2abc 7d9f 35bd 3eef 1bbc
000000e0: ba9b 133d e381 91bd 832a b83d 51f8 043d
000000f0: 1e71 323d dafc cabc 89ee e23b 992c 8b3d

dnn.7.running_mean f4 [64]
-0.42010152 -0.2629478 -0.60433227 0.10906088 -0.072766446 -0.49627283 -0.13147321 -0.30851954
-0.07291183 -0.5378506 -0.10955649 -0.62442696 0.00088469515 -0.4708273 -0.19787508 -0.0073780636
-0.033505075 0.52973145 -0.41031772 0.063119166 -0.34728262 0.31317538 -0.30901495 -0.16308747
0.19984111 -0.2440426 0.25107825 -0.43258953 -0.34256038 0.40932852 -0.39739043 0.032250974
0.02013098 0.5632126 -0.061070394 0.18039812 0.3269988 -0.34796023 -0.8544148 0.29560554
-0.35596922 -0.14148596 0.20646693 0.24786623 -0.5299737 0.15175018 -0.194437 -0.13213399
-0.044329725 -0.5109649 -0.9500455 -0.09522387 0.08189652 -0.7902211 -0.1100207 0.052011147
-1.0502731 0.06207837 -0.9407296 0.015282484 -0.20258845 0.04178262 -0.12975962 -0.85633934
00000000: 8c17 d7be 18a1 86be 85b5 1abf 505b df3d
00000010: 9306 95bd 7917 febe eaa0 06be 46f6 9dbe
00000020: cc52 95bd 94b0 09bf 275f e0bd 72da 1fbf
00000030: e3ea 673a 4710 f1be c49f 4abe afc3 f1bb
00000040: 9e3c 09bd 7b9c 073f 2a15 d2be 9f44 813d
00000050: 07cf b1be 8658 a03e 3537 9ebe 6700 27be
00000060: 26a3 4c3e 4ee6 79be 548d 803e 607c ddbe
00000070: 1364 afbe 8293 d13e c276 cbbe 9919 043d
00000080: bae9 a43c b32e 103f f324 7abd 49ba 383e
00000090: 636c a73e d827 b2be eeba 5abf 9c59 973e
000000a0: 9941 b6be b2e1 10be 116c 533e a5d0 7d3e
000000b0: 5bac 07bf 6664 1b3e 7e1a 47be 224e 07be
000000c0: 1693 35bd 98ce 02bf 2f36 73bf bb04 c3bd
000000d0: 5db9 a73d ee4b 4abf 8852 e1bd a409 553d
000000e0: 596f 86bf e445 7e3d a8d3 70bf 6263 7a3c
000000f0: 5973 4fbe 4124 2b3d b5df 04be 0e39 5bbf

dnn.7.running_var f4 [64]
0.43171108 0.5724857 0.59125024 0.68950766 0.9439596 0.5050414 0.49210837 0.4706801
0.7460942 0.89001507 0.7424833 0.53576463 0.32736403 0.3360207 0.20851924 0.39861968
0.61722654 0.39625016 0.34535074 0.53262395 0.3010475 0.26430678 0.25659007 0.65071654
0.39020044 1.4466581 0.73543525 0.47160316 0.80177593 0.26242614 0.55002296 0.48771006
0.5351314 0.70469785 0.27916574 0.4693536 0.62012196 0.5660662 0.63772166 0.36559358
0.7370284 0.4676127 0.2262345 0.56024826 0.13363764 0.44737816 0.26633793 0.17039524
0.32266492 0.523697 0.5949801 0.6613106 0.34220818 0.6442723 0.10647527 0.24988453
0.6518741 0.96745574 1.1877741 0.28156888 0.7934101 0.24062769 0.4886493 0.76488453
00000000: 3c09 dd3e 6c8e 123f 2d5c 173f 9383 303f
00000010: 56a7 713f 654a 013f a1f5 fb3e fbfc f03e
00000020: 0800 3f3f 07d8 633f 6313 3e3f df27 093f
00000030: 429c a73e e80a ac3e 1186 553e e117 cc3e
00000040: 8f02 1e3f 4de1 ca3e d0d1 b03e 0b5a 083f
00000050: e622 9a3e 3853 873e c65f 833e 5c95 263f
00000060: 5ac8 c73e 182c b93f 7c45 3c3f f875 f13e
00000070: 3041 4d3f b85c 863e 4ece 0c3f 22b5 f93e
00000080: 5ffe 083f 1467 343f d0ee 8e3e 1d4f f03e
00000090: 50c0 1e3f b7e9 103f ba41 233f 152f bb3e
000000a0: e5ad 3c3f ef6a ef3e 04aa 673e 6e6c 0f3f
000000b0: 4ed8 083e c00e e53e 725d 883e 177c 2e3e
000000c0: 5634 a53e 0211 063f 9e50 183f a74b 293f
000000d0: e935 af3e 08ef 243f b50f da3d bbe1 7f3e
000000e0: 39e1 263f 2eab 773f fb08 983f cc29 903e
000000f0: ed1c 4b3f 1b67 763e 3e30 fa3e 79cf 433f
