checkpoints_OneHotWithWeightedSampler/best.pth (torch, 128235 bytes, 25 tensors)

dnn.0.weight f4 [64, 180]
0	0x3c25bd18	0.010115884
1	0xbd79aace	-0.060953908
2	0x3d1d83da	0.03845582
3	0xbd1f72a3	-0.038927685
4	0xbc0d8197	-0.008636854
5	0x3d99168a	0.07475002
6	0x3cf7c919	0.030247258
7	0x3c82ba7d	0.015958065
8	0x3d285cd3	0.04110415
9	0xbd4772c2	-0.048693426
10	0xbda69a30	-0.08134878
11	0x3d31dc16	0.04342278
12	0x3c900d11	0.017584356
13	0x3d683931	0.056695167
14	0x3d9af139	0.07565541
15	0x3d8a3af0	0.06749523
16	0xbc8e509f	-0.017372428
17	0xbd90dd16	-0.07073419
18	0x3c7e3f7f	0.015518068
19	0x3cae1858	0.021251842
20	0xbd9e56fb	-0.07731434
21	0xbd290bc7	-0.041270997
22	0xbdc0460d	-0.09388361
23	0x3bc4aa39	0.0060017374
24	0xbd57f156	-0.05272039
25	0xbdf2a739	-0.118483014
26	0x3d26dc1d	0.04073726
27	0xbcb7276c	-0.022357665
28	0x3d06e209	0.032930408
29	0x3d35734e	0.044299416
30	0xbd4382e5	-0.047732253
31	0xbd6693e2	-0.056293376
32	0xbd1302fe	-0.035891525
33	0xbc4bb3e6	-0.012433028
34	0x3d10650d	0.03525262
35	0xbc7c9bff	-0.015418052
36	0xbc5e0c76	-0.013552776
37	0x3d5d7e86	0.05407574
38	0xbb3da461	-0.0028937089
39	0x3d69d151	0.057084385
40	0x3ca5097c	0.020146124
41	0x3dc318b1	0.09526194
42	0x3d9d687a	0.07685943
43	0x3d86ec49	0.065880366
44	0x3ce66c2f	0.028127758
45	0x3d591c37	0.053005423
46	0xbcc82d47	-0.024435652
47	0x3d91f736	0.0712723
48	0xbc483cfd	-0.012221572
49	0xbd0882a9	-0.033327732
50	0xbb3af174	-0.0028525265
51	0xbca11dfc	-0.019667618
52	0xbbf9990f	-0.007617123
53	0xbda0b3d6	-0.07846801
54	0x3d1d9f9c	0.038482293
55	0xbd726126	-0.05917468
56	0xbd32026f	-0.043459352
57	0x3d89e1e0	0.06732535
58	0x3d6af266	0.057360075
59	0xbc85a4cf	-0.016313938
60	0xbd9c5c79	-0.07634825
61	0xbcbeca34	-0.023289777
62	0x3d88a443	0.066719554
63	0xbdd07440	-0.10178423
64	0x3d038310	0.032107413
65	0xbcb95c3b	-0.022626987
66	0xbcd04a40	-0.02542603
67	0xba6b185a	-0.0008968167
68	0xbdb2a571	-0.08722962
69	0x3cfb1429	0.030649262
70	0xbd7ec7d3	-0.062202286
71	0xbdb16bfe	-0.08663176
72	0x3cbc160a	0.022959728
73	0xbd1d12f2	-0.038348146
74	0x3d944790	0.07240212
75	0x3d1fd0a7	0.039017346
76	0x3d04e505	0.032444973
77	0x3d514b1b	0.051097017
78	0x3d280fa4	0.04103054
79	0xbd9e7d06	-0.0773869
80	0x3ce17da2	0.027525727
81	0x3bf0e1fc	0.007351158
82	0x3dbce2b8	0.09222931
83	0xbd035a8e	-0.03206878
84	0x3cec98d8	0.028881475
85	0x3d332465	0.04373588
86	0x3d8d7d57	0.06908672
87	0x3d2e2c8b	0.04252295
88	0xbd33532b	-0.043780487
89	0x3d8b6eda	0.06808253
90	0xbb008ef2	-0.0019616452
91	0x3d026d9e	0.03184282
92	0x3d905bf1	0.070487864
93	0x3cf42abc	0.029805534
94	0x3db0097a	0.085955575
95	0x3cd5fba2	0.026120964
96	0xbdbc6c7b	-0.092003785
97	0xbd469d30	-0.04848975
98	0xbd9c8519	-0.07642574
99	0xbd42b9fb	-0.047540646
100	0xbd6d114c	-0.057877824
101	0xbbf65074	-0.007516915
102	0xbcb41075	-0.021980504
103	0xbd3146f8	-0.04328057
104	0xbd0b85b4	-0.034063056
105	0xbb3d2b8a	-0.0028865063
106	0xbc455ef2	-0.0120465625
107	0xbd44d2e1	-0.048052672
108	0x3d16bdf3	0.036802243
109	0xbd9e4ff6	-0.07730095
110	0xbd8e99fe	-0.069629654
111	0x3d93b7a8	0.07212764
112	0xbcfe6a87	-0.031056656
113	0x3d1cfb59	0.03832564
114	0xbd8f8c67	-0.070092015
115	0x3c9fb1bf	0.019493936
116	0x3d4e8c6c	0.050426885
117	0xbd38ef54	-0.045150116
118	0xbd99a433	-0.07502022
119	0xbd4deca6	-0.050274514
120	0x3d4be19a	0.049775697
121	0x3d196eb6	0.037459098
122	0xbd8eaa59	-0.06966085
123	0xbd00be2c	-0.031431362
124	0xbd2bef10	-0.041976035
125	0xbcd126fa	-0.02553128
126	0xbd11ac3c	-0.035564646
127	0x3d6b1e03	0.05740167
128	0xbcf60cc6	-0.030035388
129	0xbd09c178	-0.03363177
130	0xbd894477	-0.06702512
131	0x3bd57b3a	0.006514934
132	0x3c3f2c94	0.011668343
133	0xbd0058c4	-0.031334653
134	0x3cbb10f2	0.022835229
135	0xbc9bb683	-0.019007927
136	0xbd54bc92	-0.051937647
137	0x3b30e57a	0.0026992247
138	0x38fbbeda	0.000120041615
139	0x3d2b67cd	0.04184704
140	0xbd2a3412	-0.041553564
141	0xbc02a4b3	-0.007973838
142	0x3cab3bcf	0.020902542
143	0x3b899df4	0.0041997377
144	0xbdcfdcce	-0.10149537
145	0x3d381a48	0.04494694
146	0xbcfa7565	-0.030573556
147	0xbd805909	-0.06266982
148	0x3ce2659c	0.027636342
149	0x3ccfa4b9	0.0253471
150	0x3d26397c	0.040582165
151	0x3d055ac9	0.032557283
152	0x3d25a082	0.040436275
153	0xbd58ae22	-0.05290044
154	0xbd6608fe	-0.05616092
155	0xbd5a898b	-0.053353827
156	0xbc5b6aff	-0.013392209
157	0xbd10a593	-0.035314154
158	0xbdd4602a	-0.10369904
159	0x3cc4f177	0.02404092
160	0x3be76949	0.0070621115
161	0xbdb18967	-0.086687855
162	0xbd875fe7	-0.06610089
163	0xbd74a05b	-0.05972324
164	0xbcf23402	-0.029565815
165	0xbd753780	-0.059867382
166	0xbd635ab6	-0.05550643
167	0xbc22d8f3	-0.00993942
168	0xbd3f3c61	-0.04668844
169	0x3d6702d5	0.056399185
170	0xbdb92e31	-0.090420134
171	0xbc8c0d48	-0.017096177
172	0x3dcde8a6	0.1005414
173	0x3d2e9460	0.04262197
174	0xbd00f7c1	-0.031486277
175	0x3d15fb51	0.036616627
176	0x3dbb8e6a	0.09158023
177	0x3d9e2fe0	0.07723975
178	0xbbdf110a	-0.006807451
179	0xbe028edf	-0.12749813
180	0xbd05d99c	-0.03267823
181	0x3c4f44ac	0.01265065
182	0x3d49b4c6	0.049244665
183	0xbd923826	-0.07139616
184	0xbc7e8caa	-0.015536467
185	0x3bd23bc8	0.006415818
186	0xbd71f18e	-0.059068255
187	0xbcd76b79	-0.026296364
188	0x3cb8ce26	0.022559237
189	0xbce9febf	-0.028563855
190	0xbce83c7a	-0.02834915
191	0x3cdcff13	0.026977098
192	0x3d8a040d	0.06739054
193	0xbdc8d816	-0.0980684
194	0x3d18dd07	0.037320163
195	0xbcd6e012	-0.026229892
196	0xbd78865f	-0.06067502
197	0x3a316028	0.00067663426
198	0x3d1e692c	0.03867452
199	0x3d35d240	0.044389963
200	0xbb6da2a9	-0.0036260283
201	0xbd4a8a70	-0.04944843
202	0x3bd926bc	0.006626932
203	0xbd1eecad	-0.03879993
204	0xbca3742e	-0.01995286
205	0x3d06cae2	0.032908328
206	0x3c1a3b2a	0.00941352
207	0x3d4e0fd7	0.050308075
208	0x3c9f6b07	0.019460214
209	0x3dc83002	0.09774782
210	0x3d262a89	0.04056791
211	0x3d429f34	0.04751511
212	0x3d81f3c9	0.063453265
213	0x3bd6eaac	0.006558737
214	0x3cf8c64f	0.030367998
215	0x3cf56713	0.029956376
216	0x3d45519a	0.048173524
217	0x3ca67348	0.020318642
218	0x3d91d8aa	0.071214035
219	0xbd1a4a00	-0.03766823
220	0xbd0f0555	-0.034917194
221	0x3cc2fce6	0.023802232
222	0xbd8de02b	-0.06927522
223	0xbcada95d	-0.021198923
224	0xbd5ff4f8	-0.05467698
225	0x3bd0b4f2	0.0063692266
226	0x3bc406a9	0.0059822393
227	0x3ce46feb	0.027885398
228	0x3d804e7b	0.06264969
229	0x3d73a5b9	0.059484217
230	0xbb212460	-0.0024588332
231	0x3c2f56dd	0.010701862
232	0xbc7ba799	-0.015359783
233	0xbc68050b	-0.014161359
234	0xbc7be650	-0.015374735
235	0x3cafbb5f	0.02145165
236	0x3ccd7123	0.025078362
237	0x3d281fea	0.04104606
238	0x3c5cf203	0.013485434
239	0x3cafb800	0.021450043
240	0x3d27efdf	0.041000243
241	0x3bc71fc3	0.0060767843
242	0x3cbcfbbb	0.023069253
243	0x3ce7def5	0.028304556
244	0x3c151c51	0.009100989
245	0x39a291a2	0.00031007553
246	0x3c59d6b1	0.013295815
247	0x3c3188ce	0.010835839
248	0x3c03cf76	0.008045068
249	0xbd15cd2c	-0.03657262
250	0xbb74021a	-0.0037232698
251	0x3d85cac8	0.06532818
252	0x3cd35062	0.025795165
253	0xbbbec400	-0.005821705
254	0x3c1dc9cd	0.009630633
255	0xbd418dd3	-0.047254395

dnn.0.bias f4 [64]
0	0xbd01ecbc	-0.031719908
1	0xbbb7bc15	-0.005607138
2	0x3caf497f	0.02139735
3	0xbd94de12	-0.07268919
4	0xbc3a3034	-0.011364032
5	0x3d1dfd06	0.03857138
6	0x3d01d433	0.03169651
7	0xbd713398	-0.058887094
8	0x3d81658c	0.06318197
9	0x3d73fa76	0.05956503
10	0xbd804fc6	-0.062652156
11	0x3c046976	0.0080817845
12	0x3d881f30	0.066465735
13	0x3cf65307	0.030068887
14	0xbceb8b99	-0.028753089
15	0xbd68140d	-0.056659747
16	0x3ac847b0	0.0015280154
17	0xbc6fba37	-0.014631799
18	0x3b7086f2	0.0036701527
19	0xbc764e3b	-0.0150333
20	0xbcab66d8	-0.020923063
21	0x3ca179c6	0.019711386
22	0xbb379140	-0.002801016
23	0xbc217108	-0.009853609
24	0xbd068839	-0.032844756
25	0x3c93312c	0.017967783
26	0x3d867b9d	0.06566546
27	0x3d4c689d	0.049904454
28	0x3d01aa52	0.03165657
29	0x3cbd924a	0.023141045
30	0xbd0f232d	-0.034945656
31	0xbd792ea2	-0.06083549
32	0x3d43ca2f	0.04780024
33	0x3d7f99b9	0.06240246
34	0xbc278c5f	-0.010226338
35	0x3d66e049	0.05636624
36	0xbd58f830	-0.052971065
37	0xbd78224b	-0.06057958
38	0x3d68f7e5	0.056877036
39	0xbd9880f7	-0.07446473
40	0xbd513fa2	-0.051086076
41	0xbd74a7b9	-0.059730265
42	0xbd6aa7d3	-0.057288956
43	0x3d3703fe	0.04468154
44	0x3d2c9d87	0.042142417
45	0xbc98cd33	-0.018652534
46	0xbbabfb7f	-0.0052484865
47	0x3d11c39e	0.035586946
48	0xbd37aa2a	-0.044840015
49	0x3c89d3d3	0.016824638
50	0xbb96a583	-0.0045973673
51	0x3d86398a	0.065539435
52	0xbd1991c6	-0.037492536
53	0xba9b2a4b	-0.0011838166
54	0x3d8b39a0	0.067981005
55	0x3d311bde	0.043239467
56	0x3bf6f9cc	0.0075371023
57	0x3d9008ed	0.070329525
58	0x3d1d6567	0.038426783
59	0x3d960d0f	0.073267095
60	0xbd142441	-0.036167387
61	0x3d10d5ca	0.035360135
62	0x3aca9d99	0.0015458345
63	0x3cce48e2	0.025181238

dnn.1.weight f4 [64]
0	0x3f778564	0.9668791
1	0x3f7d954f	0.9905595
2	0x3f80074d	1.0002228
3	0x3f7b6f2d	0.98216516
4	0x3f756820	0.9586201
5	0x3f78801c	0.9707048
6	0x3f813a35	1.0095888
7	0x3f7193ec	0.94366336
8	0x3f76bfaf	0.96386236
9	0x3f7b7515	0.9822553
10	0x3f76ff71	0.9648352
11	0x3f6fbe6b	0.9364993
12	0x3f7d6b82	0.9899217
13	0x3f861e51	1.0478002
14	0x3f83e887	1.0305337
15	0x3f7cfb0e	0.9882058
16	0x3f733400	0.9500122
17	0x3f80ea61	1.0071527
18	0x3f7bb9c4	0.9833033
19	0x3f841660	1.0319328
20	0x3f7c6981	0.98598486
21	0x3f7c2ca4	0.98505616
22	0x3f79856d	0.97469217
23	0x3f80d1a4	1.0063977
24	0x3f74dc05	0.95648223
25	0x3f7be4ea	0.9839617
26	0x3f79f2e0	0.9763622
27	0x3f7affd2	0.980466
28	0x3f85eeea	1.0463536
29	0x3f817fb6	1.0117099
30	0x3f81f6b1	1.0153409
31	0x3f79dc2e	0.9760159
32	0x3f7e7089	0.99390465
33	0x3f7f567b	0.99741334
34	0x3f7f489f	0.99720186
35	0x3f8324bd	1.0245587
36	0x3f70b986	0.94033086
37	0x3f7db1da	0.99099505
38	0x3f7481d9	0.9551063
39	0x3f7f6b14	0.99772763
40	0x3f84bae4	1.0369534
41	0x3f76c980	0.96401215
42	0x3f84feb7	1.0390233
43	0x3f7cf891	0.9881678
44	0x3f7cbae4	0.9872267
45	0x3f735c15	0.9506238
46	0x3f831ad5	1.0242563
47	0x3f771372	0.96514046
48	0x3f6c5c76	0.92328584
49	0x3f819adf	1.0125388
50	0x3f7af640	0.98032
51	0x3f73e35c	0.952688
52	0x3f81d815	1.0144068
53	0x3f7159c2	0.94277585
54	0x3f810fc6	1.0082939
55	0x3f7b2188	0.9809804
56	0x3f844751	1.0334264
57	0x3f74ffb7	0.9570269
58	0x3f7df5f1	0.992034
59	0x3f807474	1.0035539
60	0x3f82ee55	1.0228983
61	0x3f7087a8	0.93956995
62	0x3f768908	0.96302843
63	0x3f752eea	0.9577471

dnn.1.bias f4 [64]
0	0xbcc40bc6	-0.023931395
1	0x3d6089e4	0.054819003
2	0x3d68c3f5	0.056827504
3	0x3c9e536d	0.01932689
4	0xbcb301cb	-0.02185144
5	0xbcaedf78	-0.021346793
6	0x3c9f1222	0.019417826
7	0xbd6a8bc5	-0.0572622
8	0xbbd904a1	-0.0066228663
9	0xbca5f7a3	-0.020259684
10	0xbcbba66e	-0.022906508
11	0xbc7a1496	-0.015263697
12	0xbc8a6f67	-0.016898824
13	0x3db3d5e6	0.08781032
14	0x3d25bfd5	0.04046615
15	0x3c93ac9a	0.018026639
16	0xbc2d41fe	-0.010574816
17	0xbc502e54	-0.012706358
18	0xbcd40aed	-0.025884116
19	0x3d2fbabc	0.042902693
20	0xbd3b1336	-0.045672618
21	0x3d1ee57d	0.038793076
22	0xbd00d94b	-0.031457227
23	0x3c84f3c1	0.016229512
24	0x3b1dd0ba	0.002408071
25	0x3ad4e830	0.0016243514
26	0xbd00e87f	-0.031471726
27	0xbc4c25b5	-0.012460162
28	0x3d424026	0.047424458
29	0x3cea7b48	0.028623238
30	0xb90a50ec	-0.00013190851
31	0x39d197d9	0.00039976722
32	0x3cdfbf3c	0.027312867
33	0x3d41e3e1	0.047336463
34	0x3cee0332	0.029054258
35	0x3d3ed1f1	0.046586934
36	0xbd0262f1	-0.03183264
37	0x3b296d4f	0.0025852507
38	0xbc713200	-0.014721394
39	0xbc86d5b2	-0.01645932
40	0x3c874a88	0.016515031
41	0x3c58c352	0.013230162
42	0x3d9ee2ee	0.07758127
43	0xbc97e18a	-0.018540163
44	0x3c912cd2	0.017721567
45	0xbcfde46c	-0.03099271
46	0x3d120b9a	0.035655595
47	0x3cf9a046	0.030471932
48	0xbc64f33f	-0.01397401
49	0x3d0d97eb	0.03456871
50	0xbce7185c	-0.028209858
51	0xbd56bdb9	-0.052427027
52	0x3c6ef4aa	0.0145847
53	0xbc02cc49	-0.007983276
54	0x3c8096da	0.015696932
55	0xbc9e2c34	-0.019308187
56	0x3c944f06	0.018104088
57	0x3ab71b1d	0.0013969872
58	0x3c2e093a	0.010622317
59	0x3b04ca8b	0.0020262327
60	0x3db141e7	0.08655148
61	0xbcd83cd8	-0.0263962
62	0x3c157a98	0.009123467
63	0xbca0d698	-0.019633576

dnn.1.running_mean f4 [64]
0	0xc076710a	-3.8506494
1	0x3f00cfd4	0.5031712
2	0xbf7b0deb	-0.9806811
3	0xc057db20	-3.3727493
4	0x3f5e3f30	0.86815166
5	0x40e15485	7.0415673
6	0xbf0934e3	-0.53596324
7	0xc0579779	-3.3686202
8	0x3fe02c5e	1.751354
9	0xc0799966	-3.8999877
10	0xbfd0a0c2	-1.6299059
11	0xbfdab062	-1.7085078
12	0x401005c4	2.250352
13	0x3eb76426	0.35818595
14	0x3e78de60	0.2430358
15	0xc0040ba2	-2.06321
16	0xc07b64db	-3.9280307
17	0x3f446965	0.7672332
18	0xc0b09036	-5.517604
19	0xbf9ec619	-1.2404205
20	0x3f7435b8	0.9539447
21	0xc0239735	-2.556104
22	0xbfef86b3	-1.8712982
23	0x3fe61f63	1.7978328
24	0x3fff4ba2	1.9944956
25	0xbfae023b	-1.3594431
26	0xbf5b953f	-0.85774606
27	0x3ff19910	1.8874836
28	0xbef6c1e2	-0.48194796
29	0xbf9c10c1	-1.2192613
30	0xc0344065	-2.8164303
31	0xbf944a4c	-1.1585174
32	0xbf3f84b1	-0.74811846
33	0xbec9a9a5	-0.3938724
34	0xbfe710a8	-1.8051958
35	0xbef37205	-0.47547927
36	0xc092bf08	-4.5858192
37	0xc001c99c	-2.0279303
38	0xc0805333	-4.010156
39	0xbf3786a8	-0.71689844
40	0x3f04d6d5	0.5189031
41	0x40908cb6	4.5171766
42	0xbf25b88c	-0.6473472
43	0xbfc2f12e	-1.5229852
44	0xbfd3acf5	-1.6537157
45	0xc01f8458	-2.4924526
46	0x3f2ed178	0.68288374
47	0x40234e12	2.55164
48	0xc0024854	-2.0356646
49	0xbf27c8f6	-0.6554102
50	0xc096d849	-4.713902
51	0xc05e850f	-3.4768713
52	0xbfadfcdc	-1.3592792
53	0x407df220	3.9679031
54	0xc0ca12a5	-6.314776
55	0xbfc3690f	-1.5266436
56	0x3f14dfc7	0.5815396
57	0xbfae3f3a	-1.3613045
58	0xbfb51242	-1.4146197
59	0x3fb1796f	1.3865184
60	0x3e90810c	0.28223455
61	0xc085237c	-4.1605816
62	0x40abe2dd	5.3714433
63	0x4017c2e0	2.3712692

dnn.1.running_var f4 [64]
0	0x414ec939	12.924127
1	0x3f163f43	0.5869028
2	0x3f55ebe9	0.83563095
3	0x412ba87d	10.728635
4	0x3f7ad9f4	0.9798882
5	0x4234ebe4	45.230362
6	0x3eaa619a	0.3327759
7	0x41205a01	10.021974
8	0x4035aaa3	2.8385398
9	0x416e5031	14.894578
10	0x3fd90d42	1.6957171
11	0x4034e843	2.8266761
12	0x408be257	4.3713794
13	0x3cd67596	0.026179116
14	0x3e2dd175	0.16974433
15	0x40386af5	2.8815281
16	0x41720e8a	15.12855
17	0x3f24eaf1	0.6442099
18	0x41e9589f	29.168272
19	0x3fb4c3ea	1.4122288
20	0x3fa3a5d7	1.2784985
21	0x40ab4de5	5.3532586
22	0x4036429b	2.8478153
23	0x40304771	2.7543604
24	0x403b906f	2.9306905
25	0x3ffcbab6	1.974448
26	0x3f6f08f7	0.93373054
27	0x4036aeff	2.854431
28	0x3e4716f7	0.19442354
29	0x3fefd1bf	1.8735884
30	0x40fcd671	7.901177
31	0x3fb4469a	1.4084046
32	0x3f188fbf	0.5959434
33	0x3e5b79b0	0.21433139
34	0x403411b7	2.8135812
35	0x3e2acab3	0.16678886
36	0x41a454b9	20.541368
37	0x4067248d	3.611606
38	0x417087c8	15.03315
39	0x3e4971cc	0.19672316
40	0x3f1f1f51	0.6215716
41	0x41a57c37	20.685652
42	0x3f1d684f	0.6148729
43	0x3ff423e2	1.907345
44	0x401d86e1	2.4613574
45	0x40b81443	5.7524734
46	0x3ead697f	0.3386955
47	0x40bcb958	5.897625
48	0x4075a717	3.8383234
49	0x3f1c6f06	0.6110691
50	0x419eec75	19.865458
51	0x4138c4ee	11.548079
52	0x3fb533b9	1.415641
53	0x417577e0	15.341766
54	0x42152620	37.28723
55	0x40129554	2.2903643
56	0x3ec08c7e	0.37607187
57	0x3ff315c4	1.8991017
58	0x3ffde710	1.983614
59	0x3fe3e82a	1.7805226
60	0x3d02bcce	0.03191834
61	0x4181bea5	16.218088
62	0x41c979ac	25.18441
63	0x40bdd6fd	5.9324937

dnn.3.weight f4 [128, 64]
0	0xbdac1147	-0.08401733
1	0xbd906a3b	-0.07051512
2	0x3cf229db	0.029560974
3	0xbdf1a791	-0.11799539
4	0xbdc8f0d1	-0.09811557
5	0x3dd3f074	0.10348597
6	0xbceceec2	-0.028922442
7	0x3db6331c	0.08896467
8	0x3be0c4b3	0.006859386
9	0xba66e9a2	-0.0008808618
10	0xbdac0342	-0.08399059
11	0x3d9eabe6	0.07747631
12	0x3dbee4aa	0.09320958
13	0x3d845b3f	0.06462716
14	0xbd7c0bf2	-0.06153483
15	0x3bb843c7	0.005623314
16	0x3d6eb85f	0.0582813
17	0x3c7f0065	0.015564059
18	0x3d209b36	0.03921052
19	0xbc89c83c	-0.016819112
20	0xbd3a9a98	-0.04555759
21	0xbc1e4831	-0.009660766
22	0xbdbe2b7e	-0.09285639
23	0x3e3653e3	0.17805438
24	0xbd019046	-0.03163173
25	0x3ccd8c7c	0.025091402
26	0x3bd71eef	0.006564967
27	0x3e1bbb94	0.15208274
28	0xbdf63a2e	-0.12022816
29	0xbd36d374	-0.04463525
30	0x3d443507	0.047902133
31	0x3d2b3c97	0.04180583
32	0xbd79963b	-0.060934287
33	0xbacaaa3e	-0.0015462113
34	0x3b9e092a	0.00482287
35	0x3d9ece51	0.077541955
36	0xbd750d8f	-0.059827384
37	0xbdf6d5da	-0.12052508
38	0xbdd22b38	-0.102621496
39	0x3ce03366	0.027368259
40	0xbdc6e6f5	-0.0971202
41	0xbcf2c916	-0.0296369
42	0x3d67b6d6	0.05657085
43	0xbd74f36f	-0.05980247
44	0xbe0c7412	-0.13716152
45	0x3b6f8fb9	0.0036554171
46	0x3dcf028d	0.101079084
47	0xbc2a72a8	-0.010403313
48	0xbd0b702e	-0.03404253
49	0x3e375cd3	0.17906503
50	0x3d8939b3	0.067004584
51	0xbda2e620	-0.07954049
52	0xbe0ccf20	-0.13750887
53	0x3d3ace56	0.045606934
54	0xbe037896	-0.12838969
55	0xbc8b24c6	-0.016985308
56	0x3de07d77	0.109614305
57	0xbd754c3e	-0.059887163
58	0x3d6a492f	0.0571987
59	0xbd0f4bb1	-0.034984294
60	0x3dd55fb9	0.10418648
61	0x3d030df0	0.031995714
62	0xbd8c6bf1	-0.06856526
63	0xbca51c5c	-0.020155124
64	0x3d90e30b	0.07074555
65	0x3dcc5341	0.09976817
66	0x3d4c6315	0.04989918
67	0xbdac9870	-0.08427513
68	0x3d337856	0.043815933
69	0xbd93a834	-0.072098166
70	0x3dcae0d5	0.099061646
71	0x3d40ca1b	0.047067743
72	0x3d9a6007	0.07537847
73	0x3d886bef	0.06661212
74	0x3d6ee87a	0.058327176
75	0x3da74847	0.08168083
76	0x3deed9d0	0.11662638
77	0x3cc4fed8	0.0240473
78	0x3db936b6	0.090436384
79	0xbd6b365c	-0.057424888
80	0x3da1887a	0.07887359
81	0x3d988c80	0.07448673
82	0x3da4fed5	0.08056418
83	0x3d3bc2f0	0.045840204
84	0x3e066e26	0.13127956
85	0xbe117e5e	-0.14208362
86	0xbd14a20b	-0.03628735
87	0x3ce593d2	0.028024588
88	0x3c2ee7c3	0.0106753735
89	0x3d87b288	0.06625849
90	0x3d7dd5a9	0.06197134
91	0x3c4fb145	0.012676542
92	0xbd9277f2	-0.07151784
93	0x3d15b0de	0.036545627
94	0x3d460e83	0.048353683
95	0x3d69b773	0.057059716
96	0x3cf267cf	0.029590515
97	0x3c745f3c	0.014915284
98	0xbd7fca06	-0.062448524
99	0xbc318765	-0.010835503
100	0x3c9cc3da	0.019136358
101	0xbdbe7d38	-0.09301227
102	0xbd9e342a	-0.07724793
103	0xbd39118b	-0.045182746
104	0x3e07e68f	0.13271545
105	0x3dfe0020	0.124023676
106	0x3dc47edd	0.0959451
107	0xbd48a62b	-0.048986595
108	0xbe0b2b91	-0.13590838
109	0xbdec3372	-0.1153325
110	0x3d0404be	0.032231085
111	0x3d419c35	0.04726811
112	0xbd33b844	-0.0438769
113	0x3de3c1a7	0.11120921
114	0x3b9e9c01	0.0048403745
115	0x3dcc8428	0.09986144
116	0x3b152c10	0.002276186
117	0x3cc95cd4	0.024580397
118	0x3d59f0cb	0.053208154
119	0x3da06bfb	0.07833096
120	0x3db26e63	0.08712461
121	0xba4d0664	-0.00078210817
122	0x3d202a5f	0.03910291
123	0x3d1a201f	0.03762829
124	0x3de0d103	0.10977366
125	0xbda07f5d	-0.078367926
126	0x3d2b6632	0.041845508
127	0xbdcf6e20	-0.101284266
128	0xbdbdab27	-0.0926116
129	0xbd983902	-0.074327484
130	0x3de5f0d3	0.11227574
131	0x3dad19a0	0.08452153
132	0x3d54ef7c	0.051986203
133	0xbdcb589b	-0.099290095
134	0xbd88c6d0	-0.066785455
135	0x3d8589a2	0.06520392
136	0x3d814f08	0.06313902
137	0x3c6e33fe	0.014538763
138	0x3d808f69	0.06277353
139	0xbdb066fe	-0.08613394
140	0x3dc4638a	0.09589298
141	0xbc92caee	-0.01791903
142	0xbe1905a5	-0.1494356
143	0x3cb27ae3	0.021787113
144	0x3d84a89e	0.06477474
145	0xbc2c4c5c	-0.010516252
146	0x3e03daa9	0.12876381
147	0xbcbffdcd	-0.023436451
148	0x3d987869	0.074448414
149	0xbda000da	-0.078126624
150	0x3d7c79cc	0.061639592
151	0x3c8078fe	0.015682694
152	0xbd5f74ea	-0.054554857
153	0xbdb03d93	-0.08605494
154	0x3d0183e7	0.031619933
155	0xbe1d17e9	-0.15341152
156	0xbdb49f2b	-0.088194214
157	0x3da68031	0.08129919
158	0x3dc1388c	0.094346136
159	0xbdad6692	-0.08466829
160	0x3da21363	0.07913854
161	0xbdcb9be6	-0.09941845
162	0xbd087a00	-0.033319473
163	0xbd3bb5d6	-0.04582771
164	0x3d241a7c	0.04006432
165	0xbdc96076	-0.098328516
166	0xbdacff56	-0.08447139
167	0xbd31d50b	-0.043416064
168	0xbe14e922	-0.14542058
169	0xbddad48c	-0.10685071
170	0x3d73ddc9	0.059537683
171	0x3b695134	0.003560138
172	0xbd38ff19	-0.045165155
173	0x3e0652cb	0.1311752
174	0xbdedfb1b	-0.1162016
175	0xbd992495	-0.074776806
176	0xbd0e0b6a	-0.034678854
177	0x3d4f15d1	0.050557915
178	0xbd878c17	-0.06618517
179	0x3a825886	0.0009944595
180	0xbdf57815	-0.119857945
181	0xbdfdd10f	-0.123933904
182	0xbac2ee89	-0.0014872114
183	0xbc74b750	-0.014936283
184	0xbd7710fd	-0.060318936
185	0x3d5a640a	0.05331806
186	0xbd82c1fe	-0.06384657
187	0xbce51ba8	-0.02796729
188	0xbe06a7dd	-0.13149972
189	0xbc91c894	-0.017795838
190	0x3da8d74d	0.0824419
191	0xbdf18432	-0.117927924
192	0x3d41f8f4	0.04735656
193	0x3d0713c5	0.032977838
194	0x3b84c005	0.004051211
195	0x3d070bdd	0.032970298
196	0x3dcbca93	0.09950747
197	0x3dee0dfd	0.11623762
198	0xbde070b6	-0.10958998
199	0xbcb77f61	-0.022399606
200	0xbcb6b3d7	-0.022302551
201	0xbdd0f02e	-0.10202061
202	0x3d9e0044	0.077148944
203	0x3d329287	0.04359677
204	0x3dcd3d6f	0.10021483
205	0xbdbd82c2	-0.09253456
206	0x3d7aec52	0.06126053
207	0xbc232a3b	-0.009958799
208	0xbdc45caf	-0.095879905
209	0x3b77318f	0.0037718748
210	0xbdd31712	-0.10307135
211	0xbd988e8c	-0.07449064
212	0x3c8f2109	0.017471807
213	0xbdc59434	-0.09647408
214	0x3c767266	0.015041923
215	0x3d8a47e2	0.06751992
216	0xbd8bca95	-0.06825749
217	0x3de1780f	0.110092275
218	0x3d70b832	0.058769412
219	0xbdd08030	-0.101807
220	0x3e0dda57	0.13852821
221	0x3e052788	0.13003361
222	0xbd82701c	-0.063690394
223	0xbd86acb1	-0.06575907
224	0xbd4739ea	-0.048639216
225	0xbcdfe2ba	-0.027329791
226	0x3cba54dc	0.022745542
227	0x3c9cf50a	0.019159812
228	0xbde35c25	-0.111015595
229	0x3d0a8369	0.03381673
230	0xbdd9457c	-0.10608956
231	0xbd211173	-0.03932328
232	0x3dce68b4	0.10078564
233	0x3dc1da1a	0.09465428
234	0x3c50052c	0.012696546
235	0x3c82fd9b	0.01599007
236	0x3d95a9bd	0.07307766
237	0x3d95de6d	0.07317815
238	0xbd96850b	-0.07349595
239	0x3db1d5c2	0.08683349
240	0x3dc3946e	0.09549795
241	0xbb94afe4	-0.0045375694
242	0x3c89d54c	0.01682534
243	0xbe02c65c	-0.1277098
244	0x3de52a30	0.11189687
245	0xbdc4747e	-0.095925316
246	0x3da9e572	0.08295716
247	0x3d87d68c	0.066327184
248	0x3b8b2238	0.0042460226
249	0xbde09d39	-0.10967488
250	0xbdd35e9b	-0.10320779
251	0x3dd93d19	0.106073566
252	0xbcddddab	-0.027083239
253	0xbd792c03	-0.06083299
254	0xbd2a236f	-0.0415377
255	0xbdddd2d2	-0.108312264

dnn.3.bias f4 [128]
0	0xbdbf8640	-0.09351778
1	0x3d58c9e1	0.0529269
2	0xbd3a9f8c	-0.045562312
3	0xbc89ae42	-0.016806725
4	0xbdb75d40	-0.08953333
5	0xbcfd9cc7	-0.030958546
6	0xbd8f2204	-0.0698891
7	0x3d46b227	0.048509743
8	0xbb8586c4	-0.004074903
9	0x3dd02429	0.10163147
10	0xbd12901f	-0.035781976
11	0x3d47bd3a	0.048764445
12	0xbd895bc8	-0.06706959
13	0x3d412a80	0.04715967
14	0xbde1bad2	-0.11021961
15	0x3ddfec14	0.109337
16	0x3d76d287	0.06025937
17	0x3d04a148	0.032380372
18	0x3dc97921	0.09837557
19	0xbd6deda9	-0.05808798
20	0xbdd3ac0a	-0.10335548
21	0x3d306399	0.043063734
22	0x3d73d35c	0.05952774
23	0x3ba66d07	0.005078915
24	0xbcd75eb3	-0.026290273
25	0x3d365875	0.044517953
26	0x3d347938	0.044060916
27	0x3d964db4	0.073390394
28	0xbac8b117	-0.0015311566
29	0x3d87a3c5	0.066230334
30	0x3d9c4a9b	0.07631417
31	0x3caa851d	0.020815426
32	0x3d03159f	0.03200304
33	0x3ddd24c5	0.10798029
34	0x3d0dc818	0.034614652
35	0x3decfd6e	0.115717754
36	0x3d9f4a9a	0.07777901
37	0xbda9362a	-0.08262284
38	0x3df4090b	0.11915787
39	0xbc0c5304	-0.008564714
40	0x3d564e05	0.0523205
41	0x3c9c703c	0.019096486
42	0xbd499063	-0.049209964
43	0x3d154cd5	0.036450226
44	0x3d9583cc	0.07300529
45	0x3c9030d7	0.017601414
46	0xbd1d2a63	-0.0383705
47	0xbd16bad0	-0.036799252
48	0xbcddd7e9	-0.027080493
49	0x3d0754f0	0.033039987
50	0xbd95153f	-0.07279443
51	0x3d9ec507	0.07752424
52	0xbdf4eed4	-0.11959615
53	0x3d371fe4	0.044708148
54	0x3d7547e5	0.059883017
55	0xbd52bdf8	-0.0514507
56	0xba0f2c82	-0.0005461649
57	0x3cfc0fb6	0.03076921
58	0x3ddc9758	0.10771054
59	0x3dbde186	0.09271531
60	0xbde867a6	-0.11347894
61	0x3db3c83d	0.08778427
62	0x3da9144f	0.08255827
63	0xbce6348d	-0.02810123
64	0x3d166a8e	0.036722712
65	0x3d9c6fdc	0.07638523
66	0xbd8629fb	-0.06550976
67	0x3dca7bf4	0.098869234
68	0xbd7d063a	-0.061773516
69	0xbdf89994	-0.12138668
70	0xbd4c45a4	-0.049871102
71	0xbdb51b36	-0.08843081
72	0x3c8666b0	0.016406387
73	0xbc8707b2	-0.016483162
74	0x3beb075e	0.007172509
75	0xbd3a7d82	-0.04552985
76	0x3cc93d20	0.02456528
77	0x3dc193d5	0.09452025
78	0x3d33dcc6	0.043911718
79	0x3d9674f9	0.073465295
80	0xbdb13344	-0.08652356
81	0xbc445b3c	-0.011984643
82	0xbd9fe947	-0.07808166
83	0xbd0eb737	-0.034842696
84	0x3df62d95	0.12020413
85	0x3de83d26	0.11339788
86	0xbcd4a3c1	-0.02595699
87	0xbc7798b1	-0.015112088
88	0x3da143f4	0.07874289
89	0xbbc33e88	-0.005958382
90	0xbd6fced4	-0.058546856
91	0xbda02bb0	-0.07820833
92	0x3dbc4643	0.09193089
93	0xbd9af93a	-0.075670674
94	0xbdf6a002	-0.12042238
95	0xbd700b3d	-0.058604468
96	0xbc008f62	-0.007846685
97	0x3d6fb5ae	0.058522873
98	0xbbd6f579	-0.0065600243
99	0x3dcabfbf	0.09899854
100	0xbb705aa4	-0.003667512
101	0xbddffe3f	-0.109371655
102	0xbde38d3b	-0.11110922
103	0x3d9212c4	0.071324855
104	0x3d3a485b	0.04547916
105	0xbc83de4e	-0.016097214
106	0x3d22b2e3	0.03972138
107	0xbd19582d	-0.037437607
108	0xbb9255be	-0.0044657877
109	0x3dd2aa1d	0.10286353
110	0x3d3eb87e	0.046562664
111	0xbd32d49c	-0.04365979
112	0x3d4df092	0.050278254
113	0x3daa3890	0.0831157
114	0x3d8a2499	0.06745262
115	0x3dba040f	0.09082805
116	0x3d1e8bfc	0.03870772
117	0xbcdacc97	-0.026708884
118	0xbda9e8e9	-0.08296377
119	0xbda2ba53	-0.07945695
120	0x3d40eaaa	0.047098793
121	0xbdd51672	-0.10404672
122	0xbd675542	-0.056477793
123	0xbc9b41ad	-0.018952215
124	0xbdfdc414	-0.123909146
125	0x3d25cc21	0.040477876
126	0x3cefeb82	0.029287104
127	0xbcba49dd	-0.022740299

dnn.4.weight f4 [128]
0	0x3f7fad42	0.99873745
1	0x3f70b4f2	0.940261
2	0x3f6f7ffb	0.9355466
3	0x3f8f82ea	1.1211827
4	0x3f800d34	1.0004029
5	0x3f7c7b8d	0.98626024
6	0x3f7e2b2c	0.99284625
7	0x3f7ac7ae	0.9796094
8	0x3f81d3eb	1.0142797
9	0x3f881e8c	1.0634322
10	0x3f7e09fd	0.9923399
11	0x3f7a336a	0.977347
12	0x3f726dc9	0.9469877
13	0x3f7644bb	0.96198624
14	0x3f871a24	1.0554852
15	0x3f76c18a	0.9638907
16	0x3f8df964	1.1091733
17	0x3f770e46	0.96506155
18	0x3f730fdf	0.9494609
19	0x3f7aa81f	0.9791278
20	0x3f6aa005	0.9165042
21	0x3f7f86aa	0.99814856
22	0x3f76d7f2	0.96423256
23	0x3f7a0c35	0.97674876
24	0x3f8091aa	1.0044453
25	0x3f78398f	0.9696283
26	0x3f7fc2f8	0.99906874
27	0x3f73a547	0.9517407
28	0x3f784d31	0.96992785
29	0x3f7285cf	0.94735426
30	0x3f7720dd	0.9653452
31	0x3f8087fc	1.0041499
32	0x3f7a42d1	0.97758204
33	0x3f7c2de4	0.98507524
34	0x3f7827c8	0.969357
35	0x3f783790	0.9695978
36	0x3f76b7c7	0.9637417
37	0x3f7a99c7	0.97890896
38	0x3f765a8b	0.9623191
39	0x3f76c6dd	0.9639719
40	0x3f77dcfc	0.9682157
41	0x3f765c30	0.96234417
42	0x3f7622a9	0.9614664
43	0x3f72675f	0.9468898
44	0x3f77aeee	0.96751297
45	0x3f7a1898	0.9769378
46	0x3f7ae431	0.9800444
47	0x3f7cd0ed	0.98756295
48	0x3f7b12f4	0.98075795
49	0x3f794f37	0.973865
50	0x3f8ba138	1.0908575
51	0x3f7d0eb7	0.9885058
52	0x3f71ef67	0.94505924
53	0x3f75a63c	0.9595678
54	0x3f817c72	1.0116103
55	0x3f8236b2	1.0172942
56	0x3f71dc92	0.9447719
57	0x3f7c6bca	0.98601973
58	0x3f7fbc04	0.99896264
59	0x3f7da7e7	0.99084324
60	0x3f849b5a	1.035991
61	0x3f8572bc	1.0425639
62	0x3f7b6483	0.98200244
63	0x3f7aa30a	0.9790503
64	0x3f844bd7	1.0335644
65	0x3f7d84be	0.99030674
66	0x3f766828	0.9625268
67	0x3f785a48	0.9701276
68	0x3f7c2240	0.9848976
69	0x3f78adc2	0.97140133
70	0x3f7cfb62	0.9882108
71	0x3f6e4e79	0.9308849
72	0x3f76a656	0.9634756
73	0x3f89db77	1.07701
74	0x3f73aa7a	0.95182
75	0x3f7dc75b	0.9913232
76	0x3f77bece	0.9677552
77	0x3f71ee7d	0.9450453
78	0x3f81bebe	1.0136335
79	0x3f82f733	1.0231689
80	0x3f7c4710	0.9854593
81	0x3f95c770	1.1701488
82	0x3f82d7a8	1.0222063
83	0x3f82ff52	1.0234168
84	0x3f830bfb	1.0238031
85	0x3f7c8865	0.9864562
86	0x3f7a671c	0.9781358
87	0x3f852039	1.0400459
88	0x3f8323e6	1.024533
89	0x3f782d65	0.96944267
90	0x3f79356a	0.9734713
91	0x3f7ed965	0.9955047
92	0x3f7df71b	0.9920518
93	0x3f760270	0.9609747
94	0x3f7eb089	0.9948812
95	0x3f71315f	0.9421596
96	0x3f8648a5	1.0490919
97	0x3f70c6f5	0.94053584
98	0x3f7bacdc	0.9831064
99	0x3f7a4229	0.977572
100	0x3f6b4e48	0.9191632
101	0x3f70f1a4	0.94118714
102	0x3f872bcb	1.056024
103	0x3f81754c	1.0113921
104	0x3f757ffa	0.958984
105	0x3f8856e6	1.0651519
106	0x3f7d0b85	0.988457
107	0x3f8481f5	1.035216
108	0x3f7bd492	0.9837123
109	0x3f7c42b2	0.9853927
110	0x3f74510f	0.95436186
111	0x3f7a2237	0.9770846
112	0x3f80c1fa	1.0059197
113	0x3f7ea443	0.99469393
114	0x3f770c47	0.9650311
115	0x3f79a6f3	0.9752037
116	0x3f701781	0.93785864
117	0x3f7feee3	0.9997389
118	0x3f7d95ba	0.9905659
119	0x3f79ed3e	0.9762763
120	0x3f774e2e	0.9660367
121	0x3f77bc54	0.9677174
122	0x3f7de388	0.9917531
123	0x3f711ed7	0.9418768
124	0x3f7bba85	0.9833148
125	0x3f7a4dcb	0.9777495
126	0x3f8801cb	1.0625547
127	0x3f80792d	1.003698

dnn.4.bias f4 [128]
0	0xbce28784	-0.02765251
1	0xbcf3a06b	-0.02973958
2	0xbd3e60ae	-0.04647892
3	0xbd0331c7	-0.032029893
4	0x3c9834c8	0.018579856
5	0xbce7ad13	-0.02828077
6	0xbafd2f5e	-0.0019316485
7	0xbd588dfd	-0.052869786
8	0x3c02e808	0.007989891
9	0x3cde3684	0.027125604
10	0x3c5b25d4	0.013375718
11	0xbbdb7126	-0.006696838
12	0xbd3df91d	-0.04638015
13	0xbd131e93	-0.03591783
14	0x3d0bc246	0.03412082
15	0xbd16c329	-0.036807213
16	0x3c2647f2	0.010148989
17	0xbce8227e	-0.02833676
18	0xbce6b3c4	-0.02816189
19	0x3c211a54	0.009832937
20	0xbd80ad21	-0.06283022
21	0xbbaaf8f3	-0.0052176653
22	0xbd957c3a	-0.07299085
23	0xbc6e48b0	-0.014543697
24	0x3c207228	0.009792842
25	0xbc3b3e8d	-0.0114284875
26	0xbcd22948	-0.02565445
27	0xbd481ce9	-0.048855696
28	0xbd072314	-0.032992437
29	0xbc609f51	-0.013709859
30	0xbd6c550f	-0.057698306
31	0x3c07a0d0	0.008278087
32	0xbc508840	-0.012727797
33	0xbcdc29cc	-0.026875399
34	0xbd025617	-0.031820383
35	0xbd23a413	-0.039951395
36	0xbc176254	-0.009239752
37	0xbb817f9f	-0.003951981
38	0xbc44f34f	-0.0120209
39	0xbd478043	-0.048706304
40	0xbc5053d6	-0.012715301
41	0xbd34643e	-0.04404091
42	0xbc7f92c6	-0.015598958
43	0xbd55a1d1	-0.052156273
44	0xbd009dda	-0.03140054
45	0x3c0c3eb8	0.008559875
46	0xbcbf845f	-0.02337855
47	0xbc0a847b	-0.008454437
48	0x3be28ebc	0.006913988
49	0xbc33bd77	-0.010970465
50	0x3e0652e2	0.13117555
51	0x3be8e8eb	0.007107844
52	0xbd177730	-0.0369789
53	0xbcc35e5d	-0.023848707
54	0xbceafca4	-0.028684922
55	0xbcee11a9	-0.029061155
56	0xbd101977	-0.035180535
57	0xbc3c4b01	-0.011492492
58	0x3cd26141	0.02568114
59	0x3c0181e2	0.007904502
60	0x3c8d2d3e	0.017233487
61	0xbd0001bf	-0.031251665
62	0xbab54bf2	-0.0013831838
63	0xbcbb14cf	-0.02283707
64	0x3b49e536	0.0030806786
65	0xbccd7c1b	-0.025083592
66	0xbd3ac82c	-0.045601055
67	0xbb997db4	-0.0046841744
68	0x3b30bf4c	0.002696949
69	0xbaf0ce23	-0.001837198
70	0xbc206980	-0.009790778
71	0xbd4fee52	-0.05076439
72	0xbd156dd0	-0.03648168
73	0x3d977bde	0.07396673
74	0xbcfe984a	-0.031078476
75	0xbd319b09	-0.043360744
76	0xbbc25da4	-0.005931573
77	0xbcec1e64	-0.028823085
78	0xbc3a99be	-0.011389194
79	0x3c5ea411	0.013588921
80	0xbc8b216e	-0.016983714
81	0x3e0b5bbb	0.13609211
82	0xbd2b4298	-0.041811556
83	0x3b319f43	0.0027102984
84	0xbce7f017	-0.028312726
85	0xbc4deb79	-0.012568348
86	0xbc9f034a	-0.019410748
87	0x3d2faabd	0.042887438
88	0x3b7a70ca	0.00382142
89	0xbd6ac320	-0.057314992
90	0xbbca4f3e	-0.006173997
91	0xbc7b3c68	-0.015334226
92	0xbca22193	-0.0197914
93	0xbc1116c9	-0.00885553
94	0xbdb17289	-0.08664424
95	0xbccc782b	-0.024959644
96	0x3d04b27e	0.032396786
97	0xbd3dc365	-0.04632892
98	0xbd63f137	-0.055649962
99	0xbcfcf857	-0.030880136
100	0xbcda1aba	-0.026624072
101	0xbd231912	-0.03981883
102	0xbd6cf433	-0.057850074
103	0xbaadafa4	-0.0013251198
104	0xbc9c488e	-0.019077566
105	0x3d3d3266	0.04619064
106	0xbcb66f9c	-0.022270016
107	0x3d7d4b1d	0.06183921
108	0xbd40202a	-0.046905674
109	0xbb4cec56	-0.0031268797
110	0xbd0bf95a	-0.034173347
111	0x3b741475	0.0037243639
112	0x3b038689	0.0020069203
113	0xbd6c15a3	-0.057637822
114	0xbd4ced06	-0.05003073
115	0xbc521b02	-0.012823822
116	0xbd58b307	-0.05290511
117	0x3c1ef540	0.009702027
118	0xbbc19dc8	-0.0059087016
119	0xbc2eaa2d	-0.01066069
120	0xbcee7a25	-0.029110977
121	0xbcc9a846	-0.024616372
122	0x3b2fa348	0.0026800204
123	0xbc4f9fe5	-0.012672399
124	0xbcc7c17a	-0.024384249
125	0xbcf5e28f	-0.030015258
126	0xbdac1d45	-0.0840402
127	0xbbb29c6a	-0.005450775

dnn.4.running_mean f4 [128]
0	0xbe383a0f	-0.17990898
1	0x3f23a545	0.63924056
2	0xbf047bc1	-0.51751333
3	0x3cba0a3a	0.022709955
4	0xbe7572bb	-0.23969547
5	0x3bdadbfb	0.0066790557
6	0x3e18fc60	0.14940023
7	0xbdb3b393	-0.087744854
8	0xbde04114	-0.10949913
9	0x3e7489ee	0.23880741
10	0xbe74f4db	-0.2392153
11	0xbe4d468c	-0.20046443
12	0x3ea3be2f	0.31981036
13	0x3e941f0c	0.28929937
14	0x3d5a5c54	0.053310707
15	0x3ebbd398	0.3668487
16	0x3e9cea5e	0.30647558
17	0xbe45ff3f	-0.1933565
18	0xbef6957c	-0.48160923
19	0xbe448d91	-0.19194628
20	0xbf070f32	-0.5275756
21	0x3e009de0	0.12560225
22	0x3e9c5920	0.30536747
23	0x3ed6cc3f	0.41952702
24	0xbdfeca06	-0.12440877
25	0x3c9e4e92	0.019324575
26	0x3eb6b27b	0.35683045
27	0x3d557597	0.052114096
28	0xbe11c53c	-0.14235395
29	0x3f301c48	0.68793154
30	0xbdd0481d	-0.101700045
31	0x3d75b219	0.0599843
32	0x3e215ddc	0.15758461
33	0x3e1340cf	0.14380191
34	0x3e872d74	0.26401865
35	0x3e216c43	0.15763955
36	0xbe859ee2	-0.2609778
37	0xbdd3a386	-0.10333924
38	0xbdc1a279	-0.09454817
39	0x3d0d150d	0.034443904
40	0xbed76aa5	-0.4207355
41	0x3d6a30f7	0.057175603
42	0xbe357697	-0.1772102
43	0x3df4a613	0.11945739
44	0x3f417aec	0.7557819
45	0xbe08c42d	-0.13356085
46	0x3e7ea14f	0.24866222
47	0xbd2e3ae2	-0.042536624
48	0xbdc4a207	-0.09601217
49	0x3ea8aa10	0.32942247
50	0xbe2aa028	-0.16662657
51	0x3e00af8c	0.12566966
52	0xbe88b34f	-0.26699302
53	0x3f0053c5	0.5012782
54	0x3cba86ec	0.022769414
55	0x3e0e0be6	0.13871726
56	0xbebdac4b	-0.37045512
57	0x3ed06630	0.40702963
58	0x3eda1290	0.42592287
59	0x3ec25298	0.3795364
60	0xbcc1f401	-0.02367592
61	0x3e5749a7	0.2102419
62	0x3df23ac5	0.11827616
63	0x3e86d196	0.26331776
64	0x3dc3da3c	0.09563109
65	0xbdc7c79c	-0.09754869
66	0xbedacfd2	-0.4273668
67	0xbe8032d0	-0.25038767
68	0xbe0b6d3c	-0.13615888
69	0xbec47e7d	-0.38377753
70	0x3eab7654	0.33488715
71	0xbef3071d	-0.47466365
72	0x3eb85b2b	0.36007056
73	0xbe8db0b2	-0.2767387
74	0xbeaeff44	-0.34179127
75	0x3b7369ab	0.003714184
76	0xbe4a6e98	-0.1976875
77	0x3f0f3db3	0.5595352
78	0x3e96d190	0.29456758
79	0x3d68309b	0.05668698
80	0x3dc7ad76	0.09749882
81	0xbd6eac1a	-0.058269598
82	0x3d1c0014	0.038086012
83	0xbe3dc1d5	-0.18530972
84	0x3e89d8ff	0.26923367
85	0x3e0930f6	0.13397583
86	0xbe46864f	-0.19387172
87	0xbc3ca221	-0.011513264
88	0x3e39ffc2	0.1816397
89	0x3e12b745	0.14327724
90	0xbcb2631e	-0.021775778
91	0x3e8049eb	0.25056395
92	0x3eb8c622	0.36088663
93	0xbeffdcb2	-0.49973065
94	0xbe065378	-0.13117778
95	0xbf1bd16d	-0.60866433
96	0x3d291db8	0.041288108
97	0xbead9074	-0.3389927
98	0x3e2428db	0.1603121
99	0x3d436f21	0.047713403
100	0x3ef12747	0.4710028
101	0xbe57c6a8	-0.21071875
102	0xbc93d702	-0.01804686
103	0x3e8272ba	0.25478154
104	0x3e8e3970	0.27778196
105	0x3d396c0b	0.045269053
106	0x3db7d476	0.089760706
107	0xbe4d1c74	-0.20030385
108	0x3e01ef13	0.12688856
109	0xbe7dccc6	-0.24785146
110	0xbe56ea49	-0.2098781
111	0xbf279aba	-0.6547047
112	0x3e31ad4f	0.17351268
113	0x3d9eeebf	0.07760381
114	0x3ee45bc6	0.44601268
115	0xbe750415	-0.23927338
116	0x3cb1b099	0.021690654
117	0x3c949088	0.018135324
118	0xbf11d92d	-0.5697201
119	0xbef7379c	-0.48284614
120	0x3e36254d	0.17787667
121	0xbebe59b9	-0.37177828
122	0xbe8db94c	-0.27680433
123	0x3ece4a98	0.40291286
124	0xbd576407	-0.052585628
125	0x3eb63e32	0.35594326
126	0x3dba5be6	0.090995595
127	0xbe945f72	-0.2897907

dnn.4.running_var f4 [128]
0	0x3e68c8c6	0.22732839
1	0x3f29387b	0.6610181
2	0x3f14d9db	0.5814492
3	0x3dba220c	0.09088525
4	0x3dafd3b3	0.085853
5	0x3d8f4957	0.0699641
6	0x3e907a1c	0.28218162
7	0x3e478a80	0.19486427
8	0x3d18a6ff	0.037268635
9	0x3da35efd	0.07977102
10	0x3d8bd2dc	0.068273276
11	0x3e8435bb	0.25822243
12	0x3e4d5b03	0.2005425
13	0x3e49f93c	0.19723982
14	0x3dd62dd6	0.10457961
15	0x3ec7c824	0.39019883
16	0x3ea2d2da	0.31801492
17	0x3ef1a326	0.47194785
18	0x3e4362a0	0.19080591
19	0x3d89efd2	0.06735195
20	0x3ed15d8f	0.40891692
21	0x3eaa96ba	0.3331812
22	0x3de9a630	0.11408651
23	0x3edf4428	0.43606687
24	0x3deb5588	0.11490923
25	0x3e74589f	0.23861931
26	0x3edd0939	0.431711
27	0x3e315eec	0.17321366
28	0x3d880ccf	0.06643068
29	0x3ee11512	0.43961388
30	0x3e9200a5	0.28516117
31	0x3f1a4493	0.60260886
32	0x3cbae14a	0.022812504
33	0x3f0b989c	0.5452974
34	0x3d8071de	0.062717184
35	0x3ec24fff	0.37951657
36	0x3e78ae2e	0.24285194
37	0x3de65985	0.11247543
38	0x3ebf17b6	0.37322778
39	0x3dfce18d	0.12347708
40	0x3ea1bdc7	0.315901
41	0x3f026346	0.5093273
42	0x3ea693a7	0.32534525
43	0x3eaa02ae	0.3320517
44	0x3ea2589d	0.31708232
45	0x3e4dd413	0.20100431
46	0x3e92e65f	0.28691384
47	0x3ecbc22c	0.3979658
48	0x3db1d8ce	0.0868393
49	0x3db5166a	0.08842166
50	0x3d58d15c	0.052934036
51	0x3f0957ef	0.536498
52	0x3e88b728	0.26702237
53	0x3e8664f0	0.26248884
54	0x3e4e14ca	0.20125118
55	0x3da8fde1	0.082515486
56	0x3f03eb1e	0.51530635
57	0x3e39dbf1	0.18150307
58	0x3ecf9343	0.4054204
59	0x3e3b8310	0.18311715
60	0x3d140a51	0.03614265
61	0x3d11573d	0.035483588
62	0x3eb5369e	0.35393232
63	0x3e9dce15	0.3082129
64	0x3e0129cb	0.12613599
65	0x3da571c9	0.080783434
66	0x3e864e41	0.26231578
67	0x3f30daaf	0.69083685
68	0x3f27f05f	0.6560115
69	0x3ef106ee	0.470756
70	0x3f02bcb9	0.5106922
71	0x3e199188	0.14996922
72	0x3e903296	0.28163594
73	0x3e94ca71	0.290607
74	0x3d9b42ed	0.075811245
75	0x3e2e0a89	0.16996206
76	0x3f39c51a	0.7256638
77	0x3e9fdbdc	0.31222427
78	0x3e30a673	0.17250995
79	0x3d1f7df8	0.038938493
80	0x3f02699e	0.5094241
81	0x3dfaf820	0.12254357
82	0x3ea92e15	0.3304297
83	0x3ddc83b5	0.107673086
84	0x3e5b4f18	0.2141689
85	0x3e2bcbe8	0.16777003
86	0x3eac5abb	0.33662972
87	0x3e75741e	0.23970076
88	0x3d611312	0.054949827
89	0x3d8a607d	0.06756685
90	0x3ea9a5cf	0.33134314
91	0x3f186571	0.5952979
92	0x3e90362a	0.28166324
93	0x3ee32af7	0.44368717
94	0x3eb8dddb	0.36106762
95	0x3f051545	0.5198558
96	0x3dbf45cf	0.09339487
97	0x3d9f730e	0.07785617
98	0x3e7f257b	0.24916641
99	0x3e16d0ed	0.14728136
100	0x3e2edd8b	0.170767
101	0x3e139742	0.14413169
102	0x3d638619	0.055547807
103	0x3e197cef	0.14989065
104	0x3eab1175	0.33411756
105	0x3ddf68a1	0.10908628
106	0x3e3b2977	0.18277536
107	0x3e0923e2	0.13392594
108	0x3da3dc8f	0.080010526
109	0x3f1a75f5	0.6033624
110	0x3efc92fc	0.4933089
111	0x3e4a6468	0.19764864
112	0x3e3a6d09	0.18205656
113	0x3d639920	0.055565953
114	0x3f5607bc	0.8360555
115	0x3e9b8c03	0.30380258
116	0x3e976eca	0.29576713
117	0x3ec0bceb	0.37644133
118	0x3f16aeee	0.5886067
119	0x3dd73123	0.10507419
120	0x3d831cda	0.064019874
121	0x3e587fab	0.21142451
122	0x3ead952f	0.3390288
123	0x3e08a30a	0.13343444
124	0x3dbcdf83	0.09222319
125	0x3d859014	0.06521621
126	0x3d20c1da	0.03924737
127	0x3e4f4165	0.2023979

dnn.6.weight f4 [64, 128]
0	0x3d95ec41	0.073204525
1	0x3d61eeb0	0.05515927
2	0x3d87ef5b	0.0663745
3	0xbd9244b0	-0.07142007
4	0xbd9f05ed	-0.07764802
5	0x3d139cc2	0.036038168
6	0x3b7c5e32	0.0038508293
7	0x3c118e88	0.00888408
8	0xbdbf42b7	-0.09338897
9	0x3d33243d	0.04373573
10	0x3c89e107	0.016830934
11	0xbd709516	-0.05873593
12	0x3d60b6b9	0.054861758
13	0x3d8c186f	0.06840598
14	0x3d21b646	0.03948047
15	0xba7c2a4d	-0.00096193404
16	0xbc8b4718	-0.017001674
17	0x3cbdd9b4	0.023175098
18	0x3d4d6472	0.05014462
19	0x3b8e086a	0.004334499
20	0xbd3fd525	-0.04683413
21	0x3d32e889	0.043678794
22	0x3ce5cc33	0.028051471
23	0xbd8a72c4	-0.06760171
24	0x3dcedc95	0.101006664
25	0x3d39ad13	0.045331072
26	0xbd528513	-0.05139644
27	0x3e02fe58	0.12792337
28	0xbbe3a74b	-0.006947433
29	0x3d9923ef	0.07477557
30	0x3dd1fe77	0.102536134
31	0xbcc37ed0	-0.02386418
32	0xbb399868	-0.00283196
33	0x3da44351	0.08020652
34	0xbcddb63a	-0.027064431
35	0x3d0be8a4	0.03415741
36	0xbc2b28d2	-0.010446744
37	0x3d165df6	0.036710702
38	0x3db3a59d	0.087718226
39	0x3cdf9ca6	0.027296375
40	0x3b3d1f35	0.0028857712
41	0xbc948d56	-0.0181338
42	0x3da71080	0.08157444
43	0xbd7b456a	-0.061345495
44	0xbd49a82a	-0.04923264
45	0x3da5eaec	0.081014484
46	0xbda103d4	-0.07862058
47	0x3ddcc696	0.10780065
48	0xbdb6efb3	-0.08932438
49	0xbc8f2713	-0.017474687
50	0x3d012bce	0.031535916
51	0xbb8d6bad	-0.0043158145
52	0xbc01183f	-0.007879316
53	0xbd47b115	-0.048752863
54	0x3bc9aa77	0.006154354
55	0x3d99baec	0.07506356
56	0xbd457c46	-0.04821422
57	0xbdb77e36	-0.0895962
58	0xbd65ba2f	-0.05608576
59	0x3d46f7ee	0.048576288
60	0x3d0fdd38	0.03512308
61	0x3d6fb9be	0.058526747
62	0xbdab6b54	-0.083700806
63	0xbd729908	-0.059227973
64	0xbdbe80c5	-0.093019046
65	0x3d563927	0.0523006
66	0x3c1b84a3	0.009492072
67	0x3b9e9ef9	0.0048407284
68	0xbb305589	-0.0026906452
69	0x3d4ae7a1	0.049537305
70	0x3d519307	0.051165607
71	0x3da012ca	0.07816084
72	0x3d8f60fd	0.07000921
73	0xbd2ab1f8	-0.04167363
74	0x3d9575c1	0.072978504
75	0x3da26cbf	0.07930898
76	0xbd9751ef	-0.073886745
77	0x3c9284d7	0.017885609
78	0x3dcac6ad	0.09901176
79	0xbda18ed3	-0.0788857
80	0xbd73f741	-0.05956197
81	0xbdb16abd	-0.08662937
82	0x3df4d7a8	0.11955196
83	0xbdca444d	-0.098763086
84	0x3e0cd646	0.13753614
85	0x3dc28da7	0.09499674
86	0xbc8d9c40	-0.01728642
87	0xbd0b5389	-0.034015212
88	0xbd4739c2	-0.048639067
89	0xbba92748	-0.0051621534
90	0x3d9046fd	0.0704479
91	0xbcdb5eb1	-0.02677855
92	0xbd8af254	-0.06784502
93	0xbcaa3891	-0.020778926
94	0x3d52dd69	0.051480684
95	0xbd7c9109	-0.061661754
96	0xbb9b8e72	-0.0047472054
97	0xbc487b93	-0.012236494
98	0xbbe54789	-0.006997053
99	0x3d0872b3	0.03331251
100	0x3c8f545d	0.017496282
101	0xbd3052fc	-0.04304789
102	0xbb83da49	-0.0040238244
103	0x3cc313f5	0.023813227
104	0xbd501f69	-0.050811205
105	0x3cc917b7	0.02454744
106	0x3cdaefc7	0.026725663
107	0x3da12239	0.078678556
108	0xbd5fa68a	-0.054602183
109	0x3c68e703	0.014215234
110	0x3d7a861a	0.061163045
111	0xbd3938ed	-0.045220304
112	0x3dcf0b5a	0.10109587
113	0xbc9a4e0d	-0.018836046
114	0xbcb6657c	-0.022265188
115	0xbd9612f0	-0.07327831
116	0x3bfc9105	0.0077077174
117	0xbd5e852b	-0.054326218
118	0xbd9147a4	-0.070937425
119	0x3c2242d4	0.009903628
120	0x3d9c48bb	0.0763106
121	0xbd5eed66	-0.05442562
122	0x3b82ebd6	0.003995399
123	0x3ca044a7	0.019563986
124	0xbd7c2d8b	-0.06156687
125	0xbd39882d	-0.045295883
126	0xb90e7ed4	-0.00013589422
127	0xbd9fa68f	-0.077954404
128	0xbdaa7b1e	-0.08324264
129	0x3cde1c7a	0.027113188
130	0xbd1a9d9b	-0.03774796
131	0x3e16f3e9	0.14741482
132	0x3baea863	0.005330132
133	0x3d8ed967	0.0697506
134	0x3d376f0d	0.04478364
135	0x3da180cd	0.07885895
136	0x3be023f3	0.006840223
137	0xbdf65443	-0.120277904
138	0x3dbbfe78	0.091793954
139	0xbd129c91	-0.035793845
140	0x3d38a130	0.045075595
141	0x3dcf9cb3	0.1013731
142	0x3e0aa80c	0.13540667
143	0x3d479f63	0.048735987
144	0x3c460c5a	0.012087906
145	0x3d47b710	0.048758566
146	0x3d8ec183	0.06970503
147	0xbd26cd69	-0.04072324
148	0xbc82b227	-0.01595409
149	0xbc874353	-0.016511595
150	0x3dabd593	0.083903454
151	0x3d0c4891	0.034248892
152	0xbd9765cf	-0.07392465
153	0xbbcc9b4a	-0.006244098
154	0xbd08296f	-0.03324264
155	0x3c2b2e90	0.010448113
156	0x3d9bcc8a	0.07607372
157	0xbdb94de0	-0.090480566
158	0xbc97dc9f	-0.018537818
159	0xbd5aae78	-0.053389043
160	0x3d12260d	0.03568082
161	0xbbe1c0b1	-0.0068894257
162	0x3d8ac782	0.06776334
163	0xbd4c89d1	-0.04993612
164	0x3dab7423	0.08371761
165	0x3c29f2e7	0.010372854
166	0xbcc85b1d	-0.024457509
167	0x3d10a336	0.0353119
168	0xbb11b7b3	-0.0022234737
169	0xbc20a7d6	-0.00980564
170	0x3c098a05	0.008394723
171	0x3da9b98d	0.08287344
172	0xbdc65b40	-0.09685373
173	0x3d52e410	0.05148703
174	0xbca99379	-0.020700203
175	0xbd7d15d7	-0.061788406
176	0x3d25119e	0.040300004
177	0x3c56de34	0.013114501
178	0xbc8bf2ce	-0.017083552
179	0x3c145977	0.009054533
180	0xbd824d8f	-0.063624494
181	0xbd00515c	-0.03132759
182	0x3b74cf6c	0.0037355078
183	0xbd1c47cd	-0.038154412
184	0xbd5c735e	-0.05382096
185	0x3a905945	0.0011012933
186	0x3db47de6	0.08813076
187	0x3d81d232	0.0633892
188	0xbbb248c6	-0.005440804
189	0x3c81ce0c	0.015845321
190	0xbd624852	-0.05524475
191	0x3d9e4a55	0.077290215
192	0xbd46aec4	-0.048506513
193	0xbdc45a71	-0.09587563
194	0x3d5ccdbe	0.05390715
195	0xbd353776	-0.044242345
196	0x3db38dbb	0.08767267
197	0xbb8b93c5	-0.004259559
198	0x3d9d5efb	0.07684132
199	0x3ca2f2d2	0.019891176
200	0x3b8ac350	0.004234709
201	0x3dd0d6a2	0.10197188
202	0x3d6fc3f8	0.0585365
203	0x3ddb464f	0.1070677
204	0x3d344747	0.044013288
205	0x3a60887f	0.00085652614
206	0xbd903ad7	-0.07042473
207	0xbda7580c	-0.081710905
208	0xbcae089d	-0.021244342
209	0xbc002b14	-0.007822771
210	0xbd34fe1f	-0.04418766
211	0xbda5a82d	-0.080887176
212	0xbd8df6ca	-0.06931837
213	0x3d6aadf0	0.057294786
214	0xbbe56d66	-0.0070015667
215	0x3dd127f6	0.102127
216	0x3d97da68	0.074147046
217	0x3d6b516a	0.05745069
218	0x394e2b34	0.00019661785
219	0x3c631773	0.013860571
220	0x3cb29225	0.021798203
221	0xbb03d149	-0.0020113757
222	0x3db08f6d	0.08621106
223	0x3d94bd48	0.07262665
224	0x3d971fcb	0.07379111
225	0xbd9f4ab9	-0.07777924
226	0x3c395e2a	0.011313954
227	0xbcbe205f	-0.023208795
228	0x3c73561e	0.014852075
229	0xbce3d518	-0.027811572
230	0x3d88e576	0.06684391
231	0xbd85c6d8	-0.06532067
232	0x3ce60a14	0.028080977
233	0x3ae013eb	0.001709578
234	0x3d95a2cb	0.07306441
235	0xbc38b2c3	-0.011273089
236	0xbd097606	-0.03355982
237	0x3dcc969c	0.09989664
238	0x3d742841	0.0596087
239	0xba9ce584	-0.0011970256
240	0xbd9c9c10	-0.07646954
241	0x3db8d098	0.09024161
242	0xba4a0a46	-0.00077072193
243	0x3da0e407	0.07855993
244	0x3d7416b4	0.059591964
245	0xbdb60a85	-0.08888725
246	0x3d8ead80	0.06966686
247	0x3ca506ef	0.020144908
248	0x3d94fb6b	0.07274517
249	0xbc82f94c	-0.015988015
250	0xbd9313eb	-0.071815334
251	0xbd621b9b	-0.055202108
252	0xbd240eeb	-0.04005329
253	0xbc789ae6	-0.015173649
254	0x3e0c3223	0.13691
255	0x3b5d19ff	0.0033737419

dnn.6.bias f4 [64]
0	0xbda9031f	-0.082525484
1	0x3d34d169	0.04414502
2	0xbc8d6efe	-0.01726484
3	0xbd40e5c3	-0.047094118
4	0x3c536538	0.01290255
5	0xbd89541d	-0.067054965
6	0x3d177d99	0.036985014
7	0xbd8b8446	-0.068123385
8	0xbdabe453	-0.08393159
9	0xbc85e677	-0.016345246
10	0x3d498087	0.04919484
11	0x3c8176b8	0.01580368
12	0xbd423b37	-0.047419753
13	0x3d001965	0.031274218
14	0x3c06d6fc	0.008229967
15	0xbd81cd4e	-0.06337987
16	0xbd266ad9	-0.04062924
17	0xbda7b208	-0.08188254
18	0x3d3e2ed9	0.046431396
19	0x3d8f0ede	0.069852576
20	0x3d91d469	0.07120592
21	0xbcdae7b2	-0.026721809
22	0xbb023d83	-0.001987309
23	0xbd377565	-0.04478969
24	0xbccbfef2	-0.02490184
25	0xbd3a07c7	-0.045417573
26	0xbc715382	-0.0147293825
27	0xbd2eea19	-0.04270372
28	0xbd8e8006	-0.06958012
29	0x3d038626	0.032110356
30	0xbca3c7e2	-0.019992772
31	0xbce6cf0f	-0.028174905
32	0x3d49f46d	0.04930537
33	0xbd2d9fb8	-0.042388648
34	0xbdad209d	-0.08453486
35	0xba974db0	-0.0011543538
36	0x3d721ee5	0.059111495
37	0xbdab8488	-0.08374888
38	0xbd713abf	-0.058893915
39	0x3bacb9fa	0.0052711936
40	0xbdb32f97	-0.087493114
41	0x3d039bbd	0.032130945
42	0xbc076619	-0.008264088
43	0x3c3b4000	0.011428833
44	0x3d7dc738	0.061957568
45	0x3d7363d5	0.05942138
46	0x3d986417	0.074409656
47	0xbcd76b51	-0.02629629
48	0x3c447da1	0.011992843
49	0x3d0dabe6	0.034587763
50	0x3cc9c06f	0.024627892
51	0x3d0c24b4	0.03421469
52	0x3cd5d8d8	0.026104376
53	0x3d54bde3	0.051938903
54	0xbad79c97	-0.0016449866
55	0x3d3a71e2	0.045518763
56	0xbd66e19c	-0.0563675
57	0x3d1e781a	0.038688757
58	0x3d783102	0.060593612
59	0x3db3c3d9	0.08777589
60	0x3bec4f06	0.0072115688
61	0x3da5dc0f	0.080986135
62	0x3d8cc2f2	0.0687312
63	0xbda8a642	-0.08234836

dnn.7.weight f4 [64]
0	0x3f7bbd97	0.98336166
1	0x3f79fd01	0.9765168
2	0x3f7d3edd	0.98924047
3	0x3f848e89	1.0355998
4	0x3f7b7b80	0.9823532
5	0x3f77710d	0.96656877
6	0x3f845382	1.0337985
7	0x3f6d9993	0.9281246
8	0x3f7661e7	0.9624314
9	0x3f74059d	0.95321065
10	0x3f739f59	0.9516502
11	0x3f812b8f	1.0091418
12	0x3f82634f	1.0186557
13	0x3f82a496	1.0206478
14	0x3f7f8f1c	0.9982774
15	0x3f7aecd7	0.9801764
16	0x3f8410e1	1.0317651
17	0x3f6b4877	0.9190745
18	0x3f81c59a	1.0138428
19	0x3f7f9ce5	0.9984878
20	0x3f845d83	1.0341038
21	0x3f853013	1.0405296
22	0x3f86022c	1.0469413
23	0x3f760718	0.96104574
24	0x3f805359	1.0025436
25	0x3f7c6412	0.98590195
26	0x3f84c970	1.0373974
27	0x3f7e2c89	0.99286705
28	0x3f780217	0.9687819
29	0x3f89bace	1.0760133
30	0x3f862126	1.0478866
31	0x3f768fd3	0.9631321
32	0x3f71f377	0.9451212
33	0x3f75e581	0.9605332
34	0x3f80ef59	1.0073043
35	0x3f7c782c	0.9862087
36	0x3f7b2df5	0.98117
37	0x3f805aad	1.0027672
38	0x3f7bc6fc	0.983505
39	0x3f73e402	0.9526979
40	0x3f87a05c	1.0595813
41	0x3f7caab6	0.98697984
42	0x3f8ccf04	1.1000676
43	0x3f87c693	1.0607475
44	0x3f81333c	1.009376
45	0x3f82e843	1.0227131
46	0x3f814f18	1.0102262
47	0x3f8c0c71	1.0941297
48	0x3f6a67d3	0.91564673
49	0x3f87966e	1.0592782
50	0x3f61725c	0.88065124
51	0x3f806206	1.0029914
52	0x3f87df03	1.0614933
53	0x3f81147b	1.0084375
54	0x3f86b99a	1.0525391
55	0x3f78ab27	0.9713616
56	0x3f8a1039	1.0786201
57	0x3f8c01c3	1.0938038
58	0x3f6a969e	0.91636074
59	0x3f83cdd9	1.0297195
60	0x3f72d970	0.94863033
61	0x3f78b8ed	0.97157174
62	0x3f7a2565	0.9771331
63	0x3f72afb1	0.94799334

dnn.7.bias f4 [64]
0	0xbcf9b108	-0.030479923
1	0xbd5a44a8	-0.053288132
2	0xbaa0bdd7	-0.0012263608
3	0x3dd2ce0d	0.10293207
4	0x3d2ac251	0.04168922
5	0xbd1bfff0	-0.038085878
6	0x3c992087	0.018692268
7	0xbbd8183d	-0.0065946863
8	0xbc9e092f	-0.019291488
9	0xbd26f0a0	-0.04075682
10	0xbc2698a1	-0.0101682255
11	0x3c8def0c	0.0173259
12	0x3ad36cfe	0.0016130505
13	0x3ba350d8	0.0049840026
14	0xbba315a3	-0.0049769445
15	0x3d4127e2	0.047157176
16	0x3c1612a7	0.0091597205
17	0xbd3a0a4e	-0.045419984
18	0xbc81c485	-0.015840778
19	0x3d3b05f3	0.04565997
20	0xbc76e890	-0.015070096
21	0x3d8c9986	0.0686522
22	0x3c78df99	0.015190029
23	0xbd27aefc	-0.040938362
24	0xbc82a00b	-0.015945455
25	0xbc001c21	-0.007819206
26	0x3cb2193d	0.02174055
27	0x3c2d21a6	0.010567104
28	0xbd01bcd7	-0.031674232
29	0x3d7030d0	0.0586403
30	0x3dc66b43	0.09688427
31	0xbd672da5	-0.056440014
32	0x3c4b4b97	0.012408159
33	0xbd13b70c	-0.03606324
34	0x3c6b7b3a	0.014372641
35	0xbcc02590	-0.023455411
36	0x3cb75e8d	0.022383953
37	0x3b0acf73	0.0021180778
38	0xbcf79961	-0.030224504
39	0xbd851fc7	-0.06500202
40	0x3cb643d9	0.02224915
41	0xbd30abe4	-0.043132678
42	0x3d2e1b99	0.042506788
43	0x3db2493c	0.087053746
44	0xbcd65d5d	-0.026167566
45	0x3d82d082	0.06387426
46	0xbd97a814	-0.07405105
47	0x3dd9c47f	0.10633182
48	0xbd251cac	-0.040310547
49	0x3c824be2	0.015905324
50	0xbd139610	-0.036031783
51	0x3b97a0aa	0.004627307
52	0x3d80e181	0.062930115
53	0xbb9529c2	-0.004552097
54	0x3d5b3e64	0.053526297
55	0xbcb033f7	-0.021509154
56	0x3e07958e	0.13240644
57	0x3e048b09	0.12943663
58	0xbd0c6f4f	-0.03428584
59	0xbb1ff748	-0.0024408866
60	0xbd583c74	-0.052792028
61	0xbcf85728	-0.030314997
62	0xbd8dcd2c	-0.06923899
63	0xbd701840	-0.058616877
